omniisaacgymenvs/runs/my_Cartpole/nn/my_Cartpole.pth (torch, 28695 bytes, 24 tensors)

value_mean_std.running_mean f8 [1]
7.099407452943111
00000000: 2f7a 3d11 cb65 1c40

value_mean_std.running_var f8 [1]
7.819088150867443
00000000: 2f11 520b bf46 1f40

value_mean_std.count f8 []
1638401.0
00000000: 0000 0000 0100 3941

running_mean_std.running_mean f8 [4]
0.049400039716046236 0.02397116128869305 0.0016612297285748371 0.022161701947067885
00000000: 31c7 0046 f64a a93f 05d9 2067 e58b 983f
00000010: b569 bed6 b337 5b3f bb6d 58a4 8eb1 963f

running_mean_std.running_var f8 [4]
1.0494352958729727 1.38863721778977 0.0686092594344457 0.8982514145225647
00000000: 16ae 30aa 7cca f03f daa5 c6a8 db37 f63f
00000010: f545 795d 6090 b13f 97b9 1ec0 79be ec3f

running_mean_std.count f8 []
819201.0
00000000: 0000 0000 0200 2941

a2c_network.actor_mlp.0.weight f4 [32, 4]
0.031185115 -0.07311724 -0.072013386 0.37276715 0.23319724 -0.1797465 0.7117896 0.5856909
0.09483559 -0.032763757 0.6141785 0.21329555 0.16812685 -0.12036255 -0.12154791 0.20703608
0.035247143 -0.16131797 -0.05922647 0.34586862 -0.13546231 -0.23255391 0.17075828 -0.014543535
0.22892028 -0.42305928 0.4182456 -0.45895782 0.15226683 -0.12664981 -0.09844886 0.22483474
0.16482449 0.34993517 -0.0056467643 -0.08203037 0.00912685 -0.138324 0.4789752 0.7369553
-0.05333251 -0.29780972 0.48208782 0.43477425 0.30798557 0.2016123 -0.7333867 -0.29069582
-0.055115655 0.47202381 0.04287078 0.17044073 0.12582865 -0.06310145 0.28681377 -0.4540857
-0.2437125 -0.34409583 0.05023049 -0.065714665 0.12521996 -0.14562057 0.3682203 -0.33736897
-0.30533007 -0.37828913 0.687553 0.66681087 0.44 0.031887047 -0.7076871 -0.5551738
-0.31066245 -0.05591564 0.38927504 0.4714028 -0.017136255 -0.29383597 0.28801674 -0.17521434
0.040914662 -0.14842896 0.30533564 -0.39937094 -0.17796418 0.07231801 0.18914664 -0.01830458
0.28976557 0.48009083 -0.32319567 -0.41559932 0.4245857 0.27363014 -0.42254418 -0.6640518
-0.25126603 0.16140832 0.21091722 -0.09080436 -0.03931489 -0.113223605 -0.47015122 -0.22319321
-0.40559575 -0.48636436 0.45074883 0.24629895 0.043785058 -0.107533336 -0.58637136 -0.2999312
-0.060639463 -0.13538685 -0.43636295 -0.3896774 -0.0040907892 -0.09396335 0.18412492 -0.14204368
-0.36318117 -0.46396506 0.20566344 0.07498463 0.29435953 0.008510105 0.6483458 0.504389
00000000: ed77 ff3c 7ebe 95bd c17b 93bd 56db be3e
00000010: 42cb 6e3e 770f 38be d837 363f d7ef 153f
00000020: 2939 c23d 4a33 06bd cd3a 1d3f 266a 5a3e
00000030: 7229 2c3e a480 f6bd 1cee f8bd 4401 543e
00000040: 4f5f 103d 8a30 25be 7497 72bd b115 b13e
00000050: a2b6 0abe 9d22 6ebe 42db 2e3e 0248 6ebc
00000060: 146a 6a3e 3a9b d8be 4a24 d63e 85fc eabe
00000070: d6eb 1b3e 7db0 01be 8e9f c9bd 143b 663e
00000080: c0c7 283e b42a b33e 7e08 b9bb 8aff a7bd
00000090: c988 153c cfa4 0dbe 3d3c f53e 1aa9 3c3f
000000a0: 3173 5abd 847a 98be 37d4 f63e bb9a de3e
000000b0: 49b0 9d3e 7473 4e3e 3bbf 3bbf 15d6 94be
000000c0: f4c0 61bd 1bad f13e 4599 2f3d 0488 2e3e
000000d0: 3ad9 003e 553b 81bd 41d9 923e ec7d e8be
000000e0: c58f 79be 542d b0be 7cbe 4d3d 6995 86bd
000000f0: a939 003e 8f1d 15be 5f87 bc3e a0bb acbe
00000100: 3954 9cbe 1daf c1be 7903 303f 1eb4 2a3f
00000110: ae47 e13e fe9b 023d fb2a 35bf df1f 0ebf
00000120: 260f 9fbe cc07 65bd 0f4f c73e b55b f13e
00000130: 5561 8cbc ab71 96be ee76 933e 636b 33be
00000140: 2296 273d c3fd 17be f454 9c3e 597a ccbe
00000150: 3e3c 36be 771b 943d a8af 413e 7df3 95bc
00000160: 275c 943e 77ce f53e e779 a5be 6fc9 d4be
00000170: 4c63 d93e 4019 8c3e b657 d8be 4cff 29bf
00000180: f1a5 80be 3948 253e affa 573e a3f7 b9bd
00000190: a608 21bd c7e1 e7bd a9b7 f0be c38c 64be
000001a0: 3faa cfbe c004 f9be 8dc8 e63e cb35 7c3e
000001b0: f657 333d 703a dcbd 6f1c 16bf 9590 99be
000001c0: 1661 78bd daa2 0abe f76a dfbe cc83 c7be
000001d0: 070c 86bb db6f c0bd 3e8b 3c3e e673 11be
000001e0: e2f2 b9be d48c edbe 7099 523e 8b91 993d
000001f0: 4bb6 963e f86d 0b3c fef9 253f a31f 013f

a2c_network.actor_mlp.0.bias f4 [32]
0.058039647 -0.22742788 -0.14681013 -0.017812517 0.05169594 0.17329873 0.22453846 -0.12994272
0.16071811 -0.2726648 -0.27972987 -0.15638152 -0.0061059655 -0.028113155 -0.14612792 0.09725766
-0.19365345 -0.2434214 -0.076581016 0.16130242 -0.025491234 0.14399777 -0.15021242 -0.19465655
0.2091526 0.08874131 0.23522761 -0.10147929 -0.2299081 0.055797122 0.26190108 -0.23946221
00000000: fbba 6d3d dbe2 68be 6555 16be 8eeb 91bc
00000010: 1fbf 533d 3975 313e 69ed 653e b40f 05be
00000020: 4a93 243e b89a 8bbe c138 8fbe 7a22 20be
00000030: 8d14 c8bb 8f4d e6bc 8fa2 15be 062f c73d
00000040: 174d 46be 7643 79be 82d6 9cbd 762c 253e
00000050: fed2 d0bc 2774 133e 49d1 19be 0c54 47be
00000060: 192c 563e 01be b53d 82df 703e 60d4 cfbd
00000070: 076d 6bbe 868b 643d e617 863e 9535 75be

a2c_network.actor_mlp.2.weight f4 [32, 32]
0.21692678 -0.10574326 -0.11327511 0.14496224 0.1328457 0.04193442 -0.18164697 -0.06578063
0.025977852 0.009606802 -0.15348369 -0.07695787 -0.09799751 -0.050747745 0.053601753 -0.33862352
0.13232052 0.07761148 0.066695414 -0.026579553 0.10044205 0.16005053 0.023619123 -0.05504246
0.054889 -0.027464526 0.0027845881 -0.11506058 0.10795316 0.18440548 0.1197982 -0.0774242
0.12446811 -0.12286142 0.040671397 -0.038443882 -0.037563924 -0.14502124 0.15172303 0.0074191997
-0.12414605 -0.2998715 -0.22480716 -0.36512393 0.011220795 0.015969642 0.14764829 0.09090379
-0.3106903 -0.31663522 -0.049541026 0.14985855 0.013160682 -0.11146692 -0.19038826 -0.28875434
-0.18304396 0.05061117 -0.16530669 -0.14149642 -0.32999885 0.05492209 0.06378167 -0.0732446
-0.110837586 -0.45372167 -0.18721873 0.20467058 0.08847253 0.043715447 0.24731739 0.070834786
-0.05756306 -0.49897352 -0.47302204 -0.2904759 -0.002964041 -0.027377974 -0.06680304 -0.050755493
-0.42920744 -0.28486526 -0.322545 0.089371525 0.04613905 -0.068305925 -0.20684467 -0.269653
-0.1490689 -0.07600119 -0.2880792 -0.2084797 -0.04469921 -0.107235655 -0.018682145 -0.19252767
0.20448853 -0.22837095 0.07830653 -0.05028524 0.09610306 0.24721874 -0.091616176 -0.050975487
-0.037333086 -0.16845013 -0.010484489 -0.11336755 0.12820493 0.065471716 0.07767223 -0.14886266
-0.18925034 0.07477654 0.03035624 -0.19273506 0.017619938 -0.1038251 0.0030404206 -0.06746478
0.00041435595 -0.057642665 -0.24348597 0.14718582 0.1936801 0.0011986174 0.051301606 -0.11260513
-0.22964989 -0.30314353 0.0822062 -0.1271315 -0.20286292 -0.13067523 -0.058392826 0.011005087
-0.0790554 -0.26067835 -0.17712747 -0.19547872 -0.22076751 0.15914619 0.005761532 0.060224723
-0.31065372 -0.061762765 0.04127054 0.01060224 -0.11787979 -0.024391092 0.08304747 0.01760201
-0.0046694363 0.112234466 -0.224706 -0.0012366802 -0.1738036 0.002080513 -0.045601144 -0.0517986
-0.015820842 -0.19415265 -0.17022029 -0.18257639 -0.08195354 0.03955869 0.035532 -0.020893313
-0.17215233 -0.08348047 0.03487677 -0.1034567 0.003408162 0.005709692 -0.18304154 -0.1341695
0.03185389 -0.03113894 -0.078732125 -0.15129882 -0.14626119 -0.06356797 0.17613241 -0.09879494
-0.049381975 0.040339425 0.054241575 0.06947063 0.15409185 0.08982986 -0.09571817 0.0055627134
0.07084036 -0.08288214 -0.053758327 0.0851222 -0.013815245 -0.11825702 0.00019419396 -0.008400781
-0.07978271 -0.12533514 -0.02950914 -0.32614598 -0.1974004 0.07016791 0.19829229 0.17003141
-0.26117513 -0.21025969 -0.15065856 0.023694398 0.09514355 0.03626734 -0.02009457 -0.34654874
0.051155645 -0.21093048 0.048215665 0.0169982 -0.18140028 0.1023907 -0.16662353 -0.15667282
0.14010952 -0.17928769 -0.012654142 0.011296093 0.11323998 -0.0021285305 0.15164447 -0.07125723
-0.13129903 -0.2336259 -0.122683614 -0.23889315 -0.032631494 0.16572613 0.043958176 0.1015085
-0.26568002 -0.33320352 -0.26767945 -0.09785592 0.029281901 -0.06517528 -0.23777835 -0.22361301
0.08875906 0.030136932 -0.029287755 -0.15272726 -0.21278673 0.08128636 -0.20312615 -0.25838313
00000000: 0e22 5e3e ec8f d8bd c8fc e7bd fb70 143e
00000010: b408 083e 6dc3 2b3d aa01 3abe ffb7 86bd
00000020: 81cf d43c d965 1d3c d42a 1dbe 169c 9dbd
00000030: ebb2 c8bd dedc 4fbd 838d 5b3d 1060 adbe
00000040: 087f 073e c5f2 9e3d 9b97 883d 5dbd d9bc
00000050: 90b4 cd3d 49e4 233e e47c c13c 3474 61bd
00000060: 4ad3 603d 49fd e0bc a37d 363b e2a4 ebbd
00000070: 8c16 dd3d cad4 3c3e c258 f53d 9490 9ebd
00000080: 23e9 fe3d c59e fbbd 0d97 263d 5577 1dbd
00000090: a1dc 19bd 7380 14be 485d 1b3e c21c f33b
000000a0: 4940 febd c288 99be d933 66be 86f1 babe
000000b0: 6dd7 373c c4d2 823c 1d31 173e c42b ba3d
000000c0: cd12 9fbe 031e a2be 88eb 4abd 8574 193e
000000d0: e79f 573c c548 e4bd 24f5 42be 9cd7 93be
000000e0: e06f 3bbe a84d 4f3d 2846 29be 70e4 10be
000000f0: 9cf5 a8be fcf5 603d f79f 823d 4401 96bd
00000100: d1fe e2bd 354e e8be 44b6 3fbe 2a95 513e
00000110: 1631 b53d f80e 333d c540 7d3e d411 913d
00000120: 3ec7 6bbd 7579 ffbe f22f f2be 42b9 94be
00000130: 5b40 42bb c647 e0bc 08d0 88bd fee4 4fbd
00000140: 14c1 dbbe dcd9 91be 9e24 a5be 6b08 b73d
00000150: 4dfc 3c3d fae3 8bbd 17cf 53be f50f 8abe
00000160: 85a5 18be 83a6 9bbd 1e7f 93be b47b 55be
00000170: 8516 37bd 5e9e dbbd 4c0b 99bc f925 45be
00000180: 7165 513e 13da 69be 2d5f a03d e5f7 4dbd
00000190: aed1 c43d e926 7d3e 43a1 bbbd accb 50bd
000001a0: 94ea 18bd 317e 2cbe 22c7 2bbc 3f2d e8bd
000001b0: 2748 033e 0916 863d 9e12 9f3d 746f 18be
000001c0: d7ca 41be 7124 993d a6ad f83c 575c 45be
000001d0: b057 903c 41a2 d4bd cb41 473b f92a 8abd
000001e0: ea3d d939 b71a 6cbd 6354 79be e1b7 163e
000001f0: 1354 463e ed1a 9d3a a221 523d 859d e6bd
00000200: 5729 6bbe a135 9bbe b95b a83d c32e 02be
00000210: 4cbb 4fbe bacf 05be 512d 6fbd ae4e 343c
00000220: cce7 a1bd a277 85be e760 35be 932b 48be
00000230: e110 62be 38f7 223e 3ccb bc3b 33ae 763d
00000240: 010e 9fbe f4fa 7cbd 4c0b 293d 05b5 2d3c
00000250: f66a f1bd d4cf c7bc cb14 aa3d 1732 903c
00000260: 1202 99bb 2fdb e53d 5419 66be 1a18 a2ba
00000270: 92f9 31be 3759 083b 44c8 3abd c52a 54bd
00000280: b69a 81bc f4cf 46be 3a4e 2ebe 4ef5 3abe
00000290: 42d7 a7bd 4b08 223d 018a 113d 7428 abbc
000002a0: b348 30be cff7 aabd f2da 0e3d 1be1 d3bd
000002b0: 785b 5f3b 5e18 bb3b 3e6f 3bbe bb63 09be
000002c0: 3979 023d 1717 ffbc 4f3e a1bd 14ee 1abe
000002d0: 7ec5 15be ed2f 82bd 0e5c 343e 0055 cabd
000002e0: c144 4abd f43a 253d 6a2c 5e3d 9e46 8e3d
000002f0: 41ca 1d3e b8f8 b73d e307 c4bd 6c47 b63b
00000300: c014 913d 1dbe a9bd b131 5cbd 8c54 ae3d
00000310: 5659 62bc bd30 f2bd 8ba0 4b39 6ea3 09bc
00000320: 1e65 a3bd db57 00be 27bd f1bc 9bfc a6be
00000330: 5523 4abe 31b4 8f3d 220d 4b3e b71c 2e3e
00000340: bfb8 85be 514e 57be 3d46 1abe c11a c23c
00000350: 9fda c23d 108d 143d 5e9d a4bc d66e b1be
00000360: 9588 513d 29fe 57be ca7d 453d cf3f 8b3c
00000370: ffc0 39be 37b2 d13d 5c9f 2abe d76e 20be
00000380: df78 0f3e 3197 37be 5253 4fbc 4013 393c
00000390: 5dea e73d d17e 0bbb b048 1b3e 50ef 91bd
000003a0: 4173 06be a13b 6fbe 8c41 fbbd 68a0 74be
000003b0: 9aa8 05bd 1cb4 293e 7d0d 343d b0e3 cf3d
000003c0: 3607 88be a799 aabe 480d 89be af68 c8bd
000003d0: 99e0 ef3c 9e7a 85bd 2b7c 73be cffa 64be
000003e0: 4fc7 b53d bae1 f63c e0ec efbc 8964 1cbe
000003f0: c4e4 59be 7779 a63d 4d00 50be cb4a 84be

a2c_network.actor_mlp.2.bias f4 [32]
-0.21049984 0.12360215 0.21827324 -0.18920076 0.08951442 -0.18978503 0.1478314 0.16030794
0.053322017 -0.18847333 0.13863346 0.09361372 0.11377661 0.15502208 0.14193663 -0.20695308
-0.055521667 0.0753832 0.031118494 0.16083501 -0.22146326 -0.08702539 0.09063947 -0.13212523
0.13456306 0.12748265 -0.18970682 -0.15406987 -0.2505599 0.092234135 -0.11436822 -0.17836022
00000000: 458d 57be 2023 fd3d 0583 5f3e d8bd 41be
00000010: 5653 b73d 0257 42be 1d61 173e c427 243e
00000020: 3068 5a3d 27ff 40be eef5 0d3e 8db8 bf3d
00000030: b603 e93d 1cbe 1e3e d657 113e 82eb 53be
00000040: b06a 63bd 8262 9a3d 36ec fe3c efb1 243e
00000050: 44c7 62be 5e3a b2bd 30a1 b93d d64b 07be
00000060: e6ca 093e d08a 023e 8142 42be 7ec4 1dbe
00000070: 6349 80be 40e5 bc3d e339 eabd 10a4 36be

a2c_network.value.weight f4 [1, 32]
-0.10208944 0.15943617 0.19378978 -0.019352967 -0.07593991 -0.044223342 0.12771979 0.20470066
-0.19087155 -0.0951897 0.114858024 -0.080381796 0.05428918 0.074535176 0.046254426 -0.022941308
0.03864498 0.021487672 -0.117421806 0.031036632 -0.06395192 -0.004142234 -0.08834466 0.029787712
0.097620316 -0.025590668 -0.112615876 -0.14813706 -0.049835876 0.22658134 -0.082569644 -0.055498242
00000000: 4514 d1bd 3c43 233e d470 463e 1d8a 9ebc
00000010: 6286 9bbd 8923 35bd fac8 023e 0d9d 513e
00000020: d573 43be d1f2 c2bd af3a eb3d 369f a4bd
00000030: 555e 5e3d e6a5 983d 4875 3d3d 69ef bbbc
00000040: 334a 1e3d ea06 b03c d87a f0bd 8940 fe3c
00000050: 39f9 82bd 94bb 87bb 0cee b4bd 5c05 f43c
00000060: 29ed c73d 85a3 d1bc 27a3 e6bd 3eb1 17be
00000070: b420 4cbd f004 683e 461a a9bd 2052 63bd

a2c_network.mu.weight f4 [1, 32]
0.036391992 -0.10798901 0.19153233 0.012165988 0.09557488 -0.0021048398 -0.07091162 0.0014399831
0.15917613 0.051441528 -0.1833448 0.043774195 0.21907902 -0.2365794 0.12259058 -0.0026115938
-0.006274636 0.05809855 0.03827423 0.0061850343 0.11720334 0.02461642 0.036612604 -0.001499176
0.22322662 0.013026059 0.0838303 -0.13072674 0.0819036 -0.05257111 -0.26813966 0.05595542
00000000: c50f 153d 5829 ddbd 0d21 443e da53 473c
00000010: c3bc c33d 5af1 09bb 1d3a 91bd d1bd bc3a
00000020: 11ff 223e 5ab4 523d bdbe 3bbe 924c 333d
00000030: 4056 603e df41 72be c510 fb3d 4627 2bbb
00000040: 769b cdbb bff8 6d3d 70c5 1c3d d4ab ca3b
00000050: 4e08 f03d 60a8 c93c 19f7 153d 0080 c4ba
00000060: 8595 643e 406b 553c 38af ab3d 3bdd 05be
00000070: 13bd a73d ce54 57bd 9a49 89be 8331 653d

exp_avg f4 [32, 4]
-0.00038854082 -0.00035878774 -6.729739e-05 0.00010197149 -0.00017278496 -0.0006216719 0.00022988349 0.00021788254
-0.00050291844 -0.00079334487 -0.00016146121 3.6535577e-05 8.521585e-05 -0.00016561829 -1.1766497e-05 1.7991533e-06
-0.00052256027 -0.00016766145 -5.819585e-05 6.775774e-05 -0.00016162258 -0.000101722886 2.6433336e-05 -1.968808e-06
0.00026053385 0.00052214874 -7.680431e-05 -0.00023953304 -0.00017028982 -0.0002778624 -4.4036686e-05 5.8714355e-05
0.0003490064 -0.00013675982 0.00026743358 9.25481e-05 0.00020060966 -0.0006226791 0.0005028228 0.0003037284
5.2935357e-05 -0.00076067756 0.00031998116 0.00018441543 0.00034788332 -0.00023218898 0.00011785606 -0.00017805195
-8.560878e-05 -0.00039518555 8.558486e-05 6.462907e-05 0.00048129802 0.0003443787 -2.073929e-05 -0.00010239623
-0.00023228099 0.00023133108 4.8216298e-05 -4.96426e-05 0.00042739982 0.0002486291 8.057164e-05 -4.1003237e-05
-0.00042625167 -0.0010557373 0.00046285483 0.000387276 0.0015845263 0.0001685846 3.0444306e-05 -0.00023309932
-0.0003053364 -0.00076362066 0.0002554458 0.0002882013 0.00014542894 0.00024777206 5.7699002e-05 1.8845474e-05
0.00030818806 0.00046557686 -7.6050305e-06 -8.207708e-05 -0.00019508711 -0.00030655455 3.3219687e-05 5.184856e-05
0.00061481487 0.00075557997 0.000112489586 -0.00015571022 0.0016445022 0.00068535743 0.0001067217 -0.0001173922
-0.00028807754 -0.0004249607 0.000121264435 0.00012378559 -8.406482e-05 -3.0606614e-05 0.000103763865 -0.00010027627
-0.00038102866 -0.00040966683 0.00027432837 0.00017435492 0.00014628751 -8.712076e-06 3.320706e-05 -6.575042e-05
0.00020629648 -0.000109841756 -1.626038e-05 3.7831604e-05 0.000104236584 0.00026050076 1.6184307e-05 -2.434419e-05
-0.0001150076 -3.9029084e-05 0.0001284307 6.9519825e-05 2.6793918e-05 -0.00052511314 0.00027969189 0.00019542234
00000000: 11b5 cbb9 ad1b bcb9 0322 8db8 87d9 d538
00000010: 9c2d 35b9 b2f7 22ba e10c 7139 6677 6439
00000020: 49d6 03ba 79f8 4fba ea4d 29b9 c73d 1938
00000030: e9b5 b238 d2a9 2db9 b868 45b7 707a f135
00000040: 6dfc 08ba 47ce 2fb9 5117 74b8 2919 8e38
00000050: 3b79 29b9 0f54 d5b8 28bd dd37 dd1f 04b6
00000060: 4398 8839 cfe0 083a 0012 a1b8 292b 7bb9
00000070: d38f 32b9 0fae 91b9 08b4 38b8 0f44 7638
00000080: d9fa b639 2f67 0fb9 5436 8c39 6216 c238
00000090: bf5a 5239 493b 23ba decf 033a bc3d 9f39
000000a0: e806 5e38 3568 47ba 25c3 a739 a45f 4139
000000b0: 1c64 b639 c177 73b9 7e29 f738 75b3 3ab9
000000c0: dd88 b3b8 e830 cfb9 067c b338 7889 8738
000000d0: ba56 fc39 ba8d b439 49f9 adb7 8fbd d6b8
000000e0: 7490 73b9 7791 7239 db3b 4a38 5637 50b8
000000f0: a214 e039 6f5a 8239 92f8 a838 e4fa 2bb8
00000100: 887a dfb9 aa60 8aba 53ab f239 4e0b cb39
00000110: e1af cf3a 15c6 3039 a662 ff37 1f6c 74b9
00000120: 8f15 a0b9 b72d 48ba 5bed 8539 b919 9739
00000130: 497e 1839 67e7 8139 d501 7238 5916 9e37
00000140: 4d94 a139 ab18 f439 b72e ffb6 cc20 acb8
00000150: 4c90 4cb9 0eb9 a0b9 5e55 0b38 f877 5938
00000160: 872b 213a 1d12 463a 63e8 eb38 2546 23b9
00000170: 568c d73a 8fa9 333a c7cf df38 7530 f6b8
00000180: 1d09 97b9 42cd deb9 594f fe38 71cc 0139
00000190: f54b b0b8 9a5f 00b8 cd9b d938 6a4b d2b8
000001a0: cdc4 c7b9 8dc8 d6b9 bbd3 8f39 0bd3 3639
000001b0: c164 1939 152a 12b7 cf47 0b38 7de3 89b8
000001c0: 4a51 5839 d85a e6b8 e666 88b7 60ad 1e38
000001d0: 9799 da38 d293 8839 89c3 8737 c036 ccb7
000001e0: 3c30 f1b8 29b3 23b8 5bab 0639 2ccb 9138
000001f0: 80c3 e037 bfa7 09ba 9ca3 9239 49ea 4c39

exp_avg_sq f4 [32, 4]
4.1486284e-05 3.5083438e-05 4.219152e-05 3.086799e-05 0.00020164557 0.00015597108 0.000120053875 9.206822e-05
7.2587776e-05 6.53942e-05 1.9019746e-05 1.49477e-05 3.0386862e-05 2.8168695e-05 5.805293e-05 4.377813e-05
1.852209e-05 1.5435864e-05 1.6171798e-05 1.1783769e-05 1.3147388e-05 6.7471274e-06 7.454222e-06 6.41017e-06
0.00017907478 0.000108582346 0.00020974719 0.00016623363 2.1948454e-05 1.5086071e-05 9.82684e-06 9.314171e-06
8.774641e-05 5.822814e-05 6.407213e-05 6.0943683e-05 0.00030323913 0.00026856412 0.00024239214 0.00016702594
0.00024488373 0.0001687578 9.7274075e-05 7.161125e-05 0.00025646825 0.00022303703 0.00019674285 0.00016154695
3.9373528e-05 3.5501598e-05 1.6653139e-05 1.4611731e-05 3.096914e-05 2.9649995e-05 5.9289527e-05 4.399599e-05
2.9256238e-05 1.6399605e-05 1.4761586e-05 1.2010358e-05 6.787995e-05 3.2875763e-05 0.00011601983 9.744696e-05
0.00057196565 0.0004127699 0.00020804757 0.00015306659 0.0003392082 0.000326865 0.00026669673 0.0001891043
0.0002086674 0.00017209668 6.556228e-05 4.402679e-05 2.4321596e-05 1.275477e-05 3.218885e-05 2.7609469e-05
7.496755e-06 8.580919e-06 6.1995684e-06 5.2837026e-06 2.5896341e-05 1.7714703e-05 1.3506945e-05 1.42135505e-05
0.00018724902 0.00021343981 9.486744e-05 8.59765e-05 0.000350264 0.00033883273 0.00025234662 0.0001886694
7.7839555e-05 5.6570017e-05 2.3819504e-05 2.2421404e-05 3.305787e-05 2.4046667e-05 2.6498905e-05 1.9275793e-05
9.063801e-05 6.263744e-05 2.5073003e-05 1.7800676e-05 0.00010200652 8.235112e-05 6.794044e-05 5.1445943e-05
0.00031922324 0.00020686293 0.00031894364 0.00023585322 1.4736104e-05 1.14327795e-05 8.7167155e-06 5.02912e-06
8.665392e-05 6.142774e-05 2.1400398e-05 1.9161334e-05 0.00016298643 0.0001332406 0.00010121614 7.905753e-05
00000000: 8f01 2e38 8e26 1338 cdf6 3038 4078 0138
00000010: d270 5339 2b8c 2339 6fc5 fb38 c014 c138
00000020: 443a 9838 3e24 8938 988c 9f37 e2c7 7a37
00000030: 4ae7 fe37 d04b ec37 dc7d 7338 699e 3738
00000040: e35f 9b37 447c 8137 aca8 8737 e7b2 4537
00000050: 9a93 5c37 6265 e236 481f fa36 f116 d736
00000060: 05c6 3b39 b4b6 e338 95ef 5b39 004f 2e39
00000070: f21d b837 2e1a 7d37 f5dd 2437 0f44 1c37
00000080: 7f04 b838 fd39 7438 765e 8638 c89d 7f38
00000090: 11fc 9e39 11ce 8c39 a52a 7e39 af23 2f39
000000a0: bd63 8039 94f4 3039 9fff cb38 ff2d 9638
000000b0: 9676 8639 0cdf 6939 c24c 4e39 ee64 2939
000000c0: 0125 2538 8de7 1438 58b2 8b37 e824 7537
000000d0: dce4 0138 e1b8 f837 a5ad 7838 5688 3838
000000e0: 4b6b f537 e291 8937 87a8 7737 1880 4937
000000f0: c55a 8e38 15e4 0938 ac4f f338 705c cc38
00000100: f7ef 153a 0a69 d839 5827 5a39 8080 2039
00000110: c1d7 b139 145f ab39 6ed3 8b39 4d4a 4639
00000120: bbcd 5a39 da74 3439 7b7e 8938 68a9 3838
00000130: 3b06 cc37 52fd 5537 8402 0738 e29a e737
00000140: a38c fb36 c4f6 0f37 e305 d036 a94a b136
00000150: f83b d937 099a 9437 e39b 6237 bc76 6e37
00000160: 4758 4439 d0ce 5f39 92f3 c638 484e b438
00000170: a3a3 b739 5ca5 b139 644d 8439 8ed5 4539
00000180: cb3d a338 9845 6d38 ffcf c737 9915 bc37
00000190: 9ea7 0a38 d3b7 c937 f749 de37 73b2 a137
000001a0: e914 be38 385c 8338 dd53 d237 a952 9537
000001b0: 55ec d538 ecb3 ac38 3f7b 8e38 a9c7 5738
000001c0: 6b5d a739 58e9 5839 e437 a739 5e4f 7739
000001d0: 163b 7737 6acf 3f37 023e 1237 d0bf a836
000001e0: f8b9 b538 c4d2 8038 0185 b337 a7bc a037
000001f0: 56e7 2a39 80b6 0b39 0044 d438 b0cb a538

exp_avg f4 [32]
-0.0012674473 -0.0010033345 -0.0016203921 -5.460107e-05 -0.0012530932 -0.0005100316 0.00046288164 -0.00041050086
0.0001579537 -0.00034827797 -0.00031346048 0.00044381735 -0.00052111526 0.0009851056 -0.0006279685 0.00042785838
-0.0005778575 0.0028035855 -0.0010834956 -4.9361595e-05 0.00047444832 -0.00068139937 0.0019986802 0.002983253
-0.0011260009 -0.000407445 -0.0011004315 0.00020876335 0.00044416782 6.006964e-05 -0.00038093005 -0.0005495289
00000000: 7920 a6ba 5282 83ba 5663 d4ba 7403 65b8
00000010: d53e a4ba a4b3 05ba ecae f239 7e38 d7b9
00000020: 60a0 2539 1499 b6b9 f457 a4b9 28b0 e839
00000030: 749b 08ba a91e 813a 419e 24ba 2e52 e039
00000040: 5c7b 17ba 5cbc 373b 1404 8eba 9c09 4fb8
00000050: 60bf f839 f09f 32ba 4afc 023b ae82 433b
00000060: 5296 93ba 589e d5b9 5b3c 90ba 7ce7 5a39
00000070: 32df e839 49f3 7b38 91b7 c7b9 430e 10ba

exp_avg_sq f4 [32]
0.000113743445 0.00048363523 0.0002403119 9.13338e-05 6.478154e-05 2.8169725e-05 0.00027636506 5.9489506e-05
0.00023607558 0.0007503944 0.0006144366 0.00061512226 0.00013600258 5.0552022e-05 4.0176685e-05 6.849894e-05
0.0014835657 0.0010553645 0.0006657505 4.7960064e-05 3.0647923e-05 7.220476e-05 0.0006484273 0.0010445388
0.00024305568 7.68516e-05 0.00028890106 0.00023237879 0.00056609913 3.100854e-05 0.00026846313 0.00038033855
00000000: 8c89 ee38 6c90 fd39 3cfc 7b39 768a bf38
00000010: 53db 8738 064e ec37 17e5 9039 5f84 7938
00000020: 0e8b 7739 1eb6 443a 2412 213a 2840 213a
00000030: ea9b 0e39 d207 5438 6383 2838 17a7 8f38
00000040: 3474 c23a 2854 8a3a c285 2e3a ba28 4938
00000050: f58b 0038 a36c 9738 38fb 293a e8e8 883a
00000060: c3dc 7e39 632b a138 a577 9739 b5aa 7339
00000070: 4566 143a 2b0f 0238 83c0 8c39 2d68 c739

exp_avg f4 [32, 32]
4.3673135e-05 -9.968311e-05 -8.045252e-05 -1.04582505e-05 2.4354114e-05 7.907871e-05 0.000103073966 -8.4920175e-05
0.00019256277 -0.0001559898 -0.00016997704 -7.570239e-06 0.00011893042 -3.780537e-05 -0.00014106205 4.0963223e-05
-0.000118959404 -6.496803e-05 -3.327235e-05 6.133435e-05 -5.1377883e-05 0.00011237962 2.4597495e-05 -4.221478e-05
0.00017472921 6.8111534e-05 0.000114231065 -4.7769336e-05 -0.00016040889 1.6271399e-05 0.00013596262 -0.00010937916
-9.896997e-05 3.4313765e-05 4.8989787e-05 -3.524245e-05 -5.9046946e-05 -0.00016803622 -0.00053503644 0.00017399
-0.0005977321 0.0003431886 0.00041385923 1.9467856e-05 -0.00024197216 -5.603751e-05 0.0004863217 -0.00028593445
0.00037805058 8.5671345e-05 0.00020743963 -0.00022592406 2.8092514e-05 -0.00022467689 -0.00014274115 -3.7453392e-05
-0.00034593986 -6.8228226e-05 -0.00014053256 0.00020734147 0.0005115622 -8.761239e-05 -0.00017691172 2.4037286e-05
-0.00012049064 -0.0006359798 -0.00037670377 -0.00017404938 -0.00015874009 -6.353531e-05 -0.00018157689 -0.00022949319
0.00019558302 -0.0004242586 -0.00044306743 8.891217e-05 8.393755e-05 -6.938271e-05 -0.00026967737 -0.00010082523
-0.0005332312 -4.972087e-05 -0.00024702866 -0.0001504754 -9.701251e-05 9.972474e-05 0.00018311896 7.1603514e-05
0.00019394899 0.00014307254 -0.00038060124 4.9649414e-05 -7.487006e-06 -5.999624e-05 -0.00027637303 -0.00052967493
1.94041e-06 -5.057454e-05 -3.5701607e-05 -8.4531985e-06 -4.625325e-06 2.8386798e-06 -6.5271693e-06 -2.202043e-05
4.6006575e-05 -5.1662097e-05 -5.3750224e-05 1.847071e-05 3.623698e-05 -1.43754905e-05 -3.3658576e-05 -6.953596e-06
-5.1841875e-05 1.1059639e-06 -1.8658233e-05 -6.2589165e-06 -1.9376956e-05 2.06643e-05 2.7762517e-05 8.749502e-06
3.6887257e-05 2.4390953e-05 -6.0449083e-06 3.8296166e-06 -2.000916e-05 -4.595969e-06 6.8310314e-06 -4.598e-05
2.792038e-05 -0.00023670563 -0.00017451214 3.1675615e-06 -4.5207835e-06 6.799577e-05 0.00030237407 -0.00014468732
0.00043391393 -0.000395833 -0.00042619806 8.420155e-05 0.00015663027 2.8780349e-05 -0.0003658744 0.00015099606
-0.00046988417 2.6591679e-05 -0.0002657784 9.47152e-05 -4.0554623e-05 0.00012892247 0.0001898775 0.00012255016
0.00022189626 0.0001249402 -6.629024e-05 -6.15157e-05 -0.00028076157 3.35955e-05 1.9413086e-05 -0.00019536294
1.531842e-05 -1.5467973e-05 -1.8668821e-05 3.4869538e-06 9.86386e-06 8.502549e-06 -4.675876e-06 -9.308519e-06
4.0194194e-05 -2.7560649e-05 -3.1210955e-05 1.2215566e-05 3.9637627e-05 -2.100616e-05 -2.3188826e-05 -8.384023e-06
-1.8964092e-05 -1.69403e-06 5.84474e-07 -1.9191319e-07 -2.3750044e-05 1.8873643e-05 1.4666851e-05 -3.7898956e-06
3.1795662e-05 1.9080595e-05 2.3975259e-05 -9.4104723e-07 -2.7173328e-05 -3.9754173e-06 3.057012e-05 -1.9465375e-05
-7.736602e-05 -2.8691463e-06 1.9481484e-05 -3.352828e-05 -4.9939164e-05 -0.00012599108 -0.00040063995 0.00011696239
-0.00042888854 0.00023354658 0.00028325332 1.7511305e-05 -0.00017428823 -4.4687276e-05 0.00034263797 -0.00021408613
0.00025301593 5.920153e-05 0.00014066938 -0.00017242307 1.5752601e-05 -0.00016015013 -9.751375e-05 -2.5155417e-05
-0.00024499392 -4.4368942e-05 -0.000121241654 0.00015319775 0.00037362095 -6.689435e-05 -0.0001438301 -5.054882e-06
-0.0001181181 -0.00020022246 -9.122505e-05 -0.00010277373 -0.0001053485 -0.00014845189 -0.0004862215 3.357682e-05
-0.00036965916 0.00012133765 0.00015493913 2.2141507e-05 -0.00013488601 -7.7047895e-05 0.0002497934 -0.0002570872
0.00010515552 8.98391e-06 8.508862e-05 -0.00023164091 -2.2754793e-05 -0.00011679878 -5.1587314e-05 -2.888299e-05
-0.00016838347 -1.5415544e-05 -0.00024384586 0.00015150347 0.00036197703 -8.960547e-05 -0.00024384243 -0.00016566757
00000000: ac2d 3738 f60c d1b8 9eb8 a8b8 d875 2fb7
00000010: 104c cc37 0fd7 a538 6a29 d838 2c17 b2b8
00000020: adea 4939 3191 23b9 dd3b 32b9 dc03 feb6
00000030: 486a f938 3591 1eb8 0eea 13b9 edcf 2b38
00000040: d879 f9b8 723f 88b8 ea8d 0bb8 a1a0 8038
00000050: 957e 57b8 59ad eb38 b856 ce37 c60f 31b8
00000060: 8437 3739 1ad7 8e38 568f ef38 ef5b 48b8
00000070: 6f33 28b9 907e 8837 3091 0e39 7d62 e5b8
00000080: 198e cfb8 20ec 0f38 627a 4d38 4bd1 13b8
00000090: 2da9 77b8 e132 30b9 b041 0cba 1671 3639
000000a0: 1fb1 1cba ffed b339 3ffb d839 e74e a337
000000b0: e8b9 7db9 d109 6bb8 fef8 fe39 79e9 95b9
000000c0: 1735 c639 74aa b338 2784 5939 07e6 6cb9
000000d0: 37a8 eb37 3e97 6bb9 c9ac 15b9 4617 1db8
000000e0: 435f b5b9 c015 8fb8 ec5b 13b9 cd69 5939
000000f0: 5c1a 063a 8bbc b7b8 6181 39b9 aea3 c937
00000100: ebaf fcb8 e2b7 26ba 5380 c5b9 0681 36b9
00000110: 7873 26b9 433e 85b8 ad65 3eb9 1ca4 70b9
00000120: 6b15 4d39 066f deb9 814b e8b9 5c76 ba38
00000130: a107 b038 8f81 91b8 7c63 8db9 2272 d3b8
00000140: 8ac8 0bba 618b 50b8 a083 81b9 efc8 1db9
00000150: 3273 cbb8 5023 d138 9f03 4039 d829 9638
00000160: c95e 4b39 be05 1639 6f8b c7b9 a73e 5038
00000170: e438 fbb6 79a4 7bb8 29e6 90b9 e2d9 0aba
00000180: fd37 0236 0020 54b8 4fbe 15b8 36d2 0db7
00000190: 3d33 9bb6 2680 3e36 f503 dbb6 83b8 b8b7
000001a0: 2ff7 4038 c1af 58b8 dd71 61b8 8cf1 9a37
000001b0: 29fd 1738 432e 71b7 9f2c 0db8 ef52 e9b6
000001c0: ca70 59b8 a170 9435 4084 9cb7 af03 d2b6
000001d0: b28b a2b7 3f58 ad37 8de3 e837 d3ca 1237
000001e0: 64b7 1a38 2c9b cc37 5ed5 cab6 2880 8036
000001f0: 58d9 a7b7 1337 9ab6 1d36 e536 a6da 40b8
00000200: 8f36 ea37 2f34 78b9 3ffd 36b9 4b92 5436
00000210: 3cb1 97b6 f398 8e38 f687 9e39 35b7 17b9
00000220: f17e e339 ce87 cfb9 5673 dfb9 5d95 b038
00000230: 1e3d 2439 546d f137 d5d2 bfb9 b254 1e39
00000240: c95a f6b9 3211 df37 2c58 8bb9 d6a1 c638
00000250: 3219 2ab8 5d2f 0739 da19 4739 cf80 0039
00000260: d3ac 6839 6102 0339 4d05 8bb8 fd01 81b8
00000270: 2e33 93b9 e5e8 0c38 49d9 a237 57da 4cb9
00000280: 0e80 8037 38c1 81b7 fd9a 9cb7 6901 6a36
00000290: f57c 2537 2ba6 0e37 78e5 9cb6 c92b 1cb7
000002a0: 3096 2838 0b32 e7b7 82e8 02b8 75f1 4c37
000002b0: 9440 2638 6336 b0b7 a085 c2b7 1ba9 0cb7
000002c0: 1415 9fb7 6d5e e3b5 bfe4 1c35 b210 4eb4
000002d0: d53a c7b7 d752 9e37 a511 7637 e955 7eb6
000002e0: 555c 0538 440f a037 7a1e c937 469c 7cb5
000002f0: 47f2 e3b7 9364 85b6 6b38 0038 9349 a3b7
00000300: 913f a2b8 8f8b 40b6 2b6c a337 b7a0 0cb8
00000310: c575 51b8 791c 04b9 fc0c d2b9 b449 f538
00000320: 72dc e0b9 2fe4 7439 9e81 9439 3ee5 9237
00000330: 24c1 36b9 996e 3bb8 17a4 b339 4f7c 60b9
00000340: 39a7 8439 294f 7838 a680 1339 77cc 34b9
00000350: 7424 8437 f9ed 27b9 4c80 ccb8 d904 d3b7
00000360: 8772 80b9 ca18 3ab8 1e43 feb8 b5a3 2039
00000370: 8ee2 c339 a149 8cb8 19d1 16b9 1b9d a9b6
00000380: 2cb6 f7b8 cff2 51b9 1350 bfb8 3a88 d7b8
00000390: 8cee dcb8 c0a9 1bb9 8ceb feb9 d6d4 0c38
000003a0: d0ce c1b9 a876 fe38 2877 2239 86bc b937
000003b0: 3070 0db9 c694 a1b8 b4f6 8239 a9c9 86b9
000003c0: f186 dc38 9ab9 1637 9b71 b238 a2e4 72b9
000003d0: 8ce1 beb7 def1 f4b8 755f 58b8 c049 f2b7
000003e0: 1890 30b9 a150 81b7 e0b0 7fb9 e7dc 1e39
000003f0: bcc7 bd39 92ea bbb8 f4af 7fb9 0db7 2db9

exp_avg_sq f4 [32, 32]
2.4498067e-06 2.7803942e-05 1.3445793e-05 6.266411e-06 2.8104546e-06 1.6925305e-05 1.5275938e-05 9.280061e-06
1.3804921e-05 2.7037253e-05 2.1441901e-05 4.6268517e-05 1.31730385e-05 3.887877e-06 8.413163e-06 5.717807e-06
3.1870128e-05 7.68001e-05 1.9232846e-05 1.0320509e-05 5.0211424e-06 6.9660077e-06 3.367683e-05 5.4197266e-05
1.3501206e-05 3.2573444e-05 2.7372253e-05 3.4895987e-05 3.288579e-05 1.1306968e-05 2.5967496e-05 2.7017908e-05
5.434346e-06 5.5506312e-05 1.979643e-05 7.968719e-06 3.912863e-06 2.8366328e-05 7.313178e-05 1.0008721e-05
4.430825e-05 5.3585165e-05 4.7044716e-05 4.634222e-05 2.76407e-05 1.303456e-05 2.9932979e-05 2.9009416e-05
6.573557e-05 7.113634e-05 2.3288943e-05 3.6932506e-05 8.692789e-06 1.3237209e-05 4.203082e-05 5.3405904e-05
2.3989081e-05 2.93816e-05 7.358818e-05 3.293803e-05 4.368676e-05 1.3471055e-05 6.331577e-05 5.0223483e-05
7.2293783e-06 5.588862e-05 2.4311086e-05 1.0125375e-05 5.484002e-06 4.265532e-05 0.000105585736 1.139786e-05
5.0858274e-05 5.754213e-05 4.8445832e-05 4.3186483e-05 3.27915e-05 1.7216913e-05 3.6349593e-05 3.932417e-05
6.314385e-05 6.228989e-05 2.675084e-05 5.0720162e-05 1.1764957e-05 1.9289015e-05 4.5477584e-05 5.12619e-05
3.229142e-05 2.9380912e-05 9.9902856e-05 2.6488478e-05 4.1537947e-05 1.2963515e-05 0.000106201725 5.7210702e-05
6.2838285e-07 7.682023e-06 3.9929587e-06 2.8023337e-06 9.832918e-07 5.972869e-06 3.941456e-06 3.6699835e-06
3.61652e-06 6.8390577e-06 5.438942e-06 1.6412441e-05 4.0246246e-06 1.1297303e-06 2.0339255e-06 1.6058211e-06
7.3116125e-06 2.7433816e-05 5.6060744e-06 3.1903144e-06 1.6790292e-06 1.9238478e-06 1.1806608e-05 1.8987908e-05
4.0189507e-06 1.1809081e-05 6.551174e-06 1.2688885e-05 1.15271705e-05 4.1958856e-06 6.3178463e-06 7.8781995e-06
1.1718065e-06 1.4379687e-05 6.0364328e-06 2.6844739e-06 1.2923396e-06 8.472468e-06 1.2953159e-05 3.8369494e-06
1.0374088e-05 1.4122654e-05 1.1621092e-05 1.7754286e-05 8.467778e-06 2.2080276e-06 6.1467317e-06 4.2488505e-06
1.822058e-05 2.8085517e-05 8.686873e-06 8.052722e-06 2.3780256e-06 3.749041e-06 1.5402366e-05 2.1408176e-05
6.595125e-06 1.0669006e-05 1.9600684e-05 1.1961653e-05 1.2441882e-05 3.5636463e-06 1.565272e-05 1.3666183e-05
9.317935e-07 1.5646381e-05 8.048381e-06 5.5346563e-06 2.1093144e-06 1.2026116e-05 6.371736e-06 7.7015975e-06
5.5280216e-06 1.406404e-05 9.7329485e-06 3.056541e-05 8.498562e-06 1.7928096e-06 3.5222324e-06 2.4380167e-06
1.5306552e-05 5.2510393e-05 1.20276145e-05 6.020661e-06 3.759287e-06 4.254268e-06 2.1494458e-05 3.606219e-05
7.49044e-06 2.1363807e-05 1.4388622e-05 2.3297824e-05 2.1677251e-05 7.631477e-06 1.2051974e-05 1.6574993e-05
4.951766e-06 5.098787e-05 1.9438512e-05 9.059915e-06 4.619102e-06 2.6956595e-05 5.5276825e-05 1.14334225e-05
3.51143e-05 5.1303894e-05 3.9654074e-05 5.7677593e-05 2.7564656e-05 1.0530368e-05 2.3496046e-05 2.3383047e-05
5.8717615e-05 8.902606e-05 2.9440913e-05 2.9537572e-05 8.980589e-06 1.2593111e-05 4.8470745e-05 6.5919456e-05
2.115903e-05 3.4581404e-05 6.323085e-05 4.0709463e-05 4.762321e-05 1.4859876e-05 5.175668e-05 4.941602e-05
7.1987e-06 6.696369e-05 2.4415303e-05 1.2507204e-05 6.8849677e-06 4.691367e-05 9.024197e-05 1.4996404e-05
4.333668e-05 7.216682e-05 5.180119e-05 6.6530614e-05 3.8870632e-05 1.6109905e-05 3.3620683e-05 3.478836e-05
9.115137e-05 0.000102596656 4.3990076e-05 5.1119016e-05 1.3028258e-05 1.9297764e-05 5.2203504e-05 7.5022304e-05
3.0019071e-05 4.346724e-05 0.00011251623 4.833074e-05 6.0990726e-05 1.8839855e-05 8.630491e-05 6.4568674e-05
00000000: 5c67 2436 833c e937 3e95 6137 1044 d236
00000010: 3e9b 3c36 d1fa 8d37 d424 8037 8fb1 1b37
00000020: af9b 6737 0fce e237 22de b337 7110 4238
00000030: c501 5d37 9c74 8236 4326 0d37 97db bf36
00000040: 4aac 0538 bd0f a138 3956 a137 4026 2d37
00000050: 497b a836 8dbd e936 3940 0d38 df51 6338
00000060: 3d83 6237 789f 0838 779d e537 485d 1238
00000070: d9ee 0938 0fb3 3d37 c6d4 d937 84a4 e237
00000080: ad58 b636 73cf 6838 8210 a637 63b1 0537
00000090: 3d4b 8336 3af4 ed37 535e 9938 21eb 2737
000000a0: 9fd7 3938 a2c0 6038 e151 4538 945f 4238
000000b0: f4dd e737 02af 5a37 9518 fb37 3f59 f337
000000c0: 84db 8938 082f 9538 a05c c337 fae7 1a38
000000d0: 3fd7 1137 6115 5e37 404a 3038 2700 6038
000000e0: 293c c937 8178 f637 5a53 9a38 f126 0a38
000000f0: 4d3c 3738 be01 6237 65c8 8438 0ea7 5238
00000100: e393 f236 f369 6a38 a9ef cb37 28e0 2937
00000110: 3803 b836 cde8 3238 e96d dd38 7039 3f37
00000120: a850 5538 6459 7138 5132 4b38 2223 3538
00000130: 9b89 0938 0a6d 9037 1476 1838 02f0 2438
00000140: 196c 8438 a1a1 8238 fe66 e037 5cbc 5438
00000150: 1b62 4537 d8ce a137 2fbf 3e38 0c02 5738
00000160: a670 0738 0777 f637 f082 d138 9333 de37
00000170: 0839 2e38 df7d 5937 9eb8 de38 86f5 6f38
00000180: 24ae 2835 0ae2 0037 41fb 8536 ba0f 3c36
00000190: a6f9 8335 8e6a c836 d940 8436 d649 7636
000001a0: 57b3 7236 0f7b e536 2880 b636 73ad 8937
000001b0: 430b 8736 3da1 9735 937e 0836 9887 d735
000001c0: 4656 f536 ac21 e637 d01b bc36 2f19 5636
000001d0: 015b e135 741b 0136 ff14 4637 3948 9f37
000001e0: 86da 8636 9e1f 4637 28d2 db36 59e2 5437
000001f0: d264 4137 62ca 8c36 e3fd d336 9c2c 0437
00000200: f746 9d35 4940 7137 908c ca36 e926 3436
00000210: 7374 ad35 f924 0e37 6551 5937 25bf 8036
00000220: 5e0c 2e37 56f0 6c37 36f8 4237 0aef 9437
00000230: d410 0e37 a02d 1436 0640 ce36 5991 8e36
00000240: 66d8 9837 3099 eb37 d6bd 1137 2d1a 0737
00000250: 2b96 1f36 0998 7b36 5434 8137 b595 b337
00000260: b14b dd36 08ff 3237 266c a437 e9ae 4837
00000270: 7abd 5037 fa26 6f36 f64d 8337 cf47 6537
00000280: 5d20 7a35 5940 8337 8807 0737 56b6 b936
00000290: bf8d 0d36 c6c3 4937 cccc d536 1c36 0137
000002a0: 587d b936 98f4 6b37 b24a 2337 5c33 0038
000002b0: 0c95 0e37 78a0 f035 7e5f 6c36 cf9c 2336
000002c0: 9266 8037 9b3e 5c38 36ca 4937 1605 ca36
000002d0: 0f48 7c36 e2bf 8e36 ff4e b437 7b41 1738
000002e0: 6456 fb36 6d36 b337 a966 7137 b26f c337
000002f0: 8bd7 b537 f208 0037 d632 4a37 870a 8b37
00000300: 5927 a636 cfdb 5538 e30f a337 0a00 1837
00000310: c9fd 9a36 d920 e237 0ad9 6738 2dd2 3f37
00000320: b147 1338 232f 5738 3d52 2638 d8ea 7138
00000330: a63a e737 96ab 3037 6019 c537 b626 c437
00000340: 8f47 7638 81b3 ba38 e1f7 f637 74c7 f737
00000350: 56ab 1637 0047 5337 114d 4b38 3d3e 8a38
00000360: ac7e b137 800b 1138 ce9a 8438 74bf 2a38
00000370: 08bf 4738 ae4e 7937 5015 5938 0c44 4f38
00000380: 5d8c f136 db6e 8c38 77cf cc37 08d6 5137
00000390: 6c05 e736 2bc5 4438 4a40 bd38 1199 7b37
000003a0: 68c4 3538 4458 9738 1b45 5938 5a86 8b38
000003b0: 0609 2338 c223 8737 ef03 0d38 b8e9 1138
000003c0: 8528 bf38 2929 d738 fc81 3838 a068 5638
000003d0: f193 5a37 a2e1 a137 16f5 5a38 4b55 9d38
000003e0: 77d1 fb37 9850 3638 b1f6 eb38 bdb6 4a38
000003f0: 4bd0 7f38 480a 9e37 99fe b438 0b69 8738

exp_avg f4 [32]
0.0007806161 -0.0020480847 0.00038598632 0.0001424688 0.0013756703 0.00015019097 -0.0014831763 -0.0013860923
0.0026912037 0.00075831875 -0.0024039517 0.0010054428 0.001600425 -0.0026185233 0.000858273 8.098342e-05
-0.00025755118 0.00042907332 0.0012019837 -9.376753e-05 0.0010020469 0.00023625536 0.0009835914 -0.00024421397
0.0013113527 0.0003436396 0.0013399594 -0.0005066809 0.0006395372 -0.0017112634 -0.0012686675 0.00065910764
00000000: 42a2 4c3a 2939 06bb 355e ca39 ad63 1539
00000010: d64f b43a 957c 1d39 2367 c2ba 8aad b5ba
00000020: e85e 303b e9c9 463a 9e8b 1dbb 10c9 833a
00000030: 5ac5 d13a 889b 2bbb bafd 603a a4d5 a938
00000040: ef07 87b9 3ff5 e039 e18b 9d3a 0fa5 c4b8
00000050: 1d57 833a 51bb 7739 daeb 803a d809 80b9
00000060: b2e1 ab3a 872a b439 94a1 af3a c8d2 04ba
00000070: 9da6 273a 794c e0ba 6b49 a6ba f7c7 2c3a

exp_avg_sq f4 [32]
0.00018315039 0.00036653824 0.0005591196 6.348166e-05 0.000105795116 0.00012630336 0.000340023 0.00050074304
0.00023529545 6.424348e-05 0.00043400435 5.482668e-05 0.00043783712 0.00051214796 0.00026416586 3.0350606e-05
9.544801e-06 5.550453e-05 9.2012466e-05 7.80518e-05 9.372072e-05 7.5399967e-06 6.551372e-05 1.3248458e-05
0.0005763137 1.8042734e-05 0.00023008538 0.00013026535 5.9938608e-05 9.3514296e-05 0.0003119935 0.00015987462
00000000: 0f0c 4039 ee2b c039 e291 123a 7521 8538
00000010: 52de dd38 4d70 0439 1d45 b239 4c44 033a
00000020: a4b9 7639 75ba 8638 148b e339 b3f5 6538
00000030: 818d e539 ab41 063a be7f 8a39 6e99 fe37
00000040: 9c22 2037 89cd 6838 d1f6 c038 beaf a338
00000050: ee8b c438 1400 fd36 6964 8938 b245 5e37
00000060: c213 173a 7a5a 9737 1343 7139 d797 0839
00000070: 9766 7b38 1b1d c438 0f93 a339 04a4 2739

exp_avg f4 [1, 32]
0.0013967983 -0.0019103725 -0.0026647178 0.0015713414 -0.00054925925 0.0017396738 -0.0011841323 -0.0018601018
-0.00065448123 0.0022341085 -0.00157217 -0.0010062602 -0.00093853904 -0.0009868913 -0.001145018 0.0007239503
-0.0002112876 -0.00054801273 -0.001413014 -0.0003254005 0.001948873 -0.0005220516 -0.0010172401 0.00038920125
-0.0011857501 -0.000756728 0.0011456899 0.0006273663 0.0023276857 -0.00043831466 0.00096083264 0.0014003053
00000000: c614 b73a 7765 faba 8ca2 2ebb 78f5 cd3a
00000010: 2afc 0fba c405 e43a e334 9bba a9ce f3ba
00000020: 7e91 2bba 1f6a 123b 4511 ceba 7de4 83ba
00000030: 4a08 76ba 945a 81ba 6e14 96ba 7bc7 3d3a
00000040: 158d 5db9 83a8 0fba e234 b9ba 849a aab9
00000050: 5471 ff3a 4ada 08ba ea54 85ba b50d cc39
00000060: 2c6b 9bba 285f 46ba f92a 963a d775 243a
00000070: 168c 183b 99cd e5b9 63e0 7b3a 738a b73a

exp_avg_sq f4 [1, 32]
0.0017196188 0.0018539148 0.0046585756 0.001660684 0.0010595352 0.00093135104 0.0011394575 0.0023343288
0.00080281764 0.0017043792 0.00180929 0.000995464 0.0016737644 0.0019529833 0.00089781254 0.0014474465
0.00023047852 0.0009729084 0.0017347957 0.00061267545 0.0013609887 0.0006153867 0.0013412338 0.0003207696
0.0015781032 0.0011306586 0.0016656431 0.00040874886 0.0020563924 0.0007608628 0.00033693196 0.00047362334
00000000: d564 e13a 0fff f23a f7a6 983b 4fab d93a
00000010: 1ae0 8a3a e925 743a d959 953a 8afb 183b
00000020: 2e74 523a 7a65 df3a b325 ed3a 3b7a 823a
00000030: 3762 db3a 3ffb ff3a 2e5b 6b3a 3fb8 bd3a
00000040: 9bac 7139 c70a 7f3a 1662 e33a f49b 203a
00000050: 3463 b23a e751 213a 57cc af3a f82c a839
00000060: 5bd8 ce3a 9b32 943a b551 da3a 584d d639
00000070: 8ac4 063b a374 473a 3ea6 b039 a650 f839

exp_avg f4 [1, 32]
-0.0019752546 0.0034677081 0.008616279 -0.0006831973 0.0042189215 -0.0010689957 0.0024672006 0.004708842
0.004593119 -0.0028982072 0.0028362807 0.0022525622 0.005638289 0.0022971595 0.0034252557 0.00037342487
-0.0007381883 0.0027991743 0.00330476 0.00070441706 -0.0028736754 -0.0005123739 0.0030134323 -0.0010169385
0.0058081746 0.0009813083 0.0002603795 -0.0010373298 -0.003608318 -0.0026410501 -0.0026915832 -0.0020661359
00000000: 4673 01bb 7d42 633b 4b2b 0d3c 9818 33ba
00000010: e13e 8a3b 8b1d 8cba c2b0 213b a14c 9a3b
00000020: e081 963b d9ef 3dbb e5e0 393b b99f 133b
00000030: 65c1 b83b f18b 163b 417a 603b 3dc8 c339
00000040: fa82 41ba 5a72 373b ac94 583b a1a8 383a
00000050: 4654 3cbb d550 06ba 017d 453b cb4a 85ba
00000060: 8052 be3b 3e9f 803a 8b83 8839 03f7 87ba
00000070: 8879 6cbb 7815 2dbb 4665 30bb 0268 07bb

exp_avg_sq f4 [1, 32]
0.00031527795 0.001198768 0.0037210756 0.0003498257 0.000888604 0.00028407198 0.00065274356 0.0014999139
0.0007595935 0.0009980779 0.000988997 0.0007078153 0.0012189307 0.0009974976 0.00058242417 0.00039047826
0.00020781589 0.0006432707 0.0014679861 0.0002279714 0.00095561775 0.0005033381 0.0012298861 0.00018170185
0.0012626629 0.00051007495 0.00025243298 0.00024022169 0.0012856461 0.0014718109 0.000387433 0.00037726772
00000000: e44b a539 fb1f 9d3a 4add 733b d068 b739
00000010: 34f1 683a 7fef 9439 e11c 2b3a c298 c43a
00000020: 751f 473a f0d1 823a 3ca1 813a ae8c 393a
00000030: 87c4 9f3a 77be 823a d3ad 183a 1bb9 cc39
00000040: 27e9 5939 2aa1 283a 7169 c03a 9b0b 6f39
00000050: 6c82 7a3a 73f2 033a 2134 a13a 3887 3e39
00000060: f07f a53a 8db6 053a fb58 8439 05e4 7b39
00000070: 2083 a83a c7e9 c03a 6120 cb39 04cc c539
