omniisaacgymenvs/runs/Cartpole/nn/Cartpole.pth (torch, 28563 bytes, 24 tensors)

value_mean_std.running_mean f8 [1]
0	0x401736ba2d569584	5.803444584283515

value_mean_std.running_var f8 [1]
0	0x4022826609a6186c	9.254684735799138

value_mean_std.count f8 []
0	0x412c800200000000	933889.0

running_mean_std.running_mean f8 [4]
0	0xbfc0459bcaf31de7	-0.1271242848363123
1	0xbf7402415623be10	-0.004884963245998644
2	0xbf712267a4daff51	-0.0041832016556212085
3	0x3fa4b49df6e5569c	0.04044049872270003

running_mean_std.running_var f8 [4]
0	0x3ff625eb9a05ef1d	1.384257890370413
1	0x400074b2d86ea6d2	2.056981745602436
2	0x3fbd87bbac16235a	0.11535237265901568
3	0x3ff87cc12aad0658	1.5304576556231009

running_mean_std.count f8 []
0	0x411c800400000000	466945.0

a2c_network.actor_mlp.0.weight f4 [32, 4]
0	0xbbde36ad	-0.00678142
1	0xbcfd1e46	-0.030898225
2	0xbdd653de	-0.10465215
3	0x3ec20291	0.37892583
4	0x3e82dac0	0.25557518
5	0xbe4b1a68	-0.19834292
6	0x3f422cd7	0.7584967
7	0x3f10aa66	0.5651001
8	0x3e1df272	0.15424517
9	0xbd51dad5	-0.051234085
10	0x3f26e38a	0.6519095
11	0x3e4a603b	0.19763272
12	0x3e3c832e	0.18409416
13	0xbe5c19b7	-0.21494184
14	0xbe08a7ce	-0.13345262
15	0x3e58b5ad	0.21163054
16	0xbd4574d9	-0.048207138
17	0xbdba015d	-0.09082291
18	0xbdf27a07	-0.11839681
19	0x3ec5e9a5	0.3865482
20	0xbe22be06	-0.158928
21	0xbe507f6b	-0.20361106
22	0x3e240b4e	0.16019937
23	0xbd894b5e	-0.06703828
24	0x3e803922	0.2504359
25	0xbee13be4	-0.43991005
26	0x3ed369a9	0.4129155
27	0xbee770d4	-0.4520327
28	0x3e302861	0.17202903
29	0xbe7196d7	-0.23592697
30	0xbdd63c8d	-0.10460768
31	0x3e6ee613	0.23329954
32	0x3e286e36	0.16448292
33	0x3ee2fe55	0.44334665
34	0xbbf11820	-0.0073576123
35	0xbdca67f6	-0.0988311
36	0xbb5b0ac9	-0.0033423177
37	0xbdd9e82f	-0.10639989
38	0x3eff6a84	0.49885952
39	0x3f40ff47	0.7538952
40	0xbdbbd7d5	-0.09172026
41	0xbeb3156c	-0.3497728
42	0x3f0a3c3c	0.5399816
43	0x3ec21b7c	0.37911594
44	0x3e9ef23e	0.3104419
45	0x3e7a03c3	0.24415497
46	0xbf4433be	-0.7664145
47	0xbea0d50e	-0.31412548
48	0xbd5da9bb	-0.054116946
49	0x3f129b47	0.57268184
50	0x3dc40aee	0.09572397
51	0x3decb4a7	0.11557894
52	0x3e21bf8e	0.15795729
53	0xbdabe786	-0.08393769
54	0x3e9a5440	0.30142403
55	0xbee709b0	-0.45124578
56	0xbe8f6e4e	-0.28013843
57	0xbe9090d0	-0.28235483
58	0x3d5c3c9f	0.05376875
59	0xbdc358a8	-0.09538394
60	0x3e24f41d	0.16108747
61	0xbe2ee22c	-0.17078465
62	0x3ebce3ab	0.36892447
63	0xbeaf780a	-0.3427127
64	0xbebdd8df	-0.37079522
65	0xbed998f3	-0.42499503
66	0x3f408df6	0.75216615
67	0x3f1baf73	0.6081459
68	0x3edf5cef	0.4362559
69	0x3c9e5914	0.019329585
70	0xbf41445c	-0.75494933
71	0xbf17faa6	-0.59366834
72	0xbebdd067	-0.3707306
73	0x3b866ae4	0.004102098
74	0x3ece3ee2	0.4028235
75	0x3ef388d6	0.47565335
76	0xbd070336	-0.032962047
77	0xbe957f29	-0.29198578
78	0x3e919cb0	0.28439856
79	0xbe3cdc1e	-0.18443343
80	0x3e1fddac	0.15611905
81	0xbd7024ce	-0.05862885
82	0x3e86cc60	0.263278
83	0xbe960d83	-0.29307184
84	0xbe21d950	-0.15805554
85	0x3e0ad202	0.13556674
86	0x3e5ce14b	0.21570317
87	0xbd9312af	-0.07181298
88	0x3e86437b	0.2622336
89	0x3f10ac94	0.56513333
90	0xbec2693b	-0.3797091
91	0xbecfa0cf	-0.40552375
92	0x3eda5fe6	0.4265129
93	0x3e9839c0	0.2973156
94	0xbeed80d9	-0.46387365
95	0xbf311b32	-0.6918212
96	0xbe855e60	-0.26048565
97	0x3e866414	0.2624823
98	0x3e639488	0.22224629
99	0xbe0618de	-0.13095424
100	0xbd499556	-0.049214683
101	0xbdfaf8c1	-0.12254477
102	0xbeef6304	-0.4675523
103	0xbea1490f	-0.31501052
104	0xbf0211d5	-0.5080846
105	0xbefa6b7e	-0.48910135
106	0x3efc690d	0.49298897
107	0x3e38a744	0.18032557
108	0x3cabb7e0	0.020961702
109	0xbdd7b29f	-0.10532116
110	0xbf1ce5fc	-0.6128843
111	0xbeb713c3	-0.35757264
112	0xbda402d0	-0.08008349
113	0xbe142377	-0.14466654
114	0xbee740b7	-0.4516656
115	0xbed973e0	-0.42471218
116	0x3d32797a	0.04357288
117	0xbcb6d960	-0.02232045
118	0x3e095516	0.13411364
119	0xbe00a29d	-0.12562032
120	0xbee9ffa5	-0.45702854
121	0xbef09382	-0.4698754
122	0x3e32124b	0.1738979
123	0x3c153a46	0.009108132
124	0x3e9d6846	0.30743617
125	0x3cb0647b	0.021532288
126	0x3f2fe23a	0.6870457
127	0x3f01c6e5	0.50694114

a2c_network.actor_mlp.0.bias f4 [32]
0	0x3dc74250	0.09729445
1	0xbe776b6c	-0.24162072
2	0xbe1b6f6e	-0.15179226
3	0x3d815c92	0.063164845
4	0x3dbbc147	0.09167724
5	0x3e5ebba1	0.21751262
6	0x3e8b8e05	0.2725679
7	0xbdd36a43	-0.10323002
8	0x3e40d398	0.18830717
9	0xbe92053b	-0.28519616
10	0xbe90bc44	-0.28268635
11	0xbe3479de	-0.17624614
12	0xbc9da754	-0.019244827
13	0x3c1f2458	0.009713255
14	0xbe4c5546	-0.19954404
15	0x3e212868	0.1573807
16	0xbe5405ec	-0.20705384
17	0xbe7d16b4	-0.24715692
18	0xbda73920	-0.081651926
19	0x3e5bb622	0.21456197
20	0xbd8172fc	-0.0632076
21	0x3e1b252c	0.15150899
22	0xbe3065e7	-0.17226373
23	0xbe4bcb70	-0.19901824
24	0x3e525eab	0.20543925
25	0x3de33641	0.110943325
26	0x3e563ae2	0.209209
27	0xbde624ba	-0.11237474
28	0xbe795f40	-0.24352741
29	0x3dddfa78	0.10838789
30	0x3e8656e5	0.2623817
31	0xbe85af2f	-0.26110217

a2c_network.actor_mlp.2.weight f4 [32, 32]
0	0x3e875094	0.26428664
1	0xbdd8799a	-0.10570069
2	0xbe034157	-0.12817894
3	0x3e14a387	0.14515506
4	0x3e36cbce	0.17851183
5	0x3d6f43fe	0.05841445
6	0xbe2e24ec	-0.17006272
7	0xbd992412	-0.07477583
8	0x3d2de119	0.042450998
9	0x3c5781bb	0.013153489
10	0xbe168c76	-0.14702019
11	0xbd7ad541	-0.06123853
12	0xbd502e6b	-0.050825518
13	0xbd75ff60	-0.060057998
14	0x3daff1ef	0.08591067
15	0xbeb07772	-0.3446613
16	0x3e20c94c	0.15701789
17	0x3da2af96	0.079436466
18	0x3dbda2f2	0.09259595
19	0xbc48127b	-0.012211437
20	0x3db6ec21	0.08931757
21	0x3e3f964d	0.18709679
22	0x3d0a67d7	0.033790436
23	0xbd7f67b1	-0.062354747
24	0x3db2bd7f	0.0872755
25	0xbc41471a	-0.011796737
26	0x3d4ab36f	0.049487527
27	0xbdd11b34	-0.10210267
28	0x3defaaad	0.11702476
29	0x3e360f5a	0.17779294
30	0x3e2a1007	0.16607676
31	0xbda72150	-0.08160651
32	0x3de39766	0.11112861
33	0xbdf9edee	-0.122035846
34	0x3d5deb79	0.054179642
35	0xbc7b26dc	-0.015329089
36	0xbd85e301	-0.06537438
37	0xbe2c13a2	-0.16804364
38	0x3e053987	0.13010226
39	0x3d08cd29	0.03339878
40	0xbe074c8e	-0.13212797
41	0xbe9c8e45	-0.30577293
42	0xbe7bd181	-0.24591638
43	0xbecd2c1f	-0.40072724
44	0xbd3c80cd	-0.04602127
45	0xbc390560	-0.011292785
46	0x3dc552d8	0.09634942
47	0x3da2e872	0.07954492
48	0xbeb6dd9c	-0.3571595
49	0xbeabc56c	-0.33549058
50	0xbdc56c96	-0.09639852
51	0x3e02f6e5	0.12789495
52	0xbbf47802	-0.007460595
53	0xbe134e8d	-0.14385433
54	0xbe63b09b	-0.22235338
55	0xbe96938a	-0.29409438
56	0xbe66b918	-0.22531545
57	0x3ca69f0b	0.02033951
58	0xbe673a3f	-0.22580813
59	0xbe343caf	-0.17601274
60	0xbeb8dfa2	-0.36108118
61	0x3d763707	0.060111072
62	0x3b902de0	0.0044
63	0xbd88c986	-0.066790625
64	0xbe01eab2	-0.12687185
65	0xbee48bf9	-0.4463804
66	0xbe31344e	-0.17305109
67	0x3e770777	0.24123941
68	0x3db31ff4	0.08746329
69	0x3d10aede	0.035323016
70	0x3e7c7a55	0.24656041
71	0x3dd6ea3c	0.104938954
72	0xbde0534c	-0.109533876
73	0xbef5febe	-0.48045915
74	0xbeed8dde	-0.463973
75	0xbebd9e48	-0.37034822
76	0xbdbfbc4e	-0.09362088
77	0xbd510bd5	-0.051036675
78	0xbdc43b31	-0.09581602
79	0xbd62e408	-0.05539325
80	0xbee42098	-0.44556117
81	0xbeaa8175	-0.33301893
82	0xbeb2ef91	-0.349484
83	0x3da33e40	0.079708576
84	0x3d23562b	0.039877098
85	0xbde0d37c	-0.109778374
86	0xbe95ee16	-0.29283208
87	0xbea6e381	-0.32595447
88	0xbe586f8e	-0.21136305
89	0xbdf58563	-0.11988332
90	0xbea37a07	-0.31929037
91	0xbe89fb72	-0.2694965
92	0xbdb8177f	-0.089888565
93	0xbdf0d5e0	-0.117595434
94	0xbd45ebc7	-0.048320558
95	0xbe42d489	-0.19026388
96	0x3e479cc0	0.19493389
97	0xbe6a516b	-0.22882621
98	0x3da27e2c	0.079342216
99	0xbd814f6f	-0.06313979
100	0x3db48e0d	0.088161565
101	0x3e70a0c1	0.23498823
102	0xbe02f18c	-0.12787455
103	0xbd5b788d	-0.053581763
104	0xbd233bf3	-0.039852094
105	0xbe24a5a9	-0.1607882
106	0xbb8fe735	-0.0043915757
107	0xbddeca3e	-0.108784184
108	0x3e17dd76	0.14830574
109	0x3d4c04cd	0.049809266
110	0x3db7288e	0.08943282
111	0xbe372c32	-0.17887953
112	0xbe3c68d5	-0.18399365
113	0x3d9a06a9	0.075208016
114	0x3d212cbe	0.03934931
115	0xbe5e1e1e	-0.21691176
116	0x3c52ccf3	0.0128662465
117	0xbddc4290	-0.10754883
118	0x3c50d336	0.012745669
119	0xbd86a60d	-0.065746404
120	0x391abcf8	0.00014756981
121	0xbd808fcd	-0.06277428
122	0xbe82fab8	-0.25581908
123	0x3e17274b	0.14761083
124	0x3e4a78ff	0.19772719
125	0xbbdb94c7	-0.0067010853
126	0x3d188ad9	0.03724179
127	0xbde1430d	-0.10999117
128	0xbe4c4c31	-0.1995094
129	0xbea73d0b	-0.3266376
130	0x3d2e76dd	0.042593826
131	0xbde8e2f4	-0.11371413
132	0xbe21059a	-0.15724793
133	0xbdd6daea	-0.10490973
134	0xbcc97d29	-0.024595814
135	0x3b8b2ed9	0.004247528
136	0xbdab7610	-0.08372128
137	0xbe8e8f9f	-0.2784395
138	0xbe3a887f	-0.18216132
139	0xbe4edfb2	-0.2020252
140	0xbe5caac7	-0.21549521
141	0x3e21983c	0.15780729
142	0x3cdf9d9a	0.02729683
143	0x3d927552	0.07151283
144	0xbe9cc551	-0.3061929
145	0xbd917ff5	-0.07104484
146	0x3d241e96	0.04006823
147	0x3d147bad	0.03625076
148	0xbe023af7	-0.12717806
149	0xbc5e4617	-0.013566515
150	0x3d884c4b	0.06655177
151	0xbbf45ab7	-0.007457103
152	0x3c0db54c	0.008649182
153	0x3e05f450	0.13081479
154	0xbe3b9405	-0.18318184
155	0x3b788b6d	0.00379249
156	0xbe35f0a7	-0.17767583
157	0xbc1169ce	-0.008875323
158	0x3c168220	0.009186298
159	0xbda97845	-0.08274893
160	0xbc6b6470	-0.014367208
161	0xbe45fefa	-0.19335547
162	0xbe3021af	-0.1720035
163	0xbe432337	-0.19056402
164	0xbda85957	-0.08220165
165	0x3cfc287c	0.030781023
166	0x3b75d257	0.0037509406
167	0xbcaefa3b	-0.021359554
168	0xbe30361e	-0.17208144
169	0xbd9efb2f	-0.07762753
170	0x3d283188	0.04106286
171	0xbdc2023b	-0.09473082
172	0x3cc8013e	0.024414655
173	0xbc46ffd1	-0.012145952
174	0xbe29b35e	-0.1657233
175	0xbe29c542	-0.16579154
176	0x3d20fec1	0.039305452
177	0xbce67e3e	-0.028136369
178	0xbd8cadfd	-0.06869123
179	0xbe2dcee5	-0.16973455
180	0xbe1c5147	-0.1526538
181	0xbd84ff2c	-0.06493983
182	0x3e3fb35a	0.18720761
183	0xbdc4f9f9	-0.09617991
184	0xbd3f9a11	-0.04677779
185	0x3d23e065	0.04000892
186	0x3d51f1db	0.051256042
187	0x3d98866c	0.07447514
188	0x3e2538cb	0.16134946
189	0x3da80b16	0.082052395
190	0xbdcbe8c6	-0.099565074
191	0x3bf7234d	0.00754205
192	0x3d793b0e	0.060847335
193	0xbdacdfc1	-0.08441115
194	0xbd3fed07	-0.046856906
195	0x3ddaa7e0	0.10676551
196	0xbd07391f	-0.03301346
197	0xbe0ce70a	-0.1376001
198	0xbc98f571	-0.018671723
199	0x3c67dda8	0.014151968
200	0xbdb9a07f	-0.09063815
201	0xbe069971	-0.13144471
202	0xbd49a385	-0.04922821
203	0xbeb4e3cd	-0.35330048
204	0xbe7fba46	-0.24973401
205	0x3d2f21f8	0.042757004
206	0x3e19cdfc	0.15019983
207	0x3e22c086	0.15893754
208	0xbe9b3d2a	-0.30320102
209	0xbe654995	-0.2239135
210	0xbe401688	-0.18758595
211	0x3b688d51	0.0035484622
212	0x3d9d255c	0.07673141
213	0x3bab4d82	0.0052277455
214	0xbd43e99f	-0.04783022
215	0xbeb47df5	-0.35252348
216	0x3c1e704d	0.009670329
217	0xbe6db52c	-0.23213643
218	0xbbbd5779	-0.00577825
219	0xbbf9f5cf	-0.0076281796
220	0xbe5305f9	-0.20607747
221	0x3dd669fc	0.10469434
222	0xbe6134eb	-0.21992843
223	0xbe1e1a4f	-0.15439723
224	0x3deacb0a	0.11464508
225	0xbe393a57	-0.18088661
226	0xba9ba554	-0.0011874833
227	0x3cf33ef0	0.029693097
228	0x3dacc600	0.08436203
229	0xbccf661a	-0.02531724
230	0x3e034b98	0.12821805
231	0xbd30c9e6	-0.043161295
232	0xbe276350	-0.16346478
233	0xbe6d4b93	-0.2317336
234	0xbe0a00c1	-0.1347685
235	0xbe91891b	-0.28424916
236	0xbdcb6c9f	-0.09932827
237	0x3e0ba571	0.1363733
238	0xba984f67	-0.0011620343
239	0x3dafe46d	0.08588491
240	0xbe9b319a	-0.3031128
241	0xbeb701af	-0.35743472
242	0xbe9b305d	-0.30310336
243	0xbdfc981c	-0.123337
244	0x3c7b212d	0.015327734
245	0xbddadc12	-0.10686506
246	0xbe91ce0a	-0.28477508
247	0xbe7777f9	-0.2416686
248	0x3cf6e33b	0.030137649
249	0xbb906db2	-0.004407608
250	0xbdadd473	-0.08487787
251	0xbe427aac	-0.18992108
252	0xbe78b65e	-0.24288318
253	0x3d9f72c0	0.07785559
254	0xbe864881	-0.2622719
255	0xbe833731	-0.25628045

a2c_network.actor_mlp.2.bias f4 [32]
0	0xbe426446	-0.18983564
1	0x3de60c53	0.112328194
2	0x3e492526	0.19643077
3	0xbe5044fb	-0.20338814
4	0x3de7ce23	0.11318614
5	0xbe4b95b7	-0.1988133
6	0x3e0d9834	0.13827592
7	0x3e0b3df3	0.1359785
8	0x3d9bcfac	0.0760797
9	0xbe40a9f0	-0.18814826
10	0x3e104aef	0.14091085
11	0x3e15abc6	0.14616308
12	0x3ddb01f6	0.106937334
13	0x3e28821e	0.16455886
14	0x3e0dd666	0.13851318
15	0xbe5db720	-0.21651888
16	0xbde65b77	-0.11247914
17	0x3db15ebf	0.086606495
18	0x3da1c8ac	0.07899603
19	0x3e2cd074	0.16876394
20	0xbe670f1c	-0.22564358
21	0xbdfa8206	-0.12231831
22	0x3e1ae6ae	0.1512706
23	0xbe185182	-0.14874843
24	0x3df788a8	0.12086612
25	0x3e47f779	0.19527997
26	0xbe3e43e9	-0.18580593
27	0xbe0fb76d	-0.14034815
28	0xbe8154c9	-0.25259998
29	0x3d9284c4	0.07154229
30	0xbdd6150b	-0.104532324
31	0xbe36928a	-0.17829338

a2c_network.value.weight f4 [1, 32]
0	0xbdf6c839	-0.12049908
1	0x3e6e6f4f	0.23284648
2	0x3e791868	0.24325716
3	0xbc94e98d	-0.018177772
4	0xbd554a2f	-0.0520727
5	0xbce176fa	-0.027522553
6	0x3e50b378	0.20380962
7	0x3e88df59	0.267329
8	0xbe0d6787	-0.13809024
9	0xbd870fbb	-0.06594797
10	0x3e3ed1b8	0.18634689
11	0xbdb938cc	-0.09044036
12	0x3df6d38e	0.120520696
13	0x3e2a17c2	0.16610625
14	0x3e02bd2a	0.12767473
15	0xbceff5f1	-0.029292079
16	0x3d014e5f	0.03156888
17	0x3ce8fb0e	0.028440025
18	0xbe0d9122	-0.13824895
19	0x3d31fb93	0.04345281
20	0xbd81fe0c	-0.06347284
21	0xbd08b6ac	-0.033377334
22	0xbdf99e98	-0.121884525
23	0x3c6d2486	0.01447404
24	0x3e3ac893	0.18240575
25	0xbd1ed0d8	-0.038773388
26	0xbde7240e	-0.11286174
27	0xbda31a9d	-0.079640605
28	0xbd416c3f	-0.047222372
29	0x3e533c91	0.20628573
30	0xbc29402c	-0.010330241
31	0xbd51a473	-0.05118222

a2c_network.mu.weight f4 [1, 32]
0	0x3d6ae3bf	0.0573461
1	0xbdd716cd	-0.10502396
2	0x3e5d98dc	0.21640342
3	0x3caa0bfb	0.020757666
4	0x3de1c238	0.110233724
5	0x3c582994	0.013193507
6	0xbd814889	-0.06312663
7	0x3c73cfd8	0.014881097
8	0x3e4329b1	0.19058873
9	0x3d9003b1	0.07031954
10	0xbe42c6f7	-0.19021212
11	0x3d55decf	0.05221444
12	0x3e8cf87b	0.27533326
13	0xbe7e25b2	-0.24819067
14	0x3e328e6f	0.17437147
15	0xbd18caac	-0.037302658
16	0x3d13ef57	0.036116924
17	0x3db485e9	0.08814604
18	0x3d6a8f34	0.057265475
19	0x39e44927	0.00043542052
20	0x3e155c45	0.1458598
21	0xbb69c21b	-0.0035668674
22	0x3d2457c2	0.040122755
23	0x3b40da6b	0.0029427062
24	0x3e8a0284	0.26955044
25	0x3d0dd777	0.03462931
26	0x3dcc4b15	0.09975258
27	0xbe2b9308	-0.16755307
28	0x3ddd5798	0.10807723
29	0xbdb1cb95	-0.08681408
30	0xbe9810ce	-0.2970032
31	0x3dc6c0ee	0.09704767

exp_avg f4 [32, 4]
0	0xb88f875c	-6.843984e-05
1	0x39025cb9	0.00012432308
2	0xb891fe91	-6.9615555e-05
3	0xb899fe65	-7.342993e-05
4	0xb9bc58c8	-0.00035924301
5	0xba871ff2	-0.0010309203
6	0xb857fab1	-5.149347e-05
7	0xb9d14ab5	-0.00039919248
8	0x3a927e23	0.0011176508
9	0x3a4134ae	0.00073702156
10	0x392127da	0.00015369002
11	0x39f27b79	0.0004624983
12	0x3881cf77	6.189843e-05
13	0x3823b37e	3.9029394e-05
14	0xb743b50e	-1.1665061e-05
15	0x38da9829	0.00010423392
16	0xb87340a8	-5.799593e-05
17	0x3920dfb1	0.0001534212
18	0xb894ec56	-7.101211e-05
19	0x38eb129d	0.0001120914
20	0xb9187556	-0.0001453956
21	0xb93622c8	-0.0001736983
22	0xb8210a33	-3.839489e-05
23	0xb8ea3357	-0.00011167552
24	0xb9004f11	-0.00012236486
25	0x39df787f	0.0004262365
26	0xb92b0b46	-0.0001631203
27	0x399c6d7a	0.00029836205
28	0x39cef8d0	0.00039476762
29	0x3a029a65	0.0004982113
30	0x390afc59	0.00013254712
31	0x398efa02	0.0002727062
32	0xb9b4ab67	-0.0003445998
33	0xb942c93f	-0.00018576252
34	0xb8c612c0	-9.444868e-05
35	0xba311de3	-0.00067564676
36	0xba7a4633	-0.00095472037
37	0xba9e3e9d	-0.0012073104
38	0xb8e7d971	-0.0001105544
39	0xba228403	-0.0006199481
40	0x3aa27f9c	0.001239765
41	0xbade6b1e	-0.0016969179
42	0x3a4625eb	0.0007558751
43	0xba4d0e42	-0.0007822254
44	0xbb04ff9f	-0.0020293964
45	0xba33694e	-0.0006844
46	0xba4cc909	-0.0007811939
47	0xba70bfb2	-0.0009183838
48	0xba7512c2	-0.00093488034
49	0x395d67f9	0.00021114935
50	0xb98bc80c	-0.00026661193
51	0xb9bd68a3	-0.0003612685
52	0xb88e7708	-6.793259e-05
53	0xb93b1eb3	-0.00017845146
54	0x3886ad9e	6.421957e-05
55	0xb930baeb	-0.000168543
56	0xb9d22550	-0.0004008212
57	0xb9c0d891	-0.00036782448
58	0xb8b306a4	-8.536622e-05
59	0xb9220ebf	-0.00015455017
60	0x39779157	0.00023609899
61	0xb93ed72f	-0.00018199974
62	0x386e783c	5.68556e-05
63	0xb88eb135	-6.804095e-05
64	0x3acecc06	0.0015777356
65	0xbb0330a0	-0.0020017996
66	0x3aae8ddb	0.0013317423
67	0xba973317	-0.0011535612
68	0xbafc90bf	-0.0019269212
69	0xbad18977	-0.0015986402
70	0xba2c46e3	-0.0006571842
71	0xbabc2c84	-0.0014356528
72	0xb83ffb5d	-4.577205e-05
73	0x3a9da4c8	0.0012027258
74	0x398c621d	0.0002677598
75	0xb98fbc0b	-0.00027415188
76	0xb97c87c8	-0.00024083175
77	0xb9f2ab75	-0.00046285582
78	0xb850e536	-4.9804534e-05
79	0xb95127de	-0.00019946645
80	0x3893f1d8	7.054553e-05
81	0x38b5aab0	8.6625456e-05
82	0xb83994b2	-4.424592e-05
83	0x38b14e11	8.454559e-05
84	0xb9aadd67	-0.00032589884
85	0x38784d08	5.919955e-05
86	0xb8bd39fc	-9.023023e-05
87	0xb9893bdd	-0.00026175278
88	0xbb3c8ea3	-0.0028771542
89	0xb94e6bc6	-0.0001968584
90	0xba84bd90	-0.0010127295
91	0xba81847d	-0.0009881404
92	0xbb30cf54	-0.0026979046
93	0xbaaffd64	-0.0013426957
94	0xba73ba7f	-0.00092975044
95	0xbad534b3	-0.0016266316
96	0xb9e1694d	-0.000429938
97	0x369a1bd7	4.5927986e-06
98	0xb8a20554	-7.7257544e-05
99	0xb9f3d8db	-0.00046510142
100	0xba2a47d2	-0.00064956874
101	0xb9e1e5eb	-0.00043086646
102	0xb9342683	-0.00017180484
103	0xb9632b57	-0.00021664552
104	0x3a2f12e0	0.0006678533
105	0xba8bd63c	-0.0010668705
106	0x3a1674d7	0.00057394564
107	0xba2be3a5	-0.0006557054
108	0xba025328	-0.00049714977
109	0xba1f5d53	-0.0006079275
110	0xb8fbc9e0	-0.00012006215
111	0xba0d0167	-0.0005378932
112	0xb991b821	-0.00027793742
113	0xba34270e	-0.00068722747
114	0x380608ac	3.1956166e-05
115	0xba51ffcd	-0.00080108346
116	0x3886271f	6.396905e-05
117	0x391208fb	0.0001392699
118	0xb895de69	-7.146301e-05
119	0x37067ebd	8.016531e-06
120	0xba11acf1	-0.00055570813
121	0xbab79ca5	-0.0014008476
122	0x38d000c5	9.918356e-05
123	0xba467c4a	-0.0007571621
124	0x37ad3a4c	2.0650354e-05
125	0xb9daace6	-0.0004170902
126	0xb7ae815d	-2.0802656e-05
127	0xb9a9807b	-0.00032329917

exp_avg_sq f4 [32, 4]
0	0x38554d49	5.0855135e-05
1	0x383ca925	4.498022e-05
2	0x3876093a	5.8659563e-05
3	0x3834a596	4.3069558e-05
4	0x39741820	0.0002327864
5	0x394c702e	0.00019496746
6	0x392c81c3	0.00016451538
7	0x3905d3f5	0.00012762829
8	0x38748cc1	5.830522e-05
9	0x38894238	6.545003e-05
10	0x37b72adc	2.1835258e-05
11	0x379c5a02	1.8638562e-05
12	0x38242e1f	3.91436e-05
13	0x380b75bc	3.324983e-05
14	0x38aa0113	8.106432e-05
15	0x387fa732	6.095245e-05
16	0x37c4fa54	2.3481589e-05
17	0x37a11c99	1.9206012e-05
18	0x37bac923	2.226659e-05
19	0x37890584	1.6334241e-05
20	0x3792fe62	1.7523013e-05
21	0x37167d58	8.969881e-06
22	0x372eb0ee	1.0412403e-05
23	0x37169d03	8.977254e-06
24	0x39782a72	0.00023666935
25	0x39154138	0.00014234043
26	0x3999f3b1	0.00029363998
27	0x3974bd30	0.00023340131
28	0x37ee7371	2.8425568e-05
29	0x379b5637	1.8517587e-05
30	0x3762717e	1.3497074e-05
31	0x375796c8	1.2850105e-05
32	0x38e0a84d	0.00010712501
33	0x3898bc4b	7.282997e-05
34	0x38b96631	8.840522e-05
35	0x38b25d68	8.5051e-05
36	0x39c1b3e5	0.0003694586
37	0x39b7bd99	0.0003504574
38	0x39b03486	0.0003360847
39	0x397481a6	0.00023317951
40	0x398ea451	0.00027206776
41	0x3944d7b3	0.00018772371
42	0x390715cb	0.00012882722
43	0x38c9aaf2	9.616268e-05
44	0x39b675b7	0.0003480145
45	0x399efbf3	0.00030323825
46	0x3990a5aa	0.0002758925
47	0x396dabe9	0.00022666123
48	0x38517394	4.9937124e-05
49	0x384157f8	4.6096713e-05
50	0x37bcdfd8	2.2515582e-05
51	0x37aa5662	2.0305804e-05
52	0x382b300d	4.0814328e-05
53	0x38299948	4.0435494e-05
54	0x38aebc8f	8.332088e-05
55	0x3881b477	6.1848135e-05
56	0x382b9cbb	4.0915544e-05
57	0x37beab4d	2.2729533e-05
58	0x37ae4586	2.077479e-05
59	0x378dc221	1.6898908e-05
60	0x38c742ff	9.5015384e-05
61	0x38401b6f	4.5801917e-05
62	0x392b8b30	0.00016359682
63	0x391015f9	0.00013741096
64	0x3a363de2	0.000695197
65	0x3a007eb0	0.00049016904
66	0x3991dc16	0.00027820532
67	0x3958a7d5	0.00020661888
68	0x39dbab7a	0.00041898695
69	0x39d33460	0.0004028408
70	0x39c12ee3	0.00036846762
71	0x3988c170	0.00026084064
72	0x3980ff47	0.0002460426
73	0x39598eb0	0.00020747888
74	0x38af4a80	8.358527e-05
75	0x387565d2	5.850738e-05
76	0x37fa6c55	2.9852768e-05
77	0x3775cc7e	1.465075e-05
78	0x383c00a8	4.4823304e-05
79	0x3821adca	3.8547245e-05
80	0x3723329b	9.72734e-06
81	0x373d4d8b	1.1283332e-05
82	0x37106ee6	8.608889e-06
83	0x36f435a5	7.2780117e-06
84	0x3807d613	3.238588e-05
85	0x37ba7a0c	2.222976e-05
86	0x379b4377	1.8508856e-05
87	0x37a633e6	1.981291e-05
88	0x397ac398	0.00023914722
89	0x39955018	0.0002847917
90	0x3908ddf3	0.00013052653
91	0x38fb6153	0.00011986741
92	0x39e9c32d	0.0004458664
93	0x39e515a2	0.000436944
94	0x39b7e3b4	0.00035074132
95	0x39896333	0.00026204585
96	0x38bfd271	9.1467875e-05
97	0x388c7665	6.697773e-05
98	0x37ff7bc4	3.0456002e-05
99	0x37feb473	3.0363188e-05
100	0x383ba2d5	4.4735923e-05
101	0x38028aee	3.1123804e-05
102	0x381ace74	3.6908736e-05
103	0x37e0e13a	2.680776e-05
104	0x38e8beee	0.000110981855
105	0x389fbcf7	7.616908e-05
106	0x380b7676	3.3250508e-05
107	0x37c6d799	2.3703835e-05
108	0x39127d9d	0.0001397044
109	0x38e8bb3d	0.00011097498
110	0x38c7c967	9.5265736e-05
111	0x389692e0	7.179915e-05
112	0x39e7a0e4	0.00044179626
113	0x3992d8ce	0.00028008822
114	0x39eb51a8	0.00044883532
115	0x39ada4b0	0.00033119833
116	0x37929f37	1.7478696e-05
117	0x376bba72	1.4050502e-05
118	0x3746754a	1.1829028e-05
119	0x36e72b7b	6.8893983e-06
120	0x38ea4a89	0.00011171873
121	0x38a079e0	7.6520955e-05
122	0x37f2c5c2	2.8940736e-05
123	0x37d84c1f	2.5784653e-05
124	0x394ef163	0.00019735614
125	0x393526d2	0.00017275967
126	0x391276fb	0.00013967969
127	0x38e7125f	0.0001101836

exp_avg f4 [32]
0	0xb951a163	-0.00019991914
1	0xb9c009ab	-0.00036628297
2	0x3a55837c	0.0008144898
3	0x39f6eee2	0.00047098758
4	0x3842cf2a	4.644614e-05
5	0x3221cc1a	9.417841e-09
6	0x3aa1c303	0.0012341443
7	0x39d0d41e	0.0003983089
8	0xba6ae2ae	-0.00089601695
9	0xbac44bc4	-0.0014976193
10	0xba80d60d	-0.0009829417
11	0xbabdc9f7	-0.0014479746
12	0xbab779ea	-0.0013998125
13	0x37493065	1.1991801e-05
14	0x387ffb05	6.1030518e-05
15	0x392dd501	0.00016577916
16	0xbb0accf1	-0.0021179284
17	0xba717de1	-0.0009212178
18	0xbae0d76c	-0.0017154044
19	0xba018d15	-0.00049419823
20	0x39096785	0.00013103902
21	0xb99a73bf	-0.00029459407
22	0xbb0e28f2	-0.0021691886
23	0xbac744c4	-0.0015202989
24	0xba9ef07a	-0.0012126111
25	0x3953d7c0	0.00020202901
26	0xba275e1a	-0.00063845667
27	0xb79d45f9	-1.8748442e-05
28	0xb9940c22	-0.000282378
29	0xb8f5c023	-0.000117182986
30	0xba012b6c	-0.000492743
31	0x36fcc452	7.53304e-06

exp_avg_sq f4 [32]
0	0x3900e5e8	0.00012292678
1	0x3a0dfcda	0.0005416401
2	0x392551a8	0.00015766046
3	0x38872648	6.444432e-05
4	0x3880b514	6.137244e-05
5	0x381792e2	3.6138e-05
6	0x39a5e2b5	0.00031640162
7	0x38821ac9	6.203872e-05
8	0x398be95b	0.0002668601
9	0x3a61ca55	0.00086132187
10	0x3a135bff	0.00056213135
11	0x3a4b1497	0.00077469036
12	0x39255d39	0.00015770354
13	0x38876f42	6.458025e-05
14	0x385df9ca	5.292314e-05
15	0x38c48665	9.371041e-05
16	0x3ac31ee9	0.0014886531
17	0x3a8b18da	0.0010612265
18	0x3a261af3	0.0006336413
19	0x3823e8d4	3.9079066e-05
20	0x381cc74a	3.73789e-05
21	0x38b0068c	8.3935534e-05
22	0x3a4907a6	0.0007668681
23	0x3a9870e1	0.001163032
24	0x39809d3b	0.00024531208
25	0x38b157c7	8.4563675e-05
26	0x39a3e2c3	0.00031258733
27	0x39941ada	0.00028248766
28	0x3a39f122	0.00070931215
29	0x38037c0c	3.134836e-05
30	0x3997668b	0.00028877365
31	0x39e7c1c6	0.00044204126

exp_avg f4 [32, 32]
0	0xb801488a	-3.0823554e-05
1	0xb9a8a001	-0.0003216267
2	0xb9788c50	-0.00023703394
3	0xb93e33c4	-0.00018139096
4	0xb779c0d6	-1.4886455e-05
5	0x3876e5d3	5.886501e-05
6	0xb96390bb	-0.00021702323
7	0xb911993f	-0.00013885366
8	0x37ec7e69	2.8192257e-05
9	0xb9223429	-0.00015468955
10	0xb80d0e55	-3.3630367e-05
11	0x38e655ba	0.000109832225
12	0x3974acd9	0.00023334044
13	0xb8b420a7	-8.589151e-05
14	0x392a9a8a	0.00016270034
15	0xb9266021	-0.00015866804
16	0x388a9cb4	6.609541e-05
17	0xb60aae4e	-2.066506e-06
18	0x390dd59f	0.00013526388
19	0xb80a3aa1	-3.2956366e-05
20	0xb8d8e4a4	-0.0001034227
21	0x390159cb	0.00012335849
22	0x39369613	0.0001741278
23	0x36f61587	7.3338774e-06
24	0x397a899d	0.00023893123
25	0x3922c416	0.00015522572
26	0x3994211c	0.00028253428
27	0x39109dcc	0.00013791694
28	0x39279ba1	0.00015984337
29	0xb83a72b9	-4.44527e-05
30	0x39a53789	0.0003151263
31	0xb9acf637	-0.0003298984
32	0x3988b707	0.00026076307
33	0x3970c440	0.00022961292
34	0x3944aac6	0.00018755635
35	0x39514662	0.00019958013
36	0x3944550c	0.00018723699
37	0xb9705d62	-0.00022922971
38	0xb9a889bb	-0.00032146074
39	0x37dbbbd6	2.6194302e-05
40	0x39be2492	0.0003626687
41	0x397f7a30	0.00024364213
42	0xb9a692f9	-0.0003177149
43	0xb91d9979	-0.0001502986
44	0x38c0c00b	9.191044e-05
45	0xb988f7a1	-0.0002612444
46	0xba19774a	-0.0005854262
47	0xb8f2ddfb	-0.00011580806
48	0xb9e4c7cd	-0.00043636412
49	0xb9b287ae	-0.00034051895
50	0xb90ae2f5	-0.00013245254
51	0xb9982244	-0.0002901723
52	0xb921d665	-0.00015434025
53	0xb831b304	-4.236681e-05
54	0xb8a48b14	-7.846035e-05
55	0xb9324abb	-0.00017003242
56	0xb8e90738	-0.000111116504
57	0xb9bc6a8f	-0.00035937547
58	0xba649fd8	-0.00087213283
59	0xb9d10720	-0.00039868895
60	0xba0a8213	-0.0005283665
61	0x37364c25	1.0865774e-05
62	0xba69ef8f	-0.00089239416
63	0x39de4d37	0.0004240067
64	0x39ae9f97	0.0003330677
65	0xb73767df	-1.0931834e-05
66	0xb83fadfc	-4.5699984e-05
67	0x3927b924	0.00015995331
68	0x39af6674	0.00033454935
69	0x3916039d	0.00014306461
70	0xb97aef2a	-0.00023930953
71	0xb91a718f	-0.00014728888
72	0x3944c6ef	0.00018766125
73	0xb71af4f7	-9.236151e-06
74	0xb9fb617d	-0.00047947085
75	0xb9e407f7	-0.00043493483
76	0xb7ebfb91	-2.8131328e-05
77	0xb9adbd62	-0.00033138233
78	0xb92a33ab	-0.00016231711
79	0xb8dce995	-0.000105339255
80	0xb985dff0	-0.00025534583
81	0xba386b64	-0.00070350454
82	0x376f6c76	1.4270763e-05
83	0xb89cc939	-7.47614e-05
84	0xb995cfc9	-0.00028574307
85	0x38f20530	0.000115404255
86	0xb9c45fb3	-0.00037455335
87	0xba160e0d	-0.00057241396
88	0x39095da1	0.00013100218
89	0x37d0c59e	2.4887555e-05
90	0x398e05d5	0.00027088696
91	0xb95b08a9	-0.00020888694
92	0xb9aa7e9d	-0.0003251926
93	0x378cbdbf	1.6777658e-05
94	0x39cad2d5	0.00038685524
95	0x39437820	0.00018641399
96	0xb641a5d0	-2.8855757e-06
97	0xb887ebea	-6.481244e-05
98	0xb85a5a1f	-5.2059182e-05
99	0xb814a7ea	-3.5442332e-05
100	0x3612d8ce	2.1881892e-06
101	0x372905df	1.0074552e-05
102	0xb87c276a	-6.011819e-05
103	0xb7dd8659	-2.6407813e-05
104	0xb674c613	-3.6474128e-06
105	0xb7f03c3a	-2.8638275e-05
106	0xb711c195	-8.687745e-06
107	0x37b81868	2.1945874e-05
108	0x38306a59	4.2060714e-05
109	0xb7e12822	-2.6840778e-05
110	0x3833b4d7	4.2845346e-05
111	0xb835b641	-4.33235e-05
112	0x377f4676	1.521559e-05
113	0xb5f364ee	-1.8134285e-06
114	0x38021ff3	3.102417e-05
115	0xb76ddeeb	-1.4178203e-05
116	0xb7e373be	-2.7114405e-05
117	0x37ab1489	2.0394351e-05
118	0x3801b9d6	3.092907e-05
119	0xb66cccde	-3.5285989e-06
120	0x3833b703	4.284737e-05
121	0x3819515a	3.6553807e-05
122	0x388a4b6b	6.5944005e-05
123	0x381445b2	3.535086e-05
124	0x382a8e80	4.0663872e-05
125	0xb77201d3	-1.4424749e-05
126	0x38a04726	7.642647e-05
127	0xb886dd03	-6.4307846e-05
128	0xb81d7f8d	-3.7550508e-05
129	0xb91d7a47	-0.00015018239
130	0xb9031f48	-0.00012504787
131	0xb87bc20c	-6.0023784e-05
132	0xb6763132	-3.6685492e-06
133	0x391bc37c	0.00014854776
134	0x38b33f60	8.54719e-05
135	0xb88486d3	-6.3193635e-05
136	0xb8d1ab1e	-9.99777e-05
137	0xb91c9f35	-0.00014936629
138	0xb54208d0	-7.2283456e-07
139	0xb7c44c0d	-2.3400435e-05
140	0xb802a645	-3.1149266e-05
141	0x38156e77	3.5627247e-05
142	0x39702cbf	0.00022904853
143	0x37ce140a	2.4566445e-05
144	0x38ee80b9	0.00011372701
145	0xb738ebfc	-1.1022199e-05
146	0x386b9ba0	5.6173303e-05
147	0x38f38f31	0.000116138144
148	0xb6f2ce31	-7.236166e-06
149	0x387a2efc	5.9648402e-05
150	0xb80f8bbb	-3.422399e-05
151	0xb8522578	-5.0102797e-05
152	0x38dce3d3	0.00010532853
153	0x394a2fca	0.00019282024
154	0x39fd8186	0.00048352423
155	0x391685a0	0.00014354894
156	0x39304337	0.00016809707
157	0x35dc1e0a	1.640002e-06
158	0x3a0ba7af	0.0005327416
159	0xb9414388	-0.00018431072
160	0xb74f0d88	-1.2341312e-05
161	0xb884e7eb	-6.3374486e-05
162	0xb847c1f2	-4.7625923e-05
163	0xb82d6fa8	-4.1350402e-05
164	0xb711bd40	-8.686737e-06
165	0x3698524f	4.539535e-06
166	0xb85e550a	-5.3008123e-05
167	0xb7d7d710	-2.5730144e-05
168	0x33de73da	1.0358754e-07
169	0xb7f18a01	-2.8793702e-05
170	0x352e27bc	6.487787e-07
171	0x380ebdd4	3.403223e-05
172	0x385340c2	5.036663e-05
173	0xb7858966	-1.5918817e-05
174	0x383106e1	4.2206495e-05
175	0xb81ef203	-3.7895526e-05
176	0x379816ce	1.8130431e-05
177	0x377329bf	1.4493648e-05
178	0x37ef254f	2.8508393e-05
179	0xb7627f90	-1.350035e-05
180	0xb7960b1b	-1.7886565e-05
181	0x37a809a1	2.0031644e-05
182	0x3847aa0c	4.7603666e-05
183	0x377d8c30	1.5112615e-05
184	0x38349405	4.3053198e-05
185	0x38063549	3.1997715e-05
186	0x385fad68	5.332884e-05
187	0x38181bbf	3.6265465e-05
188	0x383a83aa	4.4468477e-05
189	0xb75c0f38	-1.3116565e-05
190	0x387ab433	5.977247e-05
191	0xb888465b	-6.49809e-05
192	0x397789d5	0.00023607102
193	0x3931c99b	0.0001695514
194	0x390fba14	0.00013706862
195	0x39323d4d	0.00016998239
196	0x39397897	0.00017687898
197	0xb9335bbb	-0.00017104943
198	0xb9929a03	-0.00027962038
199	0x369493ab	4.4279345e-06
200	0x39a53a5d	0.00031514736
201	0x393ff689	0.00018307021
202	0xb99e9e36	-0.00030253985
203	0xb918965b	-0.00014551861
204	0x38aa8c98	8.132419e-05
205	0xb978cb27	-0.00023726803
206	0xb9fcbc82	-0.00048205635
207	0xb8d93691	-0.0001035753
208	0xb9c62cb3	-0.00037798806
209	0xb9a9e3bf	-0.00032403876
210	0xb8e31417	-0.000108279455
211	0xb97b4ded	-0.00023966255
212	0xb91cb4eb	-0.00014944717
213	0xb7b10b4b	-2.1105303e-05
214	0xb8a80783	-8.0122634e-05
215	0xb936bdda	-0.00017427598
216	0xb8952b66	-7.112957e-05
217	0xb991c2a9	-0.00027801588
218	0xba3025ee	-0.0006719519
219	0xb9ad4315	-0.0003304711
220	0xb9e9fd22	-0.00044629822
221	0x372b3493	1.0204635e-05
222	0xba30f957	-0.0006751022
223	0x39b47a7f	0.00034423542
224	0x39a85ed5	0.00032114112
225	0x391f8155	0.00015211602
226	0x38e4c91f	0.00010909349
227	0x39597b80	0.0002074074
228	0x398d4e99	0.00026952176
229	0xb8e4c099	-0.00010907761
230	0xb9afd1aa	-0.00033534813
231	0xb82d97a3	-4.1387637e-05
232	0x39af2034	0.00033402594
233	0x392d456b	0.00016524426
234	0xb9e1139e	-0.0004292996
235	0xb9923203	-0.00027884552
236	0x385df001	5.2914027e-05
237	0xb9aa21c7	-0.00032450093
238	0xb9fca1c7	-0.0004818572
239	0xb9097545	-0.00013109024
240	0xb9df20e4	-0.0004255838
241	0xba094eb1	-0.0005237861
242	0xb8c4d865	-9.386315e-05
243	0xb97f6902	-0.00024357814
244	0xb96fbfd3	-0.00022864276
245	0x375fca40	1.3338926e-05
246	0xb956bee5	-0.00020479744
247	0xb9b77e67	-0.00034998657
248	0xb7f8f92a	-2.967993e-05
249	0xb97cf3a4	-0.00024123356
250	0xba084938	-0.0005198899
251	0xb9be1b3b	-0.00036259912
252	0xba03c185	-0.000502609
253	0x374bf3f1	1.215654e-05
254	0xb9fcfca5	-0.0004825342
255	0x39c41c21	0.0003740499

exp_avg_sq f4 [32, 32]
0	0x3657ea6a	3.2173944e-06
1	0x381b7c4d	3.7070644e-05
2	0x3794b99d	1.7729408e-05
3	0x370f54e5	8.54323e-06
4	0x36798484	3.7181026e-06
5	0x37b99a89	2.212568e-05
6	0x37908df5	1.7232242e-05
7	0x37562352	1.2763618e-05
8	0x3799a6d2	1.8316703e-05
9	0x3814d968	3.5488425e-05
10	0x37ebbcd1	2.8102108e-05
11	0x3887e2f6	6.4795764e-05
12	0x3794e4aa	1.7749455e-05
13	0x36ad5971	5.166214e-06
14	0x3739a54d	1.1065346e-05
15	0x36e96df9	6.9567436e-06
16	0x38364da4	4.346449e-05
17	0x38e1c65f	0.000107657856
18	0x37df80be	2.6643622e-05
19	0x37512db3	1.2468011e-05
20	0x36e428f9	6.7996993e-06
21	0x371ae568	9.232528e-06
22	0x38428410	4.6376197e-05
23	0x389eb926	7.568514e-05
24	0x37957bef	1.7819895e-05
25	0x383c1e34	4.485082e-05
26	0x381553bb	3.560235e-05
27	0x384dbe02	4.9052767e-05
28	0x383f5600	4.5618042e-05
29	0x3783d094	1.5713544e-05
30	0x380701ab	3.218806e-05
31	0x3815736d	3.5631867e-05
32	0x36dead80	6.6363136e-06
33	0x389241db	6.974089e-05
34	0x37c15f0d	2.3051654e-05
35	0x371b1081	9.242563e-06
36	0x369734b1	4.5062848e-06
37	0x38067c6c	3.2063967e-05
38	0x389dc096	7.522215e-05
39	0x37559bae	1.2732036e-05
40	0x38690d3b	5.556385e-05
41	0x38866278	6.407959e-05
42	0x386f0035	5.6982233e-05
43	0x3884a623	6.325196e-05
44	0x38112633	3.460627e-05
45	0x37860f86	1.5981273e-05
46	0x381b9eaf	3.7102665e-05
47	0x380a009f	3.2902342e-05
48	0x38b25cee	8.505011e-05
49	0x38cd0da0	9.7776996e-05
50	0x37f6460a	2.93581e-05
51	0x382ac8d9	4.0718212e-05
52	0x3736c23e	1.0893271e-05
53	0x3787f79d	1.6208558e-05
54	0x3862bf8f	5.4061e-05
55	0x3897b075	7.233109e-05
56	0x37f26067	2.8893539e-05
57	0x381ad3d7	3.6913752e-05
58	0x38beb35e	9.093316e-05
59	0x383d86dc	4.518671e-05
60	0x386dc054	5.6684323e-05
61	0x3792d1f2	1.750232e-05
62	0x3893c328	7.045857e-05
63	0x387fd623	6.0996168e-05
64	0x37092c4d	8.176151e-06
65	0x387b9c0c	5.9988393e-05
66	0x37c3f7d4	2.3361215e-05
67	0x371efb6c	9.476073e-06
68	0x36c1d93d	5.777138e-06
69	0x383ba0db	4.4734083e-05
70	0x38a8d406	8.050357e-05
71	0x37637bff	1.3559124e-05
72	0x387183e8	5.7581725e-05
73	0x3876f546	5.88794e-05
74	0x3853a216	5.0457274e-05
75	0x386f18c0	5.700509e-05
76	0x381bc7ab	3.7140835e-05
77	0x378ea2ea	1.7003582e-05
78	0x38287c20	4.016992e-05
79	0x3812c2a4	3.4990386e-05
80	0x389ab487	7.376918e-05
81	0x38aecba0	8.334895e-05
82	0x37f25fc6	2.8893246e-05
83	0x3844f43a	4.6957495e-05
84	0x3758496c	1.2891698e-05
85	0x37bf90be	2.2836375e-05
86	0x38615748	5.3725467e-05
87	0x388ac4a9	6.6169836e-05
88	0x381960b1	3.6568093e-05
89	0x380697ac	3.2089345e-05
90	0x38f1eae7	0.000115355295
91	0x380ef417	3.4082765e-05
92	0x38478dc7	4.7577338e-05
93	0x377a4444	1.49170555e-05
94	0x38ebceb5	0.000112441754
95	0x387a58e0	5.9687416e-05
96	0x356da192	8.8524496e-07
97	0x3735a187	1.0826049e-05
98	0x36bccdea	5.626808e-06
99	0x36849516	3.9512624e-06
100	0x35ba0a03	1.3860994e-06
101	0x370d3db6	8.418623e-06
102	0x36b97942	5.527546e-06
103	0x36ada8b5	5.175442e-06
104	0x36aabcd6	5.088378e-06
105	0x37219fe7	9.633578e-06
106	0x37007b6c	7.658131e-06
107	0x37c234da	2.3151213e-05
108	0x36be5809	5.67269e-06
109	0x35d56b96	1.5901048e-06
110	0x363fe4a8	2.8594313e-06
111	0x361752e9	2.2549013e-06
112	0x372cd42a	1.0301397e-05
113	0x38224f36	3.869758e-05
114	0x370498fe	7.903434e-06
115	0x3696a3c5	4.4894136e-06
116	0x361ed084	2.3665207e-06
117	0x3635eaff	2.7107887e-06
118	0x378bad2a	1.6650727e-05
119	0x37e0aabc	2.6782385e-05
120	0x36be0347	5.662823e-06
121	0x378bb603	1.6654847e-05
122	0x371adcf1	9.230557e-06
123	0x379623f1	1.789813e-05
124	0x37885641	1.6252628e-05
125	0x36c68fd7	5.917605e-06
126	0x37153e88	8.895651e-06
127	0x373a424e	1.1101902e-05
128	0x35a96098	1.2619594e-06
129	0x378bad0b	1.665067e-05
130	0x36d3c121	6.310773e-06
131	0x364978be	3.0021615e-06
132	0x35baa3f2	1.3905794e-06
133	0x3718549a	9.079604e-06
134	0x3708e1eb	8.158832e-06
135	0x36a988b5	5.0525073e-06
136	0x37559a0e	1.2731658e-05
137	0x378674d7	1.6028453e-05
138	0x37640d54	1.3592962e-05
139	0x37ccb43c	2.4402623e-05
140	0x372e1858	1.0376876e-05
141	0x360de5b2	2.1144338e-06
142	0x36f0946b	7.1698355e-06
143	0x3652ff8d	3.1441189e-06
144	0x37c5427b	2.3515187e-05
145	0x3822ce74	3.8816084e-05
146	0x37383448	1.0979427e-05
147	0x36f497d3	7.2894413e-06
148	0x36396a19	2.7628905e-06
149	0x369ad4c1	4.6143255e-06
150	0x37a48ca7	1.961582e-05
151	0x37f1e8fd	2.8837932e-05
152	0x37046f4f	7.893729e-06
153	0x3759add2	1.2974679e-05
154	0x37bada7e	2.2274671e-05
155	0x3789062c	1.6334547e-05
156	0x378726ce	1.6111324e-05
157	0x3698854f	4.545472e-06
158	0x376dc21b	1.41714945e-05
159	0x3779eb82	1.489639e-05
160	0x35afa7e0	1.3087374e-06
161	0x37b8b2af	2.2017715e-05
162	0x373dfdcf	1.1324372e-05
163	0x3702e1f1	7.80121e-06
164	0x36475ffb	2.9709179e-06
165	0x378e02f7	1.69291e-05
166	0x3714d734	8.871593e-06
167	0x37361623	1.08531995e-05
168	0x3701e2ae	7.741777e-06
169	0x37a5cff9	1.9766378e-05
170	0x37651511	1.3654369e-05
171	0x3834cd78	4.3106702e-05
172	0x3748b384	1.1962726e-05
173	0x3628f777	2.5177994e-06
174	0x36a570a2	4.9304954e-06
175	0x36649873	3.4063385e-06
176	0x37b49e81	2.1531481e-05
177	0x389b4d09	7.405325e-05
178	0x378e300a	1.6950089e-05
179	0x370db4fc	8.446394e-06
180	0x36b1a22d	5.293891e-06
181	0x36c8c3d5	5.9832623e-06
182	0x37fe2b5e	3.0299354e-05
183	0x38554dc1	5.085557e-05
184	0x37309d2a	1.052701e-05
185	0x37fca241	3.0116296e-05
186	0x37a9cce1	2.0241774e-05
187	0x3809d080	3.2857526e-05
188	0x38001bed	3.0543586e-05
189	0x37348624	1.0760068e-05
190	0x378dea6e	1.6917675e-05
191	0x37c3b14e	2.3328375e-05
192	0x36d6490b	6.3862003e-06
193	0x388cc0c4	6.7116256e-05
194	0x37cf9be6	2.4748919e-05
195	0x37419770	1.1538956e-05
196	0x36c79cee	5.948931e-06
197	0x380b7450	3.3248507e-05
198	0x387ca106	6.0231447e-05
199	0x377fd7e3	1.52494495e-05
200	0x383d5501	4.5140278e-05
201	0x38894d6b	6.547089e-05
202	0x38528560	5.0192117e-05
203	0x38a7c978	8.000707e-05
204	0x3817e046	3.6210076e-05
205	0x375f6740	1.3315876e-05
206	0x37faddc8	2.9905597e-05
207	0x37e925b4	2.7793321e-05
208	0x38a3acdf	7.8046454e-05
209	0x390203d7	0.00012399197
210	0x38250883	3.9346993e-05
211	0x381112bb	3.4588138e-05
212	0x3746f91f	1.1859723e-05
213	0x37881108	1.6220394e-05
214	0x38890607	6.533792e-05
215	0x38bf825e	9.1318725e-05
216	0x37e0b4bd	2.6787044e-05
217	0x38423615	4.6303572e-05
218	0x38abb791	8.188107e-05
219	0x386dae66	5.6667624e-05
220	0x38863cd0	6.400945e-05
221	0x37a79f5a	1.9982155e-05
222	0x3882b2d3	6.232192e-05
223	0x3886cf05	6.428178e-05
224	0x371d149e	9.3627295e-06
225	0x38b8dedd	8.815315e-05
226	0x3802e875	3.1210908e-05
227	0x3783420d	1.5647174e-05
228	0x37182325	9.068089e-06
229	0x38799279	5.950264e-05
230	0x38cc0219	9.727869e-05
231	0x37a4b5e0	1.9635016e-05
232	0x385ff431	5.3394764e-05
233	0x38c04c29	9.1694594e-05
234	0x3885ee88	6.386364e-05
235	0x38c04af4	9.1692345e-05
236	0x385410ea	5.056049e-05
237	0x37a6975d	1.9859226e-05
238	0x382f1111	4.1739146e-05
239	0x38275024	3.989054e-05
240	0x38fcad0e	0.0001204853
241	0x39152903	0.00014225025
242	0x38749fec	5.8323072e-05
243	0x388010bd	6.1066334e-05
244	0x378efa7c	1.704436e-05
245	0x37cf9f75	2.4750576e-05
246	0x38921e5e	6.967479e-05
247	0x38d9edeb	0.00010391682
248	0x381d1067	3.7446993e-05
249	0x3875c9b3	5.86004e-05
250	0x391d2df2	0.00014989803
251	0x388c7bd0	6.698782e-05
252	0x38a898dc	8.0393365e-05
253	0x37d0b862	2.4881392e-05
254	0x38e49142	0.000108989436
255	0x38b1b270	8.473254e-05

exp_avg f4 [32]
0	0x36f2d547	7.2369908e-06
1	0x39de120d	0.00042356589
2	0x3a98dcf7	0.0011662532
3	0xb73d80bf	-1.1295254e-05
4	0x3916a99e	0.00014368302
5	0xb815a29f	-3.567582e-05
6	0x39eb5f97	0.00044893913
7	0x3a497eaa	0.0007686416
8	0x38d4fc95	0.00010155995
9	0xb8b42886	-8.590617e-05
10	0x38ea46b3	0.00011171158
11	0xb88380b9	-6.270543e-05
12	0x3a7a0465	0.0009537398
13	0xb89c1f1f	-7.4444564e-05
14	0x3a52174a	0.00080143346
15	0xb96d8851	-0.00022652863
16	0x38f11f8f	0.00011497654
17	0x394f7abf	0.00019786785
18	0xb97085dc	-0.0002293805
19	0x3956463c	0.00020434795
20	0x3887254a	6.444247e-05
21	0xb906f6f6	-0.00012871236
22	0xb92ec3da	-0.00016666893
23	0x3831e924	4.2417218e-05
24	0x3a96b20c	0.0011497154
25	0xb8d77b67	-0.000102749844
26	0xb932eccd	-0.00017063618
27	0xba26f9ca	-0.0006369619
28	0x3903eb75	0.00012580848
29	0x3a3e0153	0.0007248122
30	0xba279032	-0.0006392031
31	0x38a6f7a4	7.9616235e-05

exp_avg_sq f4 [32]
0	0x396b4e23	0.00022440455
1	0x39b985b8	0.00035385578
2	0x39eeee97	0.0004557266
3	0x38bb5cbe	8.9341294e-05
4	0x38c949d6	9.59818e-05
5	0x3939c382	0.00017715807
6	0x39c6f7f3	0.0003795024
7	0x3a10530e	0.000550554
8	0x3915126d	0.00014216611
9	0x38a3e732	7.815509e-05
10	0x39c315d7	0.0003720957
11	0x383bf366	4.4810957e-05
12	0x399fac2c	0.0003045512
13	0x39d0cd5b	0.00039825853
14	0x3988f927	0.00026125574
15	0x382ca69b	4.116316e-05
16	0x37386330	1.09903485e-05
17	0x386a8cab	5.5920955e-05
18	0x388f5a76	6.835621e-05
19	0x38e3c893	0.00010861563
20	0x38c16106	9.221029e-05
21	0x37272c93	9.964354e-06
22	0x3871f6fc	5.76889e-05
23	0x3738aaa0	1.1006981e-05
24	0x39f2ecb8	0.00046334206
25	0x378bf349	1.668338e-05
26	0x398dbf2d	0.00027036053
27	0x38c77418	9.5106836e-05
28	0x3880c052	6.139338e-05
29	0x38a3da02	7.813053e-05
30	0x393aa9e3	0.0001780163
31	0x394db0e8	0.00019616226

exp_avg f4 [1, 32]
0	0xba9efc83	-0.0012129698
1	0x3b65b5ed	0.0035051063
2	0x3b80f853	0.0039358526
3	0xbae0874c	-0.0017130165
4	0x39e03d10	0.00042770104
5	0xbaad14b1	-0.0013205019
6	0x3b2ba43f	0.0026190428
7	0x3b567ca6	0.0032728105
8	0x3aadf6ec	0.0013272441
9	0xba269934	-0.00063552265
10	0x3b5c0495	0.0033572067
11	0x39313447	0.0001689951
12	0x3b1c93e7	0.0023891868
13	0x3b9207b4	0.0044564847
14	0x3b15ca74	0.0022856267
15	0xba720296	-0.0009231953
16	0xb9a96e01	-0.0003231615
17	0xba2073b4	-0.0006120757
18	0xba7c677a	-0.00096284563
19	0xba3cb111	-0.0007198016
20	0xba33773e	-0.00068460766
21	0x394da8c3	0.00019613192
22	0xb8ec7bf1	-0.00011276443
23	0xba2bdf8a	-0.0006556442
24	0x3b20af36	0.0024518496
25	0xba8848f7	-0.0010397722
26	0xbac03c52	-0.0014666414
27	0x3ad1a943	0.0015995878
28	0xba86b10b	-0.0010276152
29	0xb8f6ba32	-0.00011764876
30	0x3a5248c3	0.00080217066
31	0xba488333	-0.0007648945

exp_avg_sq f4 [1, 32]
0	0x3b1ae5c8	0.0023635495
1	0x3b04d8d2	0.0020270837
2	0x3b9e7767	0.004836011
3	0x3b1108e4	0.0022130543
4	0x3aa00667	0.0012208939
5	0x3a9b3f15	0.0011844361
6	0x3aab8e77	0.0013088722
7	0x3b28a2d1	0.0025731812
8	0x3a680dca	0.00088521524
9	0x3b067b09	0.0020520112
10	0x3b06f328	0.002059171
11	0x3a8f0f9f	0.001091469
12	0x3af03c5a	0.0018328533
13	0x3b16e326	0.0023023575
14	0x3a7fe428	0.0009761476
15	0x3b00cfcb	0.0019655104
16	0x399ecb04	0.00030287367
17	0x3aa1d433	0.0012346565
18	0x3add834a	0.0016900089
19	0x3a5a9855	0.0008338739
20	0x3acdd244	0.0015702923
21	0x3a451b7a	0.0007519048
22	0x3ac60def	0.0015110354
23	0x39b4d142	0.00034488185
24	0x3ad359fc	0.001612484
25	0x3aa83c4c	0.0012835353
26	0x3b186838	0.0023255479
27	0x3a11355d	0.0005539263
28	0x3b24b2c9	0.0025130978
29	0x3a51d4b4	0.00080044125
30	0x39dfd732	0.00042694208
31	0x3a14dfeb	0.00056791183

exp_avg f4 [1, 32]
0	0x3aed5298	0.001810628
1	0x397efb43	0.0002431693
2	0x3a599e15	0.0008301449
3	0xb9a86709	-0.00032120224
4	0x3a176aea	0.00057761243
5	0xb8d82c48	-0.00010307931
6	0x373edc7c	1.1376218e-05
7	0x389c7341	7.4601274e-05
8	0xbacec282	-0.001577452
9	0xbaa284dd	-0.0012399215
10	0xba1a72ac	-0.0005891721
11	0x38e7a53d	0.000110457164
12	0x39a2d0e4	0.00031054683
13	0xba13e5ba	-0.0005641837
14	0x39f1394a	0.00046009786
15	0xba9b93a0	-0.0011869557
16	0x38b31a47	8.54028e-05
17	0x3aa28ca0	0.0012401529
18	0x3a748828	0.000932815
19	0xb93ba80f	-0.00017896316
20	0xba45449e	-0.00075251784
21	0xb8f343e0	-0.00011599786
22	0x3a201911	0.0006107251
23	0xb9accaa4	-0.00032957376
24	0x3934e1be	0.00017250233
25	0x3a16e807	0.00057566207
26	0x3990a5d9	0.00027589386
27	0x3a1c9810	0.0005973587
28	0xb93ab8ba	-0.00017807158
29	0xb9c91d91	-0.00038359736
30	0x39f8e490	0.00047472538
31	0xb8d9380a	-0.000103578044

exp_avg_sq f4 [1, 32]
0	0x39951826	0.00028437487
1	0x3a4adf30	0.0007738946
2	0x3b121c51	0.002229471
3	0x398ab127	0.000264534
4	0x3a519de1	0.0007996243
5	0x393a3820	0.0001775925
6	0x39f06c94	0.00045857264
7	0x3a81e376	0.0009909708
8	0x3a32584a	0.0006803317
9	0x3a3cb140	0.0007198043
10	0x3a2e0045	0.00066376134
11	0x39e2bc85	0.00043246537
12	0x3a5532c7	0.00081328716
13	0x3a336055	0.00068426627
14	0x39aefabc	0.00033374678
15	0x39d3e5f9	0.000404164
16	0x398a0b74	0.00026329944
17	0x3a0b33f3	0.000531017
18	0x3a1854aa	0.0005810956
19	0x39843c2d	0.00025221836
20	0x3a306a8e	0.0006729745
21	0x39a1e434	0.00030878338
22	0x3a87167b	0.0010306382
23	0x380befc6	3.336349e-05
24	0x3a4db15c	0.0007846558
25	0x39184f1d	0.00014525322
26	0x399ac7d5	0.00029522055
27	0x398af638	0.00026504858
28	0x3a9ae30a	0.001181693
29	0x3ab2f5d5	0.0013653586
30	0x39e191b3	0.000430239
31	0x39ce05fa	0.00039295835
