omniisaacgymenvs/runs/Cartpole/nn/last_Cartpole_ep_50_rew_478.66077.pth (torch, 29535 bytes, 24 tensors)

value_mean_std.running_mean f8 [1]
000000 48 78 6d a0 73 cf 15 40
       5.452589518243322

value_mean_std.running_var f8 [1]
000000 51 bf 1c ef 7a e4 22 40
       9.446250412234493

value_mean_std.count f8 []
000000 00 00 00 00 02 00 29 41
       819201.0

running_mean_std.running_mean f8 [4]
000000 82 86 58 b7 b6 21 c9 bf fb 6b 25 1d 56 52 b2 bf
       -0.19634136154586562 -0.07156885348869928
000010 65 c0 79 0d c7 bd 68 bf b2 3a 27 d1 8a be a2 3f
       -0.0030201804873329235 0.036609972030068674

running_mean_std.running_var f8 [4]
000000 aa ce 73 9e 20 90 f7 3f a9 64 39 7c 22 c2 01 40
       1.47268735785921 2.2197923378958717
000010 ce 3b 5a ed 52 b4 c0 3f 2d 6d dc 37 6e bd fb 3f
       0.13050304975010224 1.7337476903983984

running_mean_std.count f8 []
000000 00 00 00 00 04 00 19 41
       409601.0

a2c_network.actor_mlp.0.weight f4 [32, 4]
000000 b8 39 ca bc e5 ad 8b bc 39 7a f1 bd ed 94 c6 3e
       -0.024685726 -0.017050693 -0.1179089 0.38785496
000010 10 83 78 3e 44 f9 6b be 0f 79 42 3f 66 28 0f 3f
       0.24268746 -0.23044306 0.7596597 0.5592102
000020 60 8a 2b 3e f0 28 33 bd 79 04 22 3f 96 9b 4b 3e
       0.16752005 -0.043740213 0.63288075 0.1988357
000030 d5 10 54 3e f7 3b 55 be 5d 1c 08 be ba e8 57 3e
       0.20709546 -0.20823656 -0.1329207 0.21084872
000040 c9 dd 55 bd 44 8e 9d bd 9f 29 04 be 40 f3 cc 3e
       -0.052213464 -0.07693151 -0.12906502 0.40029335
000050 7d 32 3b be 5a cd 5a be b9 8c 21 3e 9a 1e 9a bd
       -0.18280979 -0.21367398 0.15776338 -0.07525368
000060 b7 8d 87 3e f2 b8 d6 be 39 bc d2 3e 9c b7 e6 be
       0.26475307 -0.41937977 0.41159227 -0.45061958
000070 57 15 39 3e ef 3c 66 be a6 01 d3 bd 43 4d 6e 3e
       0.18074547 -0.22484182 -0.10303049 0.2327166
000080 13 70 07 3e 28 8b e8 3e cd a6 9d bc b6 a5 c6 bd
       0.13226347 0.45418668 -0.019244576 -0.096995756
000090 4c 44 99 bc 04 d0 ec bd 14 82 ff 3e 19 09 42 3f
       -0.018709324 -0.11563113 0.4990393 0.7579513
0000a0 fa e5 a8 bd 3b 14 c3 be 73 d3 0f 3f ee 3f bb 3e
       -0.082469895 -0.38101372 0.5618202 0.36572212
0000b0 2b 02 8e 3e cb 70 7c 3e 81 7e 47 bf 1b 1b a0 be
       0.2773603 0.24652402 -0.77927405 -0.3127068
0000c0 9a 62 08 be 37 5c 19 3f 71 c2 73 3d 0b 42 10 3e
       -0.13318864 0.59906334 0.059511606 0.14087693
0000d0 eb e5 2b 3e b0 87 a7 bd ff e6 9d 3e c0 88 e9 be
       0.16786925 -0.08180177 0.308403 -0.45612144
0000e0 f3 87 96 be 77 1e 98 be cb 53 83 3d e1 3b d8 bd
       -0.29400596 -0.29710743 0.064124666 -0.10558296
0000f0 c0 79 35 3e 2d b5 36 be 36 b3 bd 3e aa c1 b0 be
       0.17722225 -0.1784255 0.3705079 -0.34522754
000100 52 48 bd be d6 5b e1 be c7 5d 47 3f 7e d2 17 3f
       -0.3696924 -0.44015378 0.7787747 0.5930556
000110 64 78 d0 3e d4 01 2b 3c 59 4e 42 bf 11 d3 19 bf
       0.4071685 0.010437448 -0.759008 -0.60087687
000120 fb 6e d2 be 95 21 27 3d 36 0c c6 3e d8 55 fb 3e
       -0.41100296 0.04080351 0.3868119 0.4908893
000130 b1 18 35 bd 8a d2 a8 be 9b d5 90 3e ab ce 3e be
       -0.044213 -0.3297313 0.28287968 -0.18633525
000140 c2 18 3a 3e a9 5b 2c bd 8d a9 84 3e ce fa 93 be
       0.18173507 -0.0420796 0.25910607 -0.28902286
000150 3a a4 57 be e3 f8 1f 3e 35 23 4c 3e 91 1c 96 bd
       -0.21058741 0.15622286 0.19935305 -0.07329667
000160 fd b4 5a 3e 90 c4 14 3f 24 64 cd be 51 05 cc be
       0.21358104 0.5811243 -0.40115464 -0.39847806
000170 6f 08 c8 3e bd c2 97 3e 5d f2 f2 be 5f 4e 32 bf
       0.39068934 0.2964076 -0.47450534 -0.69650835
000180 36 e5 9f be 89 1e 88 3e 02 2d 4a 3e ba 68 03 be
       -0.31229562 0.26585796 0.19743732 -0.12832919
000190 c8 ca 88 bd ae f5 08 be a0 a3 ed be 50 bb a7 be
       -0.066793025 -0.1337497 -0.46413898 -0.32760096
0001a0 e2 cf 03 bf 83 88 ff be de d1 07 3f 35 e0 17 3e
       -0.5148908 -0.49908838 0.53054607 0.14831622
0001b0 39 df 81 3b e4 5f dc bd 6e e2 1c bf 61 4d bc be
       0.003963378 -0.10760477 -0.61283004 -0.36777785
0001c0 cd 4e c5 bd 3d a6 11 be f4 29 e7 be 36 96 dd be
       -0.09634171 -0.14223571 -0.45149195 -0.43278664
0001d0 96 07 19 3d 10 8c 86 bc 20 58 df 3d 3c 27 ec bd
       0.03736075 -0.016424209 0.109054804 -0.11530921
0001e0 09 4e f4 be e7 e6 f3 be d9 b9 4b 3e c5 5c a7 bc
       -0.47715786 -0.47637102 0.19895114 -0.020429978
0001f0 b6 19 98 3e 45 d9 d7 39 c0 9b 2f 3f 93 cb 01 3f
       0.29707116 0.00041169874 0.6859703 0.50701255

a2c_network.actor_mlp.0.bias f4 [32]
000000 5e a5 de 3d b4 0a 7a be 44 b8 0b be e0 2a a4 3d
       0.10871385 -0.24418145 -0.1364451 0.0801599
000010 be b7 c4 3d ad 00 5d 3e 16 14 93 3e b9 57 ca bd
       0.096053585 0.21582289 0.28726262 -0.09880013
000020 62 3f 52 3e 60 5e 91 be f9 24 8c be b0 54 3f be
       0.20531991 -0.28392315 -0.27371958 -0.1868465
000030 8c 02 c8 bc 82 34 47 3c a7 b7 58 be 00 7e 31 3e
       -0.024415277 0.012158515 -0.21163808 0.17333221
000040 f2 ba 4c be d1 48 86 be 3c 26 91 bd bd 36 57 3e
       -0.19993189 -0.2622743 -0.07087371 0.21016975
000050 4f 65 85 bd 78 6e 22 3e 3b e7 37 be bb 4b 4f be
       -0.06513464 0.15862453 -0.17959301 -0.20243733
000060 e7 54 55 3e c8 08 d8 3d a8 d7 5a 3e 8c 38 ed bd
       0.20833169 0.1054855 0.21371329 -0.11583051
000070 08 09 7b be 01 ee 03 3e 62 f9 86 3e 97 68 84 be
       -0.24515164 0.1288376 0.2636214 -0.25861046

a2c_network.actor_mlp.2.weight f4 [32, 32]
000000 b7 3d 8d 3e 05 28 e4 bd 36 2f 0d be 63 c8 ea 3d
       0.27586147 -0.111404456 -0.13787541 0.11464002
000010 d6 d0 3c 3e 95 74 5e 3d 94 5f 55 be 5e 87 c0 bd
       0.1843904 0.0543104 -0.20837241 -0.09400819
000020 a7 61 85 3d 32 97 77 3c 83 8b 19 be 6d 65 61 bd
       0.06512766 0.015111731 -0.14994626 -0.055028368
000030 e1 36 09 39 de 75 b2 bd ec ed b1 3d 1a 91 c3 be
       0.00013085782 -0.08713888 0.08687958 -0.3819664
000040 1d 54 23 3e 4e b6 98 3d 7c 51 e7 3d 64 05 01 bd
       0.15950055 0.07456647 0.11294839 -0.03149928
000050 4b aa 8b 3d 30 74 5a 3e f7 a8 58 3d d1 15 80 bd
       0.0681959 0.21333385 0.052895512 -0.06254161
000060 70 8c f3 3d 1d fb 68 bc 6c 66 50 3d 36 2e d5 bd
       0.11892021 -0.014220026 0.050878927 -0.10409205
000070 03 79 ee 3d 7c 5d 2f 3e 3b 19 29 3e 9f 2d af bd
       0.11644175 0.17125505 0.16513531 -0.085536234
000080 9f fd e9 3d f0 14 07 be ba 39 56 3d ba 85 48 3c
       0.114253275 -0.13191581 0.052301146 0.012238914
000090 62 88 81 bd ae 10 37 be b1 49 02 3e b6 3c 36 3d
       -0.06324841 -0.17877457 0.12723424 0.044491492
0000a0 66 38 07 be a8 90 9f be ac 4d 85 be c5 d7 cc be
       -0.13205108 -0.3116505 -0.2603582 -0.4000837
0000b0 3c 4d 8d bd b1 f0 9c bc 95 e4 a5 3d b9 fd a3 3d
       -0.06899497 -0.01915774 0.08100239 0.08007378
0000c0 f2 71 bf be 46 96 a9 be 68 45 ff bd c5 91 f1 3d
       -0.3739162 -0.33122462 -0.1246441 0.117953815
0000d0 79 4a 14 bc be fa 28 be ba 23 68 be 01 be 93 be
       -0.009050959 -0.165019 -0.22669879 -0.288559
0000e0 a2 37 7f be 68 6a 9f 3c c1 d5 7b be 3b 36 34 be
       -0.24923566 0.019459918 -0.2459326 -0.17598812
0000f0 d4 79 bb be 70 ab 80 3d 35 44 5c bc bc 62 8c bd
       -0.36616385 0.06282699 -0.013443996 -0.068547696
000100 4a 97 18 be 82 a3 e2 be 37 67 1d be f0 d3 7f 3e
       -0.14901462 -0.44265372 -0.15371405 0.24983191
000110 3e 7d 73 3d 60 2d b1 3c 46 1f 79 3e 1e ee e0 3d
       0.059445612 0.021628082 0.24328336 0.10982917
000120 7f 52 e0 bd 9c c7 f3 be dc 99 ef be fd c7 be be
       -0.10953235 -0.47613227 -0.46797073 -0.37261954
000130 33 14 dc bd be fc 1d bd 9e 82 c8 bd 6d 87 47 bd
       -0.1074604 -0.03857111 -0.09790538 -0.048713136
000140 1b fa e6 be 63 01 a8 be f0 cf be be f8 ee 8b 3d
       -0.4511269 -0.32813558 -0.3726802 0.06832689
000150 1b 5d 7b 3d 3f 33 02 be 97 20 93 be 33 09 a0 be
       0.06136809 -0.12714861 -0.28735802 -0.31257018
000160 aa a1 6f be 6c a7 0a be f0 4c a9 be 0a be 8d be
       -0.23401514 -0.13540429 -0.3306651 -0.2768405
000170 c9 92 be bd f8 4f f0 bd 64 e4 74 bd 0b 96 2f be
       -0.09305341 -0.11734003 -0.059788123 -0.1714708
000180 af e4 4a 3e be 60 6b be 46 a7 9a 3d b7 c5 92 bd
       0.19813798 -0.22986123 0.07551436 -0.07166617
000190 39 4f b9 3d cd 41 6e 3e 70 11 14 be 78 82 6a bd
       0.09048314 0.23267289 -0.14459777 -0.05725333
0001a0 88 a9 18 bd fc cc 21 be ed 87 33 bb 7f 9f d9 bd
       -0.037271053 -0.15800852 -0.002739425 -0.106261246
0001b0 85 e5 26 3e e7 10 1a 3d 97 19 c3 3d 07 0d 49 be
       0.16298492 0.037613776 0.09526365 -0.19633876
0001c0 bb 2d 39 be 4b c1 98 3d e4 1c 43 3d 60 50 66 be
       -0.18083851 0.07458743 0.047634974 -0.22491598
0001d0 ee 83 a7 3b dd f6 d0 bd d0 6c 94 3c 46 f1 86 bd
       0.005112163 -0.102033354 0.018118292 -0.06588988
0001e0 09 04 f2 3b 9f 43 81 bd 72 7f 82 be b4 2c 18 3e
       0.007385735 -0.06311726 -0.25487858 0.14860803
0001f0 e0 b9 4c 3e 38 ad 2f bc 55 84 19 3d c2 4c e3 bd
       0.1999278 -0.010722451 0.037479717 -0.11098625
000200 34 5c 59 be 95 bc a3 be a9 dc 4a 3d 31 74 05 be
       -0.21226579 -0.31979814 0.049526844 -0.13032605
000210 76 21 2f be 5a 63 d4 bd 32 b2 b8 bc eb c1 8a bb
       -0.17102608 -0.10370512 -0.022545908 -0.0042345426
000220 53 db 9c bd 10 16 8d be 1d 39 35 be a5 45 4e be
       -0.0765902 -0.27555895 -0.17697568 -0.20143755
000230 0a 50 4b be ff 6b 33 3e 50 2d 10 3d bc 8d 9e 3d
       -0.19854751 0.17521666 0.035199463 0.077418774
000240 25 7f 99 be ba 9f 93 bd 45 e1 44 3d a8 4b 1e 3d
       -0.29979816 -0.072082 0.048066396 0.03864637
000250 fd 0c ee bd a3 52 29 bb d1 11 9b 3d 65 36 95 bb
       -0.11623571 -0.002583661 0.075717576 -0.0045536035
000260 11 2c a9 3c 40 ac 01 3e 54 7d 32 be 55 3f 0d 3a
       0.020650895 0.12663364 -0.17430621 0.00053881604
000270 03 98 35 be 24 4b 15 bc 85 88 8a 3c a0 bf 98 bd
       -0.17733769 -0.009112153 0.0169108 -0.074584246
000280 a7 8f 3a bc 25 c8 47 be db df 33 be 23 26 4a be
       -0.011386788 -0.19509943 -0.17565863 -0.1974111
000290 86 eb a4 bd 29 5a f6 3c 7d a5 09 bc eb 2e cc bc
       -0.08052735 0.030072289 -0.008401272 -0.024924716
0002a0 f6 bd 2c be a2 3b 9d bd f3 40 2a 3d a4 4e be bd
       -0.1686934 -0.0767739 0.041565847 -0.09292343
0002b0 32 94 11 3d 0a 52 b0 bc 85 c7 25 be 2e 78 37 be
       0.03554172 -0.021523494 -0.16189392 -0.17916939
0002c0 bb 7a 28 3d dc 79 ec bc f3 73 80 bd 0b a1 32 be
       0.04113267 -0.0288667 -0.062721156 -0.17444246
0002d0 9b 26 22 be 94 fd 72 bd 08 e9 43 3e d8 96 c5 bd
       -0.1583504 -0.059323862 0.19131863 -0.09647912
0002e0 77 f7 20 bd 80 0d 25 3d 0c dd 57 3d 09 16 9a 3d
       -0.0392985 0.040296078 0.05270104 0.07523734
0002f0 20 b2 26 3e 8f f1 a2 3d e6 79 c9 bd 0b d5 b4 3b
       0.16278887 0.0795623 -0.098377034 0.0055185608
000300 e2 9b 7b 3d 42 8b bd bd a0 6b 41 bd 4a ba 01 3e
       0.06142796 -0.09255077 -0.04722178 0.1266872
000310 6c 90 0a bd d7 fe 16 be 28 58 b3 bc 11 df b5 3c
       -0.033829138 -0.14745651 -0.021892622 0.022201093
000320 17 6e b8 bd 70 4b 0b be 74 c2 7e bd ba 92 b4 be
       -0.09005373 -0.13602996 -0.062197164 -0.35268193
000330 a7 38 89 be fb 63 16 3d 31 7f 0b 3e 0d 84 23 3e
       -0.26801035 0.036716443 0.13622738 0.15968342
000340 e2 c4 a2 be 86 c7 61 be 37 ac 55 be 3f 6d d3 bb
       -0.31790835 -0.22048768 -0.20866476 -0.006452232
000350 84 b9 9d 3d e4 d0 54 bc 32 df 4c bd 0d e2 b1 be
       0.077014 -0.0129892565 -0.050017543 -0.34742776
000360 13 60 41 bc 5d 4a 6f be 27 bf c4 bc 68 ab 02 bc
       -0.011802691 -0.23368211 -0.02401693 -0.007975437
000370 a8 1d 57 be d7 7e da 3d 65 23 72 be de 44 1e be
       -0.21007407 0.10668724 -0.23646314 -0.15455958
000380 d8 5d db 3d 4c 7d 3e be ad 88 8b 3b 69 fb 40 3d
       0.10711259 -0.18602484 0.0042582364 0.047114763
000390 6e bb 9a 3d f5 b6 13 bd 25 b0 ff 3d 42 ef 0e bd
       0.075552806 -0.036063153 0.12484769 -0.034896143
0003a0 9a 29 28 be 3d 63 6f be 8a 1f 15 be 72 98 91 be
       -0.1642212 -0.233777 -0.14562812 -0.2843662
0003b0 18 bb f1 bd d2 75 0b 3e 4e 21 3a bc 93 11 b5 3d
       -0.118032634 0.13619164 -0.0113604795 0.08841243
0003c0 5d 2f a1 be bc ba b4 be 00 ec a5 be 5c ae 08 be
       -0.31481448 -0.35298717 -0.32406616 -0.13347763
0003d0 61 bb b6 3c 6f 7b 01 be bd 26 92 be 93 5b 6f be
       0.022306146 -0.12644742 -0.2854518 -0.23374777
0003e0 31 d0 b1 3b 3f 95 1a bc d7 57 cd bd d4 24 44 be
       0.0054264297 -0.009434997 -0.1002652 -0.19154674
0003f0 b9 1d 7c be 4e 17 a2 3d 5d 02 8e be fa 88 80 be
       -0.24620713 0.07914601 -0.27736178 -0.25104505

a2c_network.actor_mlp.2.bias f4 [32]
000000 ac 4d 42 be 9c ab e7 3d 93 67 3f 3e f5 4b 53 be
       -0.18974942 0.11312029 0.18691854 -0.20634444
000010 51 53 e5 3d be bc 4c be 21 75 0d 3e 7f 54 07 3e
       0.11197532 -0.19993874 0.13814212 0.13215826
000020 c1 c2 96 3d fb ba 43 be fc bb 15 3e 4d 22 1e 3e
       0.07361365 -0.19114296 0.14622492 0.15442772
000030 8a ce c4 3d 8e 86 30 3e 9f c6 05 3e 5a 1e 5b be
       0.09609707 0.17238829 0.13064049 -0.21398297
000040 7d 5d 08 be bf 9b a4 3d a4 c4 ad 3d 95 bd 2f 3e
       -0.13316913 0.08037519 0.08484772 0.17162164
000050 88 6f 6a be c5 5d f9 bd 5d da 25 3e 1a dd 1f be
       -0.22894108 -0.12176088 0.1619658 -0.15611687
000060 d3 48 e3 3d 26 fe 3b 3e 8f 8b 46 be a6 4f fd bd
       0.110978745 0.18358669 -0.19389175 -0.12368707
000070 0e 7d 83 be ed fc 94 3d e5 9a b4 bd cf 64 3a be
       -0.25681347 0.07274804 -0.08818606 -0.18202518

a2c_network.value.weight f4 [1, 32]
000000 c9 3b 0b be 0d ba 7d 3e f7 73 83 3e 71 76 e9 bc
       -0.13597025 0.24778004 0.25674412 -0.02849886
000010 f1 eb 37 bd c9 d0 09 bd 6b 59 60 3e fd 31 8f 3e
       -0.044902746 -0.03364638 0.2190911 0.27967826
000020 5b 95 f2 bd c7 07 82 bd 0c 28 4b 3e 39 36 b3 bd
       -0.118448935 -0.0634914 0.19839495 -0.087505765
000030 62 a2 0e 3e ed cf 39 3e 02 b6 17 3e 4f 34 07 bd
       0.13929132 0.18145724 0.14815524 -0.03300887
000040 c1 57 13 3d be 74 24 3d c5 36 0b be f9 75 5c 3d
       0.03597236 0.040150397 -0.13595112 0.053823445
000050 66 3a 86 bd 72 2a e7 bc 30 e9 03 be 36 8f e9 bb
       -0.06554107 -0.028218482 -0.12881923 -0.007127668
000060 53 e4 4f 3e 07 5e 44 bd 8d d8 f8 bd 8a 5e c2 bd
       0.20301943 -0.047941234 -0.12150679 -0.09490688
000070 95 f0 41 bd 6a 67 5a 3e dc 40 a2 bc 8e 8b 65 bd
       -0.047348578 0.21328512 -0.019806318 -0.056041293

a2c_network.mu.weight f4 [1, 32]
000000 e6 95 71 3d 6b b6 03 be c2 23 48 3e b1 d1 8b 3c
       0.058980845 -0.12862556 0.1954489 0.017067762
000010 5d 52 d0 3d f2 99 81 3c 26 bb af bd ff 55 ed bb
       0.101719595 0.015820477 -0.085806176 -0.0072429175
000020 ff 5d 38 3e c7 36 a9 3d 26 ca 5d be c0 a2 3f 3d
       0.18004607 0.08262401 -0.21659145 0.04678607
000030 68 8c 81 3e 70 7e 90 be 0b 03 1d 3e 34 45 1c bd
       0.25302434 -0.28221464 0.15333192 -0.038151935
000040 e4 41 41 3d e8 60 94 3d 16 d9 48 3d 64 76 4b bc
       0.04718198 0.07245046 0.049035154 -0.012418363
000050 1b c9 25 3e e8 b2 1c 3d 6f 38 04 3d 88 59 b9 3b
       0.16189997 0.038256556 0.03228038 0.005656425
000060 58 85 7f 3e 23 c1 aa 3c 59 a9 c6 3d 97 12 32 be
       0.2495321 0.020844048 0.09700269 -0.17389904
000070 af 75 f3 3d 4b a6 9b bd 3c ce 99 be 9e 70 d7 3d
       0.11887681 -0.07600077 -0.30040157 0.10519527

exp_avg f4 [32, 4]
000000 1f dc 1f ba 36 ec eb 38 0c 48 a4 b9 99 44 f0 39
       -0.0006098169 0.00011249671 -0.00031334197 0.00045827476
000010 48 e7 31 b9 a1 2c 88 ba 38 48 30 3a f1 be b3 38
       -0.00016966194 -0.0010389277 0.00067246286 8.570951e-05
000020 23 ef 1f b8 84 28 54 3a ac 30 5e b9 65 b7 b6 39
       -3.8131268e-05 0.00080931955 -0.00021189702 0.00034850385
000030 7c 80 1d 3a c0 22 c4 39 f6 57 56 b9 31 6b c6 37
       0.00060082204 0.00037409924 -0.00020441398 2.3653354e-05
000040 ba 5a e3 b8 6c 1a a4 38 0a b6 8a b9 9f 7e ab 39
       -0.000108411026 7.825051e-05 -0.0002645704 0.00032710002
000050 f9 f8 d1 b9 c0 43 28 b9 50 6a cc 38 ec 69 95 b8
       -0.00040049086 -0.00016046967 9.74728e-05 -7.124603e-05
000060 8e 04 75 3a 2c 89 8b 3a f4 fd f9 b9 2c 10 51 b9
       0.0009346687 0.0010645739 -0.0004768219 -0.00019937818
000070 89 5b c7 b7 f8 ff 86 38 05 ee 16 b9 07 7b c4 37
       -2.3765273e-05 6.437296e-05 -0.00014393784 2.342231e-05
000080 8d 22 c0 ba 15 0f a5 b9 5d 66 32 37 a4 98 87 39
       -0.0014658734 -0.0003148249 1.063346e-05 0.00025862933
000090 78 a1 63 ba 91 08 3f ba e3 0c 23 3a 7a 72 0b 3a
       -0.00086834235 -0.0007287348 0.0006219877 0.00053194875
0000a0 93 d1 34 ba 1f e8 a1 ba 4f 6b a2 3a 6d fa a1 b9
       -0.0006897684 -0.0012352503 0.00123916 -0.00030894895
0000b0 ee da e6 ba 79 ab 7e ba 97 f5 35 b9 8a 9f 34 39
       -0.0017612854 -0.00097148825 -0.00017352994 0.0001722557
0000c0 90 cd ed ba 07 20 fc b9 d6 4e 64 b9 6d b3 fe 39
       -0.0018142927 -0.00048089048 -0.00021773143 0.00048580338
0000d0 a6 4d 7a 39 06 29 72 b7 79 07 17 39 53 2d cb b9
       0.00023870784 -1.4433876e-05 0.00014403266 -0.00038752946
0000e0 cd f9 56 b9 4d a9 72 b9 e0 ba ad 39 5f 48 78 b9
       -0.00020501688 -0.00023141988 0.00033136364 -0.00023678083
0000f0 1a 14 11 3a fc 8f 2c 39 d8 80 4b b8 cc 01 25 b9
       0.00055343064 0.00016456837 -4.8518967e-05 -0.00015736296
000100 8b 61 07 bb 01 4b b3 ba 7d db 09 3b 1b 78 41 ba
       -0.0020657505 -0.0013678969 0.0021035366 -0.0007380263
000110 6e 02 bf ba 3e 26 b8 ba 72 b7 b5 39 a5 03 3e ba
       -0.0014572868 -0.0014049483 0.00034659688 -0.0007248468
000120 17 d1 61 bb 68 aa be b8 7e 68 2e b9 12 f1 02 3a
       -0.0034456903 -9.091647e-05 -0.0001663286 0.0004995029
000130 c0 d3 0a b9 dc 05 c7 b9 3d 00 c6 38 1c 48 14 38
       -0.00013239589 -0.00037960603 9.44142e-05 3.5353107e-05
000140 71 76 e3 39 ba 93 d7 39 c9 ca 34 b9 4d c2 9d b8
       0.0004338506 0.0004111806 -0.00017241681 -7.522535e-05
000150 40 c8 99 ba a9 62 30 b9 9d a4 ac 38 fb 88 ee 37
       -0.0011732653 -0.00016821422 8.232261e-05 2.8435597e-05
000160 79 d7 f5 ba a7 c6 8c ba 3e ef 99 b9 7d 9d 97 b5
       -0.0018756232 -0.0010740355 -0.00029360683 -1.1296212e-06
000170 9c 0e 07 bb 64 e0 fe ba e8 60 dd 38 05 c6 09 ba
       -0.0020608073 -0.0019445536 0.000105561514 -0.00052556425
000180 aa e9 f4 ba 8b 73 28 ba 1f 82 c9 37 6a af 82 39
       -0.001868536 -0.00064259087 2.402166e-05 0.00024926226
000190 4c f5 58 b9 0f 19 5d b9 7d ac 32 39 ef 8e 9e b9
       -0.00020690745 -0.00021085537 0.0001703966 -0.00030242602
0001a0 a6 b5 c8 ba 4b 66 f8 b9 30 59 8f 3a 9f 2f 12 ba
       -0.0015312925 -0.0004737846 0.0010936614 -0.0005576554
0001b0 76 ad 47 ba a0 ef a6 b9 76 52 60 39 41 2b d2 b9
       -0.0007617095 -0.00031840522 0.00021393024 -0.00040086548
0001c0 28 ef e1 ba 4b 56 5f b9 23 a8 c4 39 bb d9 1d ba
       -0.0017237412 -0.00021299084 0.00037509305 -0.0006021519
0001d0 cc 0b 81 b8 67 09 6f 39 37 87 98 b9 6b cc 87 39
       -6.153397e-05 0.00022796319 -0.00029092442 0.0002590151
0001e0 9a cd ae ba c0 56 54 b9 20 f3 55 3a 24 e9 20 ba
       -0.001333642 -0.00020250212 0.00081615336 -0.0006138256
0001f0 c6 28 c1 b9 eb 1b 9c ba 3f de c4 39 41 10 89 39
       -0.00036842207 -0.0011910176 0.0003754962 0.00026142786

exp_avg_sq f4 [32, 4]
000000 0e a8 5e 38 10 01 45 38 77 ff 81 38 2d fb 3e 38
       5.3085438e-05 4.696945e-05 6.1987834e-05 4.5533456e-05
000010 dc 8f 7c 39 ac 5c 54 39 51 53 36 39 a9 76 0d 39
       0.00024086185 0.00020252418 0.0001738791 0.00013491012
000020 3b d0 4a 38 f6 f0 75 38 66 8a c0 37 54 61 a4 37
       4.8354483e-05 5.8636964e-05 2.295263e-05 1.9595645e-05
000030 84 9f 2b 38 65 7d 11 38 b9 bd b3 38 b3 2c 87 38
       4.0918138e-05 3.4687477e-05 8.570724e-05 6.4456275e-05
000040 99 28 d0 37 d8 1a aa 37 54 87 c5 37 23 e6 90 37
       2.4814437e-05 2.027808e-05 2.3547247e-05 1.7273303e-05
000050 21 81 9a 37 40 6e 1d 37 ee 86 38 37 9f 3f 1f 37
       1.8418361e-05 9.383599e-06 1.099867e-05 9.4919515e-06
000060 fe 06 82 39 01 32 1c 39 74 c5 a2 39 ff 64 81 39
       0.00024800742 0.00014895947 0.00031046162 0.00024680045
000070 3d 33 f5 37 22 65 9e 37 b3 11 6f 37 ff cd 63 37
       2.9230136e-05 1.8882161e-05 1.4249631e-05 1.3578217e-05
000080 c3 73 e6 38 74 06 9b 38 4d 65 c3 38 c0 6a bc 38
       0.00010988817 7.392178e-05 9.317193e-05 8.984422e-05
000090 ef 93 ca 39 64 a9 c0 39 4e 39 ba 39 95 3a 81 39
       0.00038638661 0.000367473 0.0003551938 0.00024648444
0000a0 14 38 95 39 1a 40 4e 39 17 a7 0e 39 c5 17 d5 38
       0.00028461276 0.0001966957 0.00013604421 0.00010161059
0000b0 5e e6 bd 39 3b ac a4 39 54 bb 98 39 c4 37 7b 39
       0.00036220526 0.0003140884 0.0002913127 0.00023958
0000c0 8e ec 50 38 b2 35 3d 38 22 37 c5 37 31 4d b3 37
       4.9811373e-05 4.511112e-05 2.3509903e-05 2.1374408e-05
0000d0 2c db 2d 38 b3 75 2d 38 4f c3 b8 38 b4 26 89 38
       4.1450534e-05 4.135603e-05 8.810183e-05 6.539878e-05
0000e0 07 90 34 38 17 d5 c7 37 47 3e b8 37 63 e5 95 37
       4.304948e-05 2.3821876e-05 2.196351e-05 1.7869e-05
0000f0 10 92 d2 38 05 e2 4a 38 0c 6b 35 39 0f 63 18 39
       0.000100407866 4.837105e-05 0.00017301383 0.00014532752
000100 2c 56 3f 3a 92 f8 06 3a 71 f0 99 39 7e ed 64 39
       0.00072989124 0.0005148734 0.00029361577 0.00021832247
000110 75 17 dc 39 d5 98 d3 39 fd f9 cb 39 67 7c 90 39
       0.00041979147 0.00040358925 0.00038905433 0.00027558507
000120 4c e8 85 39 a6 35 60 39 ad 25 b8 38 19 66 81 38
       0.00025540811 0.0002138229 8.7808214e-05 6.1702165e-05
000130 31 67 03 38 25 90 80 37 ff c8 46 38 e7 f7 2a 38
       3.132894e-05 1.5325912e-05 4.739407e-05 4.0762035e-05
000140 c7 00 27 37 5d e8 43 37 fe 78 18 37 d6 02 01 37
       9.954157e-06 1.1677007e-05 9.088077e-06 7.6896595e-06
000150 d5 12 0b 38 4b 80 bc 37 9c 3f a3 37 0a 8e af 37
       3.315772e-05 2.2471088e-05 1.9460735e-05 2.0927768e-05
000160 5a cd 78 39 1e 1a 94 39 2c f2 0f 39 a2 9e 04 39
       0.00023727622 0.0002824822 0.00013727759 0.00012647596
000170 66 0c ed 39 cd 7f e7 39 7c 0d c2 39 17 20 91 39
       0.000452134 0.00044154972 0.0003701261 0.00027680464
000180 3b 14 c3 38 92 bd 8d 38 11 d2 05 38 e6 49 06 38
       9.302093e-05 6.758714e-05 3.190531e-05 3.2016913e-05
000190 53 80 45 38 af fb 08 38 56 b0 23 38 48 c8 ed 37
       4.708797e-05 3.2659325e-05 3.9026454e-05 2.8345865e-05
0001a0 b2 1d f3 38 a6 62 a6 38 a5 86 12 38 c8 d0 d1 37
       0.00011592674 7.9338715e-05 3.493451e-05 2.5011963e-05
0001b0 5e a5 19 39 59 39 f3 38 ed 1a d3 38 20 32 9f 38
       0.00014652821 0.00011597825 0.00010066279 7.591047e-05
0001c0 a4 15 f4 39 f0 32 9a 39 68 bc f8 39 70 9e b7 39
       0.0004655543 0.0002941112 0.0004744262 0.00035022525
0001d0 12 cd 92 37 97 87 6b 37 34 96 51 37 36 27 f4 36
       1.750005e-05 1.4038661e-05 1.2492343e-05 7.2763314e-06
0001e0 e8 df f2 38 e3 94 a4 38 59 84 fe 37 ad 36 e4 37
       0.00011581165 7.847862e-05 3.0340789e-05 2.7205178e-05
0001f0 f3 5d 57 39 99 11 3d 39 e1 d0 1a 39 95 43 f4 38
       0.00020538997 0.00018031 0.00014764398 0.00011647415

exp_avg f4 [32]
000000 fa e4 7d ba 21 43 04 bb 75 49 ca 38 68 63 d4 3a
       -0.0009685304 -0.0020181614 9.645793e-05 0.0016203942
000010 bb 93 4d b9 d9 5f 3d ba c6 88 61 3b 7d 73 12 3a
       -0.00019605357 -0.000722406 0.0034413799 0.0005586667
000020 82 2c 13 bb f1 98 4e bb d1 3e 2a bb 0e 7f 8e bb
       -0.0022456949 -0.0031524266 -0.0025977383 -0.004348642
000030 e2 2d 3c bb 31 2b 56 3a b3 14 2b ba 29 a1 cb 3a
       -0.0028713872 0.0008169888 -0.0006526217 0.00155357
000040 24 9c 8d bb 9a a3 86 bb 8d 52 75 bb bf 50 26 ba
       -0.004321592 -0.0041088583 -0.0037433237 -0.00063444296
000050 ff f8 97 3a f5 c1 e1 ba c9 51 61 bb 81 22 88 bb
       0.0011594592 -0.0017223941 -0.0034381023 -0.004154504
000060 1c 4e 47 bb e8 78 81 b9 5b 01 4a bb cb 53 c4 ba
       -0.0030411547 -0.0002469488 -0.0030823562 -0.0014978586
000070 72 61 38 bb 49 a0 12 39 1c 58 29 bb 38 90 03 bb
       -0.0028134254 0.00013983356 -0.002583987 -0.0020074975

exp_avg_sq f4 [32]
000000 ea 24 06 39 3a fc 13 3a a0 17 10 39 9b e8 89 38
       0.00012792987 0.00056451897 0.00013741711 6.575995e-05
000010 bb eb 87 38 67 73 1d 38 9b 7a ac 39 f0 f7 82 38
       6.48121e-05 3.7539194e-05 0.00032897745 6.245065e-05
000020 5e 0a 8c 39 3d 7f 6b 3a f4 3c 19 3a 3f 9a 4e 3a
       0.00026710605 0.00089834986 0.00058455695 0.0007881261
000030 5a ff 1d 39 29 92 87 38 1d dd 66 38 35 40 cf 38
       0.00015067813 6.464526e-05 5.50422e-05 9.882489e-05
000040 2f 06 cb 3a 2f e1 87 3a ae dd 29 3a 45 ca 29 38
       0.0015489514 0.0010366793 0.0006479871 4.0481118e-05
000050 f1 02 22 38 3c a8 af 38 a3 5f 42 3a 9e 3b 96 3a
       3.862655e-05 8.375986e-05 0.00074147637 0.0011461859
000060 3c 69 80 39 dc 66 b9 38 f2 d9 a7 39 61 f8 98 39
       0.00024492468 8.8406465e-05 0.00032015104 0.00029176756
000070 22 1b 41 3a a3 aa 02 38 66 a2 97 39 52 e0 f1 39
       0.0007366409 3.1153333e-05 0.0002892196 0.00046134234

exp_avg f4 [32, 32]
000000 71 2a b8 b8 2b 2a b0 39 12 ee 02 39 3d 3e 97 b9
       -8.781709e-05 0.00033600754 0.00012486454 -0.00028847335
000010 0b 20 9d b8 f7 6d f3 b8 46 c5 f1 b9 61 67 10 b8
       -7.492312e-05 -0.000116076255 -0.00046114082 -3.4428554e-05
000020 fb 39 71 b9 1a 63 cd 39 d4 0b d5 39 25 f1 0a 39
       -0.0002300515 0.00039174483 0.00040635339 0.00013250539
000030 49 41 94 39 3a 01 48 b8 f1 b0 c2 39 53 21 98 b9
       0.000282774 -4.7684858e-05 0.00037134395 -0.00029016528
000040 10 4e 00 3a 99 f4 a1 38 83 a6 e4 39 f6 e6 4d b9
       0.0004894445 7.722638e-05 0.0004361161 -0.00019636363
000050 1a 24 dd b6 6f 49 19 38 62 49 41 39 c9 b3 0e 38
       -6.590516e-06 3.6546433e-05 0.00018433252 3.4022876e-05
000060 c1 71 7b 38 39 ee f9 b8 25 8b ed 38 f0 d1 c3 38
       5.9949005e-05 -0.00011917618 0.00011326958 9.3374285e-05
000070 4a 6e 98 39 21 82 38 b9 99 94 df b7 9b 07 88 39
       0.0002907387 -0.00017596084 -2.6652868e-05 0.00025945608
000080 5d b7 a1 39 ba 93 62 ba 15 aa c5 b9 23 f4 bb 39
       0.0003084493 -0.0008643229 -0.0003770149 0.00035849315
000090 29 5d 7e 39 a2 7f 07 b9 a0 a3 b0 b8 70 ed 69 b8
       0.00024258032 -0.0001292215 -8.4228115e-05 -5.577266e-05
0000a0 3e 72 51 3a aa dc 30 ba 77 bc 84 ba 70 dc 23 38
       0.00079897407 -0.00067467487 -0.0010126968 3.9067527e-05
0000b0 17 49 3e 39 c9 9f bb b9 ec cc 64 ba 40 1e 09 b8
       0.0001814704 -0.0003578647 -0.00087280455 -3.2691518e-05
0000c0 42 17 97 ba 6f 60 77 b9 9a 5f 21 ba a4 71 7d b9
       -0.0011527317 -0.0002359168 -0.00061559083 -0.00024170295
0000d0 bb 4e 8b b9 9f 93 9c 37 e4 31 64 39 62 ca 3c 38
       -0.00026570805 1.866539e-05 0.0002176236 4.5011177e-05
0000e0 3c 98 bd 38 98 3b 85 38 3a ef 41 ba be 48 74 b9
       9.040578e-05 6.3530344e-05 -0.0007398013 -0.00023296752
0000f0 c6 7e 23 ba a7 ce 39 39 d4 bc eb b9 a5 59 06 ba
       -0.0006236847 0.00017719959 -0.0004496338 -0.00051250524
000100 ea d7 0c b7 b5 15 a1 ba f4 38 ff b9 c0 b6 cf 39
       -8.394922e-06 -0.0012289794 -0.00048679824 0.00039618276
000110 cc 20 c7 b8 e0 95 34 39 d6 7a 61 3a 94 89 79 b9
       -9.495168e-05 0.0001722197 0.0008601373 -0.00023797742
000120 22 be 88 3a 8f 5b 9e ba c7 3b ab ba 13 f9 b4 b8
       0.001043264 -0.001208173 -0.001306408 -8.6294625e-05
000130 ce 1c 53 b9 be 64 95 39 d1 e8 94 ba f3 85 39 3a
       -0.00020133259 0.00028494553 -0.0011360889 0.000707715
000140 ec c2 c8 ba 6c f7 64 b8 26 e3 a0 ba 74 ef 85 39
       -0.001531688 -5.4589866e-05 -0.0012274727 0.00025546143
000150 9f 6c 16 39 ae 8d 04 39 c2 70 3a 39 b0 37 ca 39
       0.00014345579 0.00012641281 0.00017780348 0.00038569933
000160 8c 8c 2d 39 9d 81 79 39 ea 7f 30 ba a7 fe a6 b9
       0.00016550923 0.00023794775 -0.0006732928 -0.00031851718
000170 06 04 5c ba 96 96 ee 39 92 e7 9a b9 e1 ee 65 ba
       -0.00083929335 0.00045507093 -0.00029545702 -0.00087712525
000180 61 9a 90 b7 c3 de 86 38 83 1a 26 37 bb 20 5d b8
       -1.7238026e-05 6.4311105e-05 9.900544e-06 -5.272099e-05
000190 5f 57 3f b7 7d a2 01 b8 35 57 ef b8 4d 3f e8 36
       -1.140483e-05 -3.0907326e-05 -0.00011412652 6.921508e-06
0001a0 5b e6 98 b8 94 59 b4 38 20 41 bd 38 29 eb 42 38
       -7.290832e-05 8.599754e-05 9.024353e-05 4.6472214e-05
0001b0 2e 6c 20 38 2c 29 af b7 ce c6 b9 38 e3 18 a4 b8
       3.8247723e-05 -2.0880798e-05 8.858518e-05 -7.824765e-05
0001c0 8f 6d d4 38 f2 01 3a 38 90 60 b1 38 8b 2f 50 b8
       0.000101293546 4.4347667e-05 8.458004e-05 -4.9635342e-05
0001d0 73 7e 08 b7 31 03 36 b7 97 7c 12 38 db 3e 84 37
       -8.135673e-06 -1.0848788e-05 3.4925146e-05 1.5764896e-05
0001e0 3a d5 4c b7 10 7f 39 b7 23 95 54 37 7a ec 32 38
       -1.2208993e-05 -1.1056443e-05 1.2670908e-05 4.2658743e-05
0001f0 a5 94 ab 38 5f 71 46 b8 5c 10 1b b7 fa d3 31 38
       8.1816026e-05 -4.7312464e-05 -9.242529e-06 4.2397507e-05
000200 45 04 f0 b8 48 a6 ca b7 85 55 be b6 5b b3 39 b8
       -0.00011444887 -2.4157707e-05 -5.672397e-06 -4.4274475e-05
000210 61 9a fa b8 80 e4 e7 38 ef 0e 96 39 06 55 99 b8
       -0.00011949684 0.000110575 0.00028621356 -7.3114454e-05
000220 b9 d6 fd 37 84 29 dc b8 ea ca 26 34 4f cf 99 b7
       3.0259938e-05 -0.000104981504 1.5533774e-07 -1.8335557e-05
000230 0d f4 97 b8 b3 27 71 39 62 b3 1d 37 5a 1d 67 39
       -7.245699e-05 0.0002299834 9.399695e-06 0.00022040811
000240 89 1d d5 b6 be 35 a2 38 c7 af c3 b8 70 ee 35 39
       -6.351333e-06 7.734772e-05 -9.331066e-05 0.0001735033
000250 01 4f 15 39 c3 49 82 38 c9 63 97 36 65 d2 dc 38
       0.00014239179 6.212622e-05 4.511767e-06 0.000105296065
000260 20 32 7f 38 5a c0 6f 38 c1 0e dc 38 db 26 a0 36
       6.084342e-05 5.716118e-05 0.000104931656 4.772895e-06
000270 78 84 cf 36 b5 9f 92 38 5a 98 d9 38 9f 78 87 b8
       6.184502e-06 6.99157e-05 0.00010375744 -6.459769e-05
000280 33 b0 cd b7 05 6d 95 38 bf 76 78 37 37 40 89 b8
       -2.4519954e-05 7.12518e-05 1.48096e-05 -6.54463e-05
000290 05 ba 8e b7 9b ee a2 b7 9a e7 e0 b8 18 5e 93 35
       -1.7014341e-05 -1.9423014e-05 -0.000107242915 1.0979738e-06
0002a0 63 28 b7 b8 22 e2 bc 38 39 50 de 38 b8 93 18 38
       -8.7336426e-05 9.006659e-05 0.000106007275 3.6377198e-05
0002b0 bc 70 18 38 9d e5 6b b7 1d ae e4 38 1a 22 9c b8
       3.6344616e-05 -1.40605525e-05 0.00010904318 -7.4450116e-05
0002c0 11 70 02 39 fc 18 1a 38 ca 2d d3 38 94 32 1f b8
       0.00012439514 3.673973e-05 0.00010069793 -3.795566e-05
0002d0 0a a9 ba b6 2d e6 07 b6 f7 92 d3 37 84 38 da 36
       -5.5629107e-06 -2.0250548e-06 2.5221596e-05 6.5034856e-06
0002e0 32 66 b5 b4 35 0e f0 b6 03 8e 31 38 60 2b 46 38
       -3.3788234e-07 -7.1542113e-06 4.2332347e-05 4.7247275e-05
0002f0 b6 2e c7 38 1e b4 47 b8 6a 82 85 37 b7 59 31 38
       9.49776e-05 -4.7613044e-05 1.5915564e-05 4.2283642e-05
000300 bf 45 80 39 28 21 51 ba 03 8b b4 b9 7e 21 a7 39
       0.00024466027 -0.0007977658 -0.00034435847 0.00031877676
000310 3d 9b 41 39 d8 5f b8 b8 f5 7d b4 36 5a 90 8a b8
       0.00018463745 -8.791656e-05 5.3790814e-06 -6.60724e-05
000320 56 ae 3e 3a aa d7 28 ba 0f 91 71 ba 9d 44 d5 37
       0.0007273903 -0.0006440828 -0.0009215036 2.542353e-05
000330 6b d3 06 39 ae ee 88 b9 52 e9 4f ba 1f 6e 0e 38
       0.00012857995 -0.00026117772 -0.0007931191 3.3957996e-05
000340 ab f5 89 ba 05 89 48 b9 70 6f 1c ba fb a7 33 b9
       -0.0010525485 -0.0001912453 -0.0005967533 -0.00017133348
000350 19 b3 51 b9 0c b7 df 37 6c f8 47 39 ac d5 93 38
       -0.00019998512 2.666891e-05 0.00019070663 7.049306e-05
000360 68 6c b8 38 13 dc 99 38 38 d7 29 ba 79 fb 5c b9
       8.793996e-05 7.3366005e-05 -0.00064789085 -0.00021074516
000370 45 b1 14 ba e4 3b 3d 39 36 b1 c8 b9 ba 39 ff b9
       -0.0005672167 0.00018046756 -0.00038279005 -0.000486804
000380 80 58 58 39 35 d7 90 ba 68 60 f1 b9 fc 3c d7 39
       0.00020632334 -0.0011050465 -0.0004603893 0.00041053433
000390 58 8b 03 39 71 f4 b0 b7 06 2d 9a 39 89 0d 0e b9
       0.00012545043 -2.1094662e-05 0.00029406714 -0.00013547218
0003a0 af 65 80 3a 2a 74 7c ba 49 2a a2 ba 10 4a 24 b7
       0.0009795929 -0.0009630347 -0.0012372221 -9.792406e-06
0003b0 0a 8a 24 38 c9 11 07 b9 c8 6f 8c ba 15 e7 8c 39
       3.9229206e-05 -0.00012881229 -0.0010714466 0.0002687505
0003c0 4d 28 bb ba 66 55 41 b9 84 05 75 ba f4 6a 86 b8
       -0.0014278978 -0.00018437728 -0.000934683 -6.4095395e-05
0003d0 3a 3b 00 b9 74 1b 82 38 81 69 6a 39 aa 57 49 39
       -0.00012229095 6.2039966e-05 0.00022355282 0.00019201511
0003e0 61 75 04 39 bf 14 12 39 e7 de 4f ba b3 ec 99 b9
       0.00012632228 0.00013931374 -0.00079296384 -0.0002935879
0003f0 02 dc 4b ba 1a d6 a1 39 68 49 e5 b9 bd 87 3b ba
       -0.0007776619 0.0003086783 -0.00043732976 -0.00071537105

exp_avg_sq f4 [32, 32]
000000 21 c2 5f 36 61 fe 22 38 69 61 9c 37 f8 2d 17 37
       3.3342587e-06 3.886072e-05 1.864201e-05 9.011004e-06
000010 04 3a 83 36 33 37 c4 37 18 e4 97 37 cf 00 61 37
       3.910858e-06 2.3390725e-05 1.8106817e-05 1.3411233e-05
000020 f8 b7 97 37 98 73 1b 38 10 00 f2 37 aa 8f 8f 38
       1.808627e-05 3.7062535e-05 2.8848677e-05 6.845531e-05
000030 74 f9 99 37 f0 b8 b6 36 33 b9 38 37 25 8b f4 36
       1.8355182e-05 5.4455522e-06 1.1010375e-05 7.287965e-06
000040 bd 72 3c 38 01 bc ee 38 8e c5 ea 37 15 0b 5d 37
       4.492955e-05 0.00011383743 2.7986967e-05 1.3175207e-05
000050 c3 4e f0 36 8c bd 21 37 b4 5a 4c 38 a4 ac a7 38
       7.1617264e-06 9.64048e-06 4.8721864e-05 7.9953374e-05
000060 a8 b7 9b 37 c4 d8 46 38 53 e3 1c 38 45 49 59 38
       1.8562961e-05 4.7408757e-05 3.740501e-05 5.180507e-05
000070 20 c1 48 38 1b e5 8a 37 bc 4a 0e 38 42 74 1d 38
       4.7863577e-05 1.6557568e-05 3.392504e-05 3.753999e-05
000080 3f 68 e1 36 45 e4 97 38 fb 87 c9 37 ce 06 21 37
       6.7176584e-06 7.2427596e-05 2.4024388e-05 9.597932e-06
000090 33 68 9d 36 ce 08 0e 38 ef a2 a4 38 2f cd 5b 37
       4.691095e-06 3.386364e-05 7.850478e-05 1.310119e-05
0000a0 a0 bb 58 38 bd 15 89 38 ef 02 6a 38 c5 88 8b 38
       5.1673152e-05 6.536718e-05 5.579268e-05 6.653512e-05
0000b0 f9 e0 11 38 78 d9 8c 37 45 a4 13 38 a5 51 0f 38
       3.4780216e-05 1.6790567e-05 3.520052e-05 3.4169894e-05
0000c0 1e b0 b0 38 15 ae d8 38 11 7c f9 37 72 5c 34 38
       8.4251384e-05 0.00010332108 2.9740886e-05 4.300144e-05
0000d0 c4 e5 3f 37 95 41 8b 37 16 aa 68 38 6a fb 9e 38
       1.1437984e-05 1.660063e-05 5.5471515e-05 7.5808566e-05
0000e0 4e 7d f6 37 82 4e 23 38 9b 62 c6 38 a9 47 46 38
       2.9383835e-05 3.8935344e-05 9.4597424e-05 4.7273617e-05
0000f0 ad b2 71 38 af e5 97 37 08 80 9a 38 d1 3a 86 38
       5.7625282e-05 1.8107557e-05 7.36714e-05 6.400573e-05
000100 18 cc 0d 37 64 ec 82 38 1a d5 cb 37 eb df 25 37
       8.451774e-06 6.242914e-05 2.4298719e-05 9.886901e-06
000110 5a ec c9 36 14 ef 45 38 bd 03 b1 38 8d 07 6d 37
       6.0177817e-06 4.719112e-05 8.440714e-05 1.4128059e-05
000120 95 ec 6f 38 00 7c 7f 38 a2 cd 55 38 f2 e1 7b 38
       5.7202375e-05 6.091222e-05 5.0974668e-05 6.005349e-05
000130 97 96 20 38 12 98 95 37 c2 3f 29 38 5e 7d 19 38
       3.828722e-05 1.7832997e-05 4.035212e-05 3.65948e-05
000140 05 4a 9d 38 62 90 b8 38 70 38 fa 37 5f e9 4f 38
       7.5001306e-05 8.800697e-05 2.9828603e-05 4.956999e-05
000150 86 65 62 37 9c 19 c8 37 26 fb 69 38 37 90 91 38
       1.34942875e-05 2.3853783e-05 5.578543e-05 6.941001e-05
000160 50 65 1f 38 96 80 0d 38 f1 b4 fd 38 21 de 15 38
       3.800291e-05 3.3736775e-05 0.00012097683 3.5731242e-05
000170 e1 dc 4d 38 e1 86 82 37 bf c5 f7 38 db e3 82 38
       4.908152e-05 1.5560016e-05 0.00011814711 6.2413244e-05
000180 c6 61 7a 35 48 d2 3f 37 59 88 c7 36 9e 2d 8c 36
       9.3274537e-07 1.1433447e-05 5.946535e-06 4.1776357e-06
000190 31 a5 c4 35 b1 5f 15 37 70 e9 c3 36 f6 81 b7 36
       1.4651215e-06 8.903372e-06 5.8386286e-06 5.4689544e-06
0001a0 3e c2 b1 36 7e 7e 2a 37 b8 03 07 37 eb 5a cd 37
       5.297624e-06 1.0162241e-05 8.047493e-06 2.4480241e-05
0001b0 04 70 c8 36 51 97 e1 35 a4 e4 47 36 1e b5 1f 36
       5.973505e-06 1.6807845e-06 2.9786397e-06 2.379827e-06
0001c0 9e b2 35 37 dc a8 2b 38 f9 04 0c 37 e7 4c 9f 36
       1.0830028e-05 4.092684e-05 8.345808e-06 4.747522e-06
0001d0 c7 e4 27 36 87 f5 3f 36 0c 87 93 37 89 8b ed 37
       2.5018105e-06 2.8604134e-06 1.7586652e-05 2.8317578e-05
0001e0 6e 77 c8 36 ad c0 93 37 01 75 23 37 96 be 9e 37
       5.974368e-06 1.7613487e-05 9.742799e-06 1.8923816e-05
0001f0 6b fa 8f 37 13 df d1 36 62 a9 1d 37 b4 e4 44 37
       1.7163538e-05 6.2546546e-06 9.397367e-06 1.17357595e-05
000200 04 2f ac 35 4e 54 92 37 de d5 de 36 a0 2a 53 36
       1.2828682e-06 1.7443814e-05 6.641013e-06 3.146626e-06
000210 13 50 c4 35 20 eb 20 37 e7 6a 0d 37 fa ea b0 36
       1.4626443e-06 9.5914875e-06 8.429145e-06 5.2725636e-06
000220 26 a6 44 37 c7 a2 8a 37 2c bc 61 37 e0 b1 d7 37
       1.1721195e-05 1.6526681e-05 1.3454857e-05 2.5712827e-05
000230 e1 c5 2f 37 4f 5e 14 36 bc f4 dd 36 02 76 55 36
       1.0476885e-05 2.2108613e-06 6.614804e-06 3.1808163e-06
000240 ea 30 c6 37 c8 24 2c 38 4d d9 3d 37 8c 1d 01 37
       2.3626217e-05 4.104225e-05 1.1315872e-05 7.695879e-06
000250 a6 89 43 36 c4 3e a0 36 4a ad a9 37 9f eb fd 37
       2.9137386e-06 4.7756785e-06 2.0227064e-05 3.026967e-05
000260 31 5e 08 37 1f ea 65 37 39 7c c1 37 cf 8e 8f 37
       8.128162e-06 1.3703974e-05 2.3065239e-05 1.7113429e-05
000270 ad ff 89 37 45 74 9e 36 a4 dd 75 37 bd b2 83 37
       1.6450731e-05 4.7223025e-06 1.4654743e-05 1.5699648e-05
000280 9b 4e b9 35 ee 2f c3 37 59 d8 48 37 bf 66 0a 37
       1.3806451e-06 2.326813e-05 1.1971301e-05 8.249363e-06
000290 77 cb 52 36 fb 30 96 37 39 4b 1d 37 8d 80 40 37
       3.141087e-06 1.7904202e-05 9.375443e-06 1.1474022e-05
0002a0 0d 2d 08 37 b3 25 af 37 36 7a 71 37 2b 34 3f 38
       8.116721e-06 2.087918e-05 1.4393174e-05 4.5586534e-05
0002b0 42 e7 53 37 21 a2 32 36 06 ac ad 36 73 78 71 36
       1.2630424e-05 2.6618438e-06 5.175828e-06 3.598191e-06
0002c0 e7 89 be 37 8c 3f a4 38 2b 49 96 37 28 dd 15 37
       2.271398e-05 7.831966e-05 1.7915465e-05 8.932584e-06
0002d0 40 d2 bb 36 1e 1e d4 36 ec 54 06 38 34 92 61 38
       5.5975106e-06 6.3215984e-06 3.202718e-05 5.3780343e-05
0002e0 7d 8b 3a 37 0f 97 05 38 e5 76 b3 37 2c bd 11 38
       1.1118941e-05 3.1850355e-05 2.1393827e-05 3.4746874e-05
0002f0 19 67 07 38 e5 dd 3e 37 41 09 96 37 d6 e7 ce 37
       3.2282525e-05 1.1376546e-05 1.7885703e-05 2.466507e-05
000300 85 c5 db 36 e1 e1 92 38 ca 5a d9 37 eb af 4a 37
       6.549703e-06 7.003896e-05 2.5910693e-05 1.2081097e-05
000310 a6 41 d1 36 4c 58 13 38 c0 1a 84 38 70 45 85 37
       6.236328e-06 3.5129764e-05 6.299233e-05 1.588717e-05
000320 2f 71 35 38 ff d1 8d 38 9e 5c 52 38 b3 fb b0 38
       4.3259173e-05 6.762519e-05 5.0154158e-05 8.4392166e-05
000330 5b ee 1b 38 50 01 6b 37 ad c1 f3 37 04 28 f3 37
       3.7176866e-05 1.4007397e-05 2.9058045e-05 2.8986491e-05
000340 44 5c a5 38 d5 6f 09 39 74 ff 2a 38 09 40 19 38
       7.884999e-05 0.00013106999 4.0769068e-05 3.653768e-05
000350 20 61 51 37 0b e6 8c 37 b7 c5 8e 38 fe ae c9 38
       1.2479984e-05 1.6796423e-05 6.807915e-05 9.617022e-05
000360 53 19 e7 37 fa 13 4d 38 76 a2 b3 38 71 14 7a 38
       2.7549138e-05 4.8894413e-05 8.565646e-05 5.9623682e-05
000370 74 e7 8a 38 ee 11 af 37 4a 3a 89 38 05 c9 8d 38
       6.623464e-05 2.0869975e-05 6.543526e-05 6.760847e-05
000380 94 07 22 37 a5 d8 c0 38 2e b4 08 38 5c 86 89 37
       9.657717e-06 9.1956266e-05 3.2592732e-05 1.6394239e-05
000390 33 70 1f 37 aa d9 83 38 88 08 d6 38 2c f8 ab 37
       9.503262e-06 6.28711e-05 0.00010205904 2.0500353e-05
0003a0 2d 7e 5b 38 d3 86 c7 38 7e 3a 87 38 59 f1 ca 38
       5.233118e-05 9.5141724e-05 6.448197e-05 9.677065e-05
0003b0 93 3d 5c 38 e0 54 af 37 c8 fa 2e 38 65 30 2f 38
       5.2509433e-05 2.0901149e-05 4.171839e-05 4.1768322e-05
0003c0 16 b9 01 39 f4 a2 1d 39 f3 36 7f 38 bc 50 87 38
       0.00012371349 0.00015033392 6.0847913e-05 6.4523396e-05
0003d0 a3 46 96 37 da 48 d8 37 df df 98 38 04 d2 e5 38
       1.7914286e-05 2.578313e-05 7.289624e-05 0.000109586894
0003e0 30 6e 22 38 40 b4 81 38 67 7c 25 39 5e 16 94 38
       3.872643e-05 6.1847735e-05 0.0001578197 7.061356e-05
0003f0 d1 85 af 38 43 7a da 37 9e 20 f1 38 d3 a4 ba 38
       8.3695755e-05 2.6044558e-05 0.00011497851 8.899872e-05

exp_avg f4 [32]
000000 89 48 96 ba 5f 25 f1 3a 5f d4 41 3b 6d 09 94 b9
       -0.0011465709 0.0018397978 0.0029576046 -0.00028235783
000010 74 db 48 39 8a 94 9d b9 fd b2 e1 3a e2 8d 22 3b
       0.00019155239 -0.00030056044 0.001721948 0.0024803807
000020 bd 07 c9 b8 ca 2f 64 b9 2f bd 96 3a 4a 7f 8f b9
       -9.585868e-05 -0.00021761577 0.0011500473 -0.00027369923
000030 27 06 10 3b 09 29 49 3a 70 b8 00 3b 3c ba c8 b9
       0.0021976323 0.0007673656 0.0019641183 -0.00038285728
000040 9f 85 2e 39 c0 fd 38 3a 97 ce 32 ba d9 76 0b 3a
       0.00016643711 0.00070568547 -0.00068209454 0.0005320139
000050 f9 16 03 b9 f2 be 07 b9 d9 ae 2e ba 34 f6 4e b9
       -0.00012501692 -0.00012945736 -0.00066636276 -0.00019737409
000060 d4 d5 31 3b 3f d4 b7 b9 fb 43 89 ba ee e2 92 ba
       0.0027135508 -0.00035062616 -0.001047253 -0.0011206546
000070 40 92 b8 b8 9f 9d 6d 3a a6 93 28 ba fb 93 57 b9
       -8.801045e-05 0.000906432 -0.0006430693 -0.00020559125

exp_avg_sq f4 [32]
000000 a0 5e 73 39 f4 47 b5 39 84 98 f4 39 bf 84 c5 38
       0.00023209536 0.0003457662 0.0004665294 9.418418e-05
000010 e4 fa c8 38 d1 2a 44 39 df 93 c8 39 22 5f 13 3a
       9.583475e-05 0.00018707967 0.00038257145 0.0005621781
000020 8d 8d 06 39 09 e6 a9 38 62 ed bb 39 3a de 34 38
       0.00012831968 8.101395e-05 0.00035844283 4.312231e-05
000030 8b f2 9f 39 ca 79 c5 39 b4 f3 8c 39 eb 0a 35 38
       0.00030507552 0.00037665508 0.00026884454 4.316393e-05
000040 56 07 3f 37 25 6b 71 38 21 d5 86 38 49 3c ef 38
       1.1386195e-05 5.7558664e-05 6.429316e-05 0.00011407637
000050 74 ed c2 38 71 5e 28 37 03 16 66 38 95 1c 43 37
       9.29487e-05 1.0035569e-05 5.4856773e-05 1.16295605e-05
000060 e0 f6 f7 39 5f ff 8a 37 ff 5d 91 39 82 e3 c8 38
       0.00047295447 1.6569798e-05 0.00027726588 9.57912e-05
000070 d7 39 85 38 36 09 94 38 e6 5e 39 39 50 da 56 39
       6.352708e-05 7.0589056e-05 0.00017678327 0.00020489958

exp_avg f4 [1, 32]
000000 a4 84 5c bb 64 fa fb 3b 79 f3 52 3c 49 6b 08 bb
       -0.0033648396 0.007689761 0.012875431 -0.00208159
000010 35 b2 aa 3b f4 f3 08 bb 36 fc be 3b c2 08 08 3c
       0.005209232 -0.002089736 0.0058284057 0.008302869
000020 e3 55 d0 3b 16 de 77 bb ae d2 e6 3b 6b 41 6a 3b
       0.0063578947 -0.0037821583 0.007044158 0.0035744559
000030 dd b3 0c 3c a4 3e ff 3b d8 41 b9 3b 6f d3 e7 38
       0.008587805 0.0077894498 0.005653601 0.00011054321
000040 69 8e ee ba 4b 36 88 3b 8a 7b 8f 3b 2f 66 04 3b
       -0.00182004 0.004156863 0.0043787407 0.0020202508
000050 dd 2f 83 bb cd 3e a6 ba f0 c3 89 3b 6d ff f9 ba
       -0.0040035085 -0.0012683511 0.004204266 -0.0019073315
000060 42 6b 0b 3c 55 e8 db 39 bc 6e 72 ba 72 2c 9e ba
       0.008509459 0.00041944036 -0.0009248068 -0.0012067689
000070 9a 02 99 bb 16 91 42 bb b0 65 f4 ba 6f 98 3f bb
       -0.0046694996 -0.0029688529 -0.0018646028 -0.0029235145

exp_avg_sq f4 [1, 32]
000000 8b 57 23 3b 61 21 09 3b e6 8c a1 3b c2 22 19 3b
       0.0024924006 0.0020924436 0.0049301265 0.0023366665
000010 cb dd a2 3a 96 e4 a2 3a 4f 4e b2 3a d3 d7 2d 3b
       0.0012425719 0.0012427743 0.001360366 0.0026526346
000020 a8 d9 63 3a f1 55 0b 3b 3d c2 0b 3b 89 8f 91 3a
       0.0008691796 0.0021260942 0.0021325492 0.0011105399
000030 ce 28 f6 3a 05 d8 1c 3b a9 59 84 3a 86 d8 07 3b
       0.0018780471 0.0023932469 0.0010097522 0.0020728423
000040 80 8e 9f 39 ac 5f a9 3a 23 ca e2 3a 7e 4e 66 3a
       0.00030433014 0.0012922189 0.0017302673 0.00087855
000050 b6 56 d4 3a 98 f9 4f 3a 3b 83 c7 3a f0 0c be 39
       0.0016200158 0.00079336157 0.0015221605 0.00036249263
000060 3e e9 d7 3a 02 02 b1 3a 71 12 21 3b e0 ba 17 3a
       0.001647271 0.0013504627 0.0024577642 0.00057880394
000070 a5 a0 29 3b d7 43 5a 3a 7a b3 e0 39 aa 08 17 3a
       0.0025883105 0.0008326149 0.0004285833 0.0005761484

exp_avg f4 [1, 32]
000000 0a 90 12 bb b8 2c f0 3a 5f 5a 89 3b 8f 6e ad ba
       -0.0022363686 0.0018323874 0.0041916813 -0.0013231802
000010 b1 54 3e 3b 31 8c 9c ba f7 8f d0 3a f3 57 24 3b
       0.002904218 -0.0011943636 0.0015912045 0.0025076836
000020 42 2d 7d 3b c4 8b 8e ba 41 e8 e6 3a 58 a9 3e 3b
       0.0038631712 -0.0010875394 0.0017616824 0.0029092636
000030 c9 02 50 3b 09 41 66 3a 78 32 f7 3a 76 b0 6e ba
       0.0031739941 0.00087834947 0.0018859645 -0.0009105274
000040 9f e2 93 b9 66 4f 06 3b 63 9e 96 3b 45 4b a3 3a
       -0.0002820687 0.0020494103 0.004596518 0.0012458345
000050 cb 42 c3 ba 11 2d 78 ba 73 27 2d 3b 2f 42 be ba
       -0.0014897225 -0.00094671646 0.0026421219 -0.0014515574
000060 5b fb 66 3b 8e c9 17 3b 6d 04 13 ba 93 2a 00 bb
       0.0035245034 0.0023160907 -0.00056082645 -0.0019556626
000070 d6 2d dd ba 9c c0 d0 ba 06 2b d6 ba 21 b0 54 ba
       -0.0016874622 -0.0015926543 -0.0016339726 -0.00081134035

exp_avg_sq f4 [1, 32]
000000 e6 02 94 39 e8 af 48 3a ef 38 0e 3b b0 2a 8f 39
       0.0002823092 0.00076556066 0.0021701416 0.0002730689
000010 28 7f 4f 3a c1 6f 33 39 8c 27 f2 39 d9 04 80 3a
       0.0007915371 0.00017112402 0.00046187302 0.000976707
000020 b7 bb 21 3a 22 a3 3b 3a 28 45 2b 3a be 36 d0 39
       0.0006169634 0.00071577926 0.00065334374 0.00039713638
000030 8e cb 52 3a 5e 34 34 3a 32 4f ad 39 ce be d8 39
       0.0008041196 0.00068742584 0.00033056136 0.0004134089
000040 49 d3 86 39 e9 66 11 3a 96 a8 10 3a 58 b2 8a 39
       0.0002571589 0.0005546646 0.00055182853 0.00026454288
000050 07 28 2f 3a aa d9 a5 39 55 40 83 3a 81 b1 0b 38
       0.0006681685 0.00031633425 0.0010013679 3.3305496e-05
000060 8d 14 4a 3a 6d 2a 1a 39 7a 02 a3 39 d0 c0 8b 39
       0.0007708751 0.0001470239 0.00031091628 0.00026655803
000070 d5 e4 97 3a 71 5e bc 3a 68 ff d7 39 f2 42 c7 39
       0.0011588583 0.0014371407 0.00041198288 0.00038006116
