omniisaacgymenvs/runs/Cartpole/nn/last_Cartpole_ep_75_rew_491.1212.pth (torch, 29683 bytes, 24 tensors)

value_mean_std.running_mean f8 [1]
00000000: a627 8558 0be1 1940
6.469769843222741

value_mean_std.running_var f8 [1]
00000000: f9b9 8dde 6425 2140
8.573035197067826

value_mean_std.count f8 []
00000000: 0000 0000 01c0 3241
1228801.0

running_mean_std.running_mean f8 [4]
00000000: d58b 0982 e6a4 66bf 169d 6d5f 5ca5 99bf
00000010: 24d4 39db c13f 723f 61a1 19b7 efcf 9c3f
-0.0027641775234754453 -0.025044864010308997 0.0044553349031178115 0.028136964369339327

running_mean_std.running_var f8 [4]
00000000: 2c50 c727 6703 f43f 109e b694 df53 fb3f
00000010: 07b9 6cb5 96f5 b63f 695c 2a87 3ce1 f23f
1.2508307985162999 1.7079768952479562 0.08968488625825809 1.179989364614608

running_mean_std.count f8 []
00000000: 0000 0000 02c0 2241
614401.0

a2c_network.actor_mlp.0.weight f4 [32, 4]
00000000: a36d e43b 20e8 adbd 2e99 d5bd c24b c13e
00000010: 4f4d 8e3e 8d23 6dbe 0a55 403f 9e39 133f
00000020: 0370 013e 793e 26bd a785 243f 9351 273e
00000030: 0c43 333e c774 65be dfb6 1bbe ea96 5a3e
00000040: 9c8d f1bc 23e1 05be 5225 dfbd 747c bd3e
00000050: 4d68 1ebe 8c3f 59be 743f 2f3e 47e3 05bd
00000060: cdd0 6e3e 3610 cfbe 7713 d13e 4183 eabe
00000070: 14f5 1e3e b295 65be 8314 02be e85b 6f3e
00000080: 222e 3e3e fb8e ab3e d813 f9bb 6ce0 9ebd
00000090: ce14 333d 282e 2fbe 67d8 ff3e 17b6 403f
000000a0: cf28 d5bc 687c c4be 3e5a 053f f2da d33e
000000b0: ad36 a53e 1d07 343e f834 3ebf 2c0c 94be
000000c0: 201a d4bc 707c f73e 8103 df3d 95ee fc3d
000000d0: 64de 1c3e 4d46 92bd da3b 8e3e 43f1 e7be
000000e0: d0b6 87be aec7 92be 22a0 613d 6577 9cbd
000000f0: f07c 183e 80b3 23be d7f1 b83e 6989 adbe
00000100: 0b3e a6be 98b5 e3be ffb7 363f a4d9 253f
00000110: f780 eb3e dcc5 cebc 5f93 3dbf 4a30 0dbf
00000120: a690 babe ce6d 70bd 86b5 b83e 9c0b f83e
00000130: b4f8 9cbc fd1d b5be f489 873e 39ec 37be
00000140: 3e9f ce3d 8f5a 3fbd 805b 833e fa0e b1be
00000150: 7552 27be ef80 bd3d 2d30 633e db53 3ebd
00000160: 37af 9c3e 0fc5 ee3e acef b0be 21fa c6be
00000170: b395 ea3e bdb9 6d3e a8e9 e5be 95ca 26bf
00000180: af42 81be 750a 4c3e 9fbd 683e 051c e4bd
00000190: fc72 58bd a1d4 e3bd 0450 e4be 0c93 84be
000001a0: 64e0 ebbe 7fee 06bf 24ea e93e 8030 703e
000001b0: acf7 f03c 6675 02be 98a7 19bf 3846 9fbe
000001c0: 0edf a1bd 21ed 27be 322f e8be 65bd cabe
000001d0: d417 703c 5b18 65bd 8e46 103e 9e48 07be
000001e0: a8db d1be 8447 02bf a1cf 243e 4877 8f3d
000001f0: 53d0 aa3e 5977 01bd d6b4 2e3f 48ab 023f
0.0069710775 -0.0849154 -0.10429607 0.3775311 0.27793357 -0.23158093 0.7512976 0.5750979
0.12640385 -0.040586922 0.6426644 0.16339712 0.17506045 -0.22407828 -0.15206479 0.21346632
-0.02948647 -0.13074164 -0.1089579 0.37009013 -0.15469475 -0.21215647 0.17114049 -0.03268745
0.23321839 -0.40442055 0.40835163 -0.45803264 0.15523177 -0.22420385 -0.12703137 0.23374903
0.18572286 0.33507523 -0.0076012425 -0.07757649 0.043721013 -0.17107451 0.4996979 0.7527785
-0.026020436 -0.38376164 0.52090824 0.4137798 0.32268277 0.17580839 -0.74299574 -0.28915536
-0.025891364 0.48337126 0.1088934 0.123501934 0.1531921 -0.07142315 0.27780038 -0.45301256
-0.26506662 -0.2866797 0.055084355 -0.0763996 0.1489141 -0.15986443 0.3612201 -0.33893898
-0.3246921 -0.44474483 0.71374506 0.6478522 0.4599683 -0.025240831 -0.74052995 -0.5515181
-0.36438483 -0.058698468 0.3607599 0.48446357 -0.01916156 -0.35374442 0.26472437 -0.17961206
0.10088967 -0.046717223 0.25655746 -0.3458174 -0.16340049 0.09253108 0.22186346 -0.04646669
0.30602428 0.4663472 -0.34557855 -0.38862708 0.45817336 0.23215385 -0.44904828 -0.65152866
-0.25246188 0.19925864 0.22728585 -0.11138157 -0.052844033 -0.1112454 -0.44592297 -0.25893438
-0.46069634 -0.52707666 0.45686448 0.23456001 0.029414974 -0.12740096 -0.6002135 -0.3110826
-0.079038724 -0.16399051 -0.45348507 -0.39597622 0.014654119 -0.05593143 0.14089414 -0.13211295
-0.40987897 -0.50890374 0.16094829 0.07005173 0.33362064 -0.03160796 0.68244684 0.51042604

a2c_network.actor_mlp.0.bias f4 [32]
00000000: 7ea1 b53d 3978 75be e4ae 27be 1e47 f53c
00000010: b093 a83d 8e17 4c3e 1f6d 7d3e be0b eabd
00000020: b211 3e3e cb2b 8abe eb0c 8bbe 29f3 26be
00000030: 31c6 a6bb bb81 96bc 7df7 42be d310 f53d
00000040: 60e1 41be 615b 72be 4c74 9fbd 54a5 2c3e
00000050: fbb1 a1bd 182b 1b3e 3ef3 24be b175 48be
00000060: bf07 543e 2556 d53d 5999 6a3e 0321 d3bd
00000070: 2412 70be 029f 7a3d ad2c 8b3e 3276 83be
0.08868693 -0.23971643 -0.16375309 0.029941138 0.08231294 0.1993086 0.24748658 -0.11428021
0.18561438 -0.26986536 -0.27158293 -0.16303696 -0.005089544 -0.018372407 -0.19039722 0.119660996
-0.1893363 -0.23667671 -0.07785854 0.16859943 -0.07895275 0.15153158 -0.16108415 -0.19576146
0.2070608 0.104168214 0.2291006 -0.10309031 -0.2344442 0.061186798 0.27182522 -0.25676113

a2c_network.actor_mlp.2.weight f4 [32, 32]
00000000: ac7c 8f3e 2615 d2bd ee89 07be d893 303e
00000010: b625 4d3e f293 853d fecb 1fbe 2507 5ebd
00000020: 9cc3 3b3c b243 623c 7349 14be 6def 8bbd
00000030: 2d17 d7bd d5e4 9fbd ea92 b83d f457 b1be
00000040: 2196 203e c44d a43d 5bf2 b43d e838 1cba
00000050: 266f a43d 487d 2b3e 3db0 fc3b 03f9 8ebd
00000060: f9f6 803d 19f1 77bb 58b1 683d ad1b c3bd
00000070: 68ae f83d 46aa 363e 8940 353e 19d1 acbd
00000080: 12ef 6a3d 8436 19be d278 2c3d 1490 c6bd
00000090: cde6 0abe 6073 34be fdbb e63d cf13 f3bc
000000a0: ee6a d4bd 0dcc a3be 034d 82be 52c0 c1be
000000b0: cf7c 0f3d aea0 713c e430 dd3d fea4 9f3d
000000c0: d1c8 b5be 5c9d a8be 0664 adbd a26e e93d
000000d0: 23dc 313c 9cf0 dbbd cddd 27be 903b 8abe
000000e0: d4ed 33be a9e1 a13c cd29 68be e7c4 30be
000000f0: b7d6 b2be 6faf 6a3d 4ec5 9d39 fd1c b0bd
00000100: 20a5 25be 219e fbbe eeef 42be cef6 153e
00000110: 3fa7 dd3c d38a c63c a34f 593e 7e3d c83c
00000120: fcdc 63bd 95f9 ffbe 4011 fabe d825 aabe
00000130: 2474 173c eb9d 39bd 1dfb d0bd 39eb 88bd
00000140: 3ea9 e4be dfe9 a6be 61f9 abbe 8066 673d
00000150: 3476 113d a86c 80bd 3e9b 55be 86bf 92be
00000160: 02a0 17be 5089 00be df3a a8be 68c6 8abe
00000170: 2fba b3bd 79a2 e7bd 406a 80bd 7411 5dbe
00000180: a5f0 493e d280 66be b34f a73d 0c7d 5abd
00000190: 0783 b93d 7f93 763e 7089 d6bd 5d7e 48bd
000001a0: 73e1 30bd 986a 26be 53ca 84bb d4da e0bd
000001b0: c27e 073e 6dbc 803d 5861 b03d 90d5 23be
000001c0: c36f 3cbe d6fc 9e3d 8ad6 0c3d 9fcd 4fbe
000001d0: 80b2 9b3c 786e e1bd da8d f03b 648a 84bd
000001e0: 80ee a2bb d1b3 72bd dae5 7fbe fff9 183e
000001f0: 94ba 4a3e 09ac f4ba 64a9 323d e32f dfbd
00000200: 13ce 34be 8358 a3be b253 403d bd42 b7bd
00000210: aea6 10be 7ab1 e1bd f424 cebc 5674 aa3c
00000220: 1686 a9bd ff70 8abe 5c7a 3bbe c7b1 40be
00000230: fd89 73be 959b 113e 84e9 4e3c ee0c 893d
00000240: 8266 9cbe 8470 66bd bcf7 183d 3cc8 033d
00000250: 981a 0dbe 502b dfbc 4d8f 8d3d 80a3 d43b
00000260: 0d74 1cbc 6c8f 0d3e 5a87 45be 2714 783c
00000270: 7f02 31be 9d90 8fbb acdf a8bb 2dec 97bd
00000280: d155 0cbc 7e94 43be d54e 30be ff5b 39be
00000290: 9704 9dbd 70f4 133d f030 bb3c 992e 86bc
000002a0: 1d3c 38be ac0e a2bd 9ebe 283d 18b3 c5bd
000002b0: 904e 013c 166e d0bb 33a5 2abe ec62 1cbe
000002c0: 242b 1f3d 1f43 dabc e246 93bd 0023 22be
000002d0: cd8c 1abe cb37 8cbd 39d8 373e 84fa c6bd
000002e0: eaa9 57bd 7e91 353d 887e 6a3d 77b0 9d3d
000002f0: 2352 263e 2c50 ae3d 6339 bcbd 23c4 ea3b
00000300: 0d78 713c 9b56 debd 81ae 63bd d846 283d
00000310: 4d21 b0bd 3beb 13be 8247 17bd 98db 18bd
00000320: 6445 7abd 7647 12be 8163 6abd 7a27 acbe
00000330: 1ef3 36be 64af 873d 2fda 233e 1af9 203e
00000340: 42b4 99be f353 61be 31b5 35be 69ee 22bc
00000350: 4ad3 b93d 2f4f 203d 0b88 1eba ece4 aabe
00000360: 82ea 673d a0a1 6fbe 7a6f d2bb fc69 d3bb
00000370: f2bb 4abe c896 d33d cac5 65be 2ae9 2dbe
00000380: 354f 903d 49b1 59be ef90 4dbc f2f3 42bd
00000390: 6ac2 f63c 9319 00bd 2d39 d93d a56d e0bd
000003a0: 9799 f0bd e3fa 7bbe 8aa1 18be 5a6d 85be
000003b0: c1b2 53bc b9c1 203e d05f 353b 381f aa3d
000003c0: 2ec4 99be eb14 b5be cd3f 95be 12de 0cbe
000003d0: 27fa c93c 49ea 81bd cec4 5fbe 6e46 5dbe
000003e0: 65ee b93d 66d5 f4bb 5574 b0bd 105c 43be
000003f0: f84b 73be 09a5 a23d 877c 89be f93e 8dbe
0.28024805 -0.1025794 -0.1323621 0.17243898 0.20033917 0.06522359 -0.1560516 -0.054206032
0.011460211 0.013810085 -0.14481144 -0.06832776 -0.10502467 -0.07807318 0.09012397 -0.34637415
0.1568227 0.08022645 0.08835288 -0.00059594074 0.080290124 0.1674701 0.007711439 -0.06981089
0.06297106 -0.0037832914 0.056809753 -0.09526763 0.1214264 0.17838392 0.177004 -0.0843832
0.0573569 -0.14962202 0.04210741 -0.096954495 -0.13564606 -0.17622137 0.11266325 -0.029672531
-0.10371958 -0.31991616 -0.2544938 -0.3784204 0.035031136 0.014747782 0.10800341 0.07795142
-0.35504773 -0.32932556 -0.084663436 0.11398055 0.010855707 -0.10739252 -0.16393204 -0.26998568
-0.17571193 0.019760923 -0.22672196 -0.17262612 -0.3492944 0.057296213 0.00030092377 -0.08599279
-0.16176271 -0.4914408 -0.19036838 0.1464493 0.027057288 0.024236118 0.21221785 0.024443384
-0.05563067 -0.49995103 -0.48841286 -0.33231997 0.009243999 -0.045316618 -0.10204146 -0.0668549
-0.44660372 -0.32600304 -0.33588699 0.056494236 0.035513118 -0.062707245 -0.20860001 -0.28661746
-0.14807132 -0.1255238 -0.32857415 -0.27104497 -0.08775746 -0.11310286 -0.062702656 -0.21588689
0.19720705 -0.22510079 0.08169498 -0.05334191 0.090581946 0.24079703 -0.10475433 -0.048948634
-0.043183755 -0.162516 -0.0040524392 -0.10979238 0.13231948 0.06285939 0.08612317 -0.15999436
-0.18402009 0.077630684 0.034384288 -0.20293282 0.019006014 -0.11007398 0.007341129 -0.064717084
-0.004972279 -0.059253518 -0.24990025 0.14939116 0.19797736 -0.0018666993 0.043618575 -0.108978055
-0.17656736 -0.31903467 0.046954818 -0.08948276 -0.14126083 -0.11020179 -0.025164105 0.020807426
-0.08277528 -0.27039334 -0.18308395 -0.18817817 -0.23783107 0.14219506 0.012628917 0.06691919
-0.30546957 -0.056259647 0.037345633 0.03217338 -0.13779676 -0.027242333 0.06912098 0.0064892173
-0.009549153 0.13824242 -0.19289914 0.015141523 -0.17286108 -0.004381253 -0.005153617 -0.07418094
-0.008565382 -0.19099614 -0.17217572 -0.181015 -0.07666891 0.036121786 0.022850484 -0.016379641
-0.17991681 -0.07912955 0.04119741 -0.096533 0.007892266 -0.0063607795 -0.16664581 -0.1527211
0.0388595 -0.026643334 -0.07191254 -0.15833664 -0.15092774 -0.06846579 0.17953576 -0.09715751
-0.052652277 0.044328205 0.057249576 0.076996736 0.1624227 0.08511385 -0.09190633 0.0071644946
0.014738095 -0.108563624 -0.05558634 0.041083187 -0.086001016 -0.14445202 -0.03693343 -0.037318796
-0.061101332 -0.14285073 -0.0572238 -0.33623868 -0.1786618 0.0662525 0.16001199 0.15720025
-0.30020338 -0.2200468 -0.177449 -0.009944537 0.09073503 0.039138015 -0.00060474937 -0.3337778
0.05662013 -0.23401499 -0.0064219804 -0.0064518433 -0.19798258 0.103314936 -0.22438732 -0.16983476
0.070463575 -0.21259035 -0.012546762 -0.047595926 0.030122 -0.03127439 0.106066085 -0.10958413
-0.11748045 -0.24607424 -0.14905372 -0.2605999 -0.012921036 0.156989 0.0027675517 0.08306736
-0.30032486 -0.35367522 -0.2915024 -0.13756588 0.024655415 -0.063435145 -0.21852419 -0.21608898
0.09078673 -0.007471728 -0.086159386 -0.19078088 -0.23759449 0.07941634 -0.2685282 -0.27587107

a2c_network.actor_mlp.2.bias f4 [32]
00000000: 8009 42be 23df d83d d74f 4c3e f007 4bbe
00000010: c9e7 eb3d e769 47be 4fd7 083e 9c59 0b3e
00000020: f28f a73d 4474 35be 99f0 053e 222a 0a3e
00000030: e9d6 e23d 3983 1d3e ac48 103e 0a7f 5bbe
00000040: a829 c0bd 61fa b43d 8152 8d3d 1b80 263e
00000050: 760e 5bbe 515f e4bd b616 123e 1071 f2bd
00000060: 54e2 ff3d 0e0a 2f3e ae2e 39be 0d5e 14be
00000070: 6f00 75be 41ec 8d3d 67ba edbd 3fcc 2dbe
-0.18948936 0.10589435 0.19952331 -0.19827247 0.11518819 -0.19473992 0.13363384 0.13608402
0.08181752 -0.17720133 0.13080062 0.13492635 0.11076147 0.15382089 0.14090222 -0.2143518
-0.09382945 0.088368185 0.06900502 0.16259806 -0.21392235 -0.11150993 0.14266476 -0.11837971
0.124943405 0.1709368 -0.18084213 -0.14489003 -0.23925947 0.069298275 -0.11607819 -0.16972445

a2c_network.value.weight f4 [1, 32]
00000000: 193e f5bd 2eb0 4e3e 6eb3 693e 2224 0dbc
00000010: fcb4 0cbd a965 b9bc a1a0 333e fc95 7f3e
00000020: c1f7 04be 671a 96bd 4306 233e 6590 c6bd
00000030: eba6 d03d d66a fa3d cfe3 b13d 6abe 49ba
00000040: 9a0d a83c 166b e93b fdfa 16be f268 623c
00000050: 30f5 5bbd ce3d 47bb 4ba4 c5bd 8d84 833d
00000060: 7dd3 253e de9b 80bd 1bd3 d5bd 3517 c4bd
00000070: c6a4 53bd 4079 283e c48f 4fbd 799c 8ebd
-0.11974735 0.20184395 0.22822353 -0.008614572 -0.034352288 -0.022631483 0.17541744 0.24959558
-0.12985136 -0.073292546 0.15920357 -0.0969551 0.10188087 0.122274086 0.08686029 -0.00076959154
0.020514298 0.0071233613 -0.14744182 0.013818966 -0.053700626 -0.0030401829 -0.09650477 0.064217664
0.16193958 -0.06279729 -0.10440656 -0.09574739 -0.051670812 0.16452503 -0.050674215 -0.069634385

a2c_network.mu.weight f4 [1, 32]
00000000: 7d08 363d b562 dabd d54f 543e 087b c23a
00000010: 4439 d63d 8f06 a8bb ff3d 85bd 27bc 433c
00000020: de37 323e dd35 633d 71dc 3dbe d3bb 2f3d
00000030: b41a 813e 0775 72be 811a 123e d8d9 9bbc
00000040: 7397 9f3c 8937 993d 7bca 313d b578 4bbb
00000050: 77ba 0a3e cc60 a13b 8704 353d f574 a0bc
00000060: edd5 7f3e 355a 153c e296 b43d b3e6 f7bd
00000070: 14b7 c73d 885c 98bd 81fe 87be 396f a03d
0.04444169 -0.10663358 0.20733579 0.0014837692 0.10460141 -0.005127735 -0.065059654 0.0119467145
0.17404124 0.05547129 -0.18541123 0.042903733 0.25215685 -0.23677455 0.14267923 -0.019024774
0.019481396 0.074812956 0.04340599 -0.0031047289 0.13547693 0.004924869 0.04419377 -0.01958702
0.2498395 0.009115745 0.08817841 -0.12104549 0.09751716 -0.07439524 -0.2656136 0.07833714

exp_avg f4 [32, 4]
00000000: 047c 1aba eea6 453a 9747 12b9 4023 413a
00000010: f4c7 f7b9 10f7 8639 9b75 033a 9a3d d139
00000020: 1b7b 8039 6c49 38ba 18df 8938 0614 e8b9
00000030: fd9b f4b9 240c 853a d6d1 55b6 dcc3 563a
00000040: 172e e3b9 8705 383a 9c83 4bb9 de9e 3f3a
00000050: 22fa 61b9 2a4c b138 ab37 6e36 f799 bd38
00000060: a469 143a 6522 e0b9 e1c6 beb8 6752 4bb9
00000070: 59bb a8b9 cdc5 2f3a b93b 5138 bcf8 063a
00000080: 3643 16ba 0933 2a3a 5a55 4236 a3dc 013a
00000090: b764 b3ba 1d06 db3a f468 4539 519b c03a
000000a0: 5eeb caba 49cf fb3a f336 3c3a 53e6 753a
000000b0: 39eb 1fba 0a44 cf3a 0b32 9cb9 997c 8a3a
000000c0: a3af d7b9 8617 5cb9 1e4d 2538 e1ad bfb9
000000d0: faa2 2b39 40f7 bdb8 0006 9036 acad 20b9
000000e0: 0842 3fb9 2382 6639 ca2a 8538 8cbc 1439
000000f0: bcec 8738 5e62 5738 8824 b8b7 48e7 4cb8
00000100: 4696 2abb 5d96 3b3b ceef 843a b904 d23a
00000110: 8e19 86ba 4022 213b c801 81b9 a5e1 9a3a
00000120: b11b d5ba 0db1 a93a 9250 f7b6 dd38 a53a
00000130: 939a c0b9 d223 033a 602d 0437 0a75 c839
00000140: b63a b639 9fcf 96b8 2bf5 2eb9 66f4 aeb8
00000150: 097c bbb8 8955 41b9 1928 6f37 8160 50b9
00000160: a68d e937 0515 b73a 6fe3 7eb9 0d21 8e3a
00000170: 3136 4fba 1ee6 f13a 7bac 7cb9 66c0 8e3a
00000180: 6ac3 32ba 0588 4f39 89c1 bfb8 6b5a 97b8
00000190: c00a f0b8 aebb 9738 7c16 3e38 c5c1 9b38
000001a0: bb8a 8fba e202 973a b740 9739 198b 5a3a
000001b0: d5ea 4aba 083d 813a b5f1 eab8 f5b4 0b3a
000001c0: 1647 85ba aa3a bb3a 1a45 14b6 82c0 3c3a
000001d0: 9538 1539 30f2 afb8 38f5 96b8 2d85 58b7
000001e0: e271 8eba 8ea7 9e3a fcd0 a438 4ab5 663a
000001f0: 5848 2cba a887 f939 5c4e 9d39 4d75 1c3a
-0.00058931136 0.0007539828 -0.00013950314 0.00073676184 -0.00047260488 0.00025742548 0.0005014778 0.00039909483
0.00024505783 -0.00070299837 6.5742235e-05 -0.00044265407 -0.00046655527 0.0010150713 -3.1861614e-06 0.00081926375
-0.00043331154 0.00070198666 -0.00019408617 0.0007309745 -0.00021550854 8.454204e-05 3.5497167e-06 9.0409005e-05
0.00056614936 -0.00042750235 -9.09695e-05 -0.00019390286 -0.00032183042 0.0006705195 4.9885104e-05 0.00051487586
-0.0005732061 0.000649259 2.8957934e-06 0.0004953837 -0.0013686632 0.0016710196 0.00018826482 0.0014694725
-0.0015481522 0.0019211556 0.0007179819 0.0009380329 -0.00061004196 0.0015813124 -0.00029791924 0.0010565697
-0.00041138855 -0.00020989598 3.9410887e-05 -0.0003655991 0.00016368544 -9.058276e-05 4.292233e-06 -0.00015323487
-0.00018239778 0.00021982989 6.349904e-05 0.00014184619 6.481397e-05 5.1351606e-05 -2.195152e-05 -4.8852788e-05
-0.0026029511 0.002862356 0.0010142268 0.0016023136 -0.0010231005 0.0024587065 -0.00024606124 0.0011816515
-0.0016258863 0.0012946442 -7.3705532e-06 0.0012605448 -0.0003673626 0.0005002591 7.878378e-06 0.00038234174
0.00034757488 -7.19123e-05 -0.00016685265 -8.342489e-05 -8.939958e-05 -0.00018437779 1.4254846e-05 -0.00019872376
2.7841725e-05 0.0013968056 -0.00024308053 0.001084359 -0.00079044985 0.0018455421 -0.00024096847 0.001089108
-0.000681928 0.0001979173 -9.1436385e-05 -7.217083e-05 -0.00011446094 7.235199e-05 4.532047e-05 7.427068e-05
-0.0010951379 0.0011521245 0.0002884918 0.0008336767 -0.0007740681 0.0009860108 -0.00011203011 0.0005329394
-0.001016828 0.0014284451 -2.209394e-06 0.0007200317 0.00014230826 -8.389761e-05 -7.198233e-05 -1.2905611e-05
-0.001086768 0.0012104379 7.859056e-05 0.0008800818 -0.00065720594 0.00047594053 0.00030003756 0.0005968407

exp_avg_sq f4 [32, 4]
00000000: 8ed8 4a38 0f55 2e38 41b8 5638 f48d 1d38
00000010: 3ab0 7639 415e 4139 b56b 1839 8787 ea38
00000020: 6eb5 9e38 4bd5 9338 7aa8 b137 fab0 9037
00000030: 1712 1838 75e1 0038 d7bb 9338 caa0 5e38
00000040: 34cc b137 2f81 9037 0d7d a237 b794 6e37
00000050: 65e7 8337 eb6f 0737 4b22 1837 b225 0337
00000060: 7c22 6139 4952 0739 bdd4 8539 357e 5439
00000070: d48b dc37 bc4b 9137 63fb 4637 93df 3c37
00000080: 4f42 dc38 5aef 8f38 b70c a338 859f 9b38
00000090: eaed bc39 4e24 a839 5e73 9a39 e946 5539
000000a0: 974e 9639 c706 4939 24b1 f338 1746 b438
000000b0: e375 a339 39b5 8d39 5f87 7b39 fda2 4e39
000000c0: 1a7c 4238 6af4 2c38 e263 a637 a14b 9437
000000d0: 5b6b 1b38 1095 1638 52ba 9738 4c58 6138
000000e0: 1c4d 1538 9fc3 a637 af07 9737 cae2 7537
000000f0: b792 ad38 cf7f 2738 b395 1439 609d f938
00000100: 9fbe 313a bb8f fa39 6243 8239 bb2b 4139
00000110: c8a1 cf39 81ad c639 d7d7 a839 21ea 6f39
00000120: 07fa 7a39 851a 4e39 3162 9e38 55de 5b38
00000130: 4405 f137 6ca5 6e37 8711 2438 5fef 0c38
00000140: 5791 1637 22e7 2a37 67e0 fc36 58aa d636
00000150: 1a85 fe37 0502 a937 9035 8837 18ac 9037
00000160: 425c 6739 9fa8 8539 2701 f038 3835 db38
00000170: d45c da39 0b97 d139 8ca3 a039 5864 7039
00000180: e5b7 ba38 5924 8438 ff20 e637 2466 e037
00000190: 37bc 2438 ae9e e937 2c9b 0638 5d61 c437
000001a0: 815c e238 e6b8 9a38 6b75 fb37 c9a0 b337
000001b0: a6d1 0139 bbd8 d038 fda1 ad38 f864 8338
000001c0: ea09 cc39 bd35 8339 8f14 cc39 48df 9639
000001d0: e1c8 9237 a1e5 5b37 8ad6 2f37 4ef7 ca36
000001e0: 236b db38 a459 9838 f73a d837 7fdf c137
000001f0: ffc6 4a39 38ac 2639 a2e7 0039 d9c4 c938
4.8362235e-05 4.156405e-05 5.1193176e-05 3.756392e-05 0.00023526038 0.00018441027 0.00014535974 0.000111832334
7.567821e-05 7.049235e-05 2.1178497e-05 1.7248549e-05 3.625647e-05 3.072755e-05 7.044494e-05 5.307867e-05
2.1195134e-05 1.7226293e-05 1.9370136e-05 1.4220531e-05 1.5724168e-05 8.072685e-06 9.0678905e-06 7.816985e-06
0.00021470519 0.00012905257 0.0002552624 0.00020264911 2.6291156e-05 1.7320614e-05 1.186025e-05 1.1257728e-05
0.000105027684 6.863354e-05 7.774814e-05 7.420689e-05 0.00036035414 0.00032070506 0.00029459124 0.00020339679
0.00028668783 0.00019171379 0.00011620138 8.596124e-05 0.00031177615 0.00027028637 0.00023987655 0.00019706409
4.6368783e-05 4.1235624e-05 1.9835254e-05 1.7678192e-05 3.7054862e-05 3.5901612e-05 7.234946e-05 5.3726413e-05
3.5596182e-05 1.9879835e-05 1.800418e-05 1.4655941e-05 8.2766106e-05 3.9934934e-05 0.00014170147 0.000119025586
0.0006780419 0.00047790803 0.00024845736 0.00018422205 0.00039602653 0.00037894773 0.0003220427 0.00022880036
0.00023935 0.0001965557 7.552317e-05 5.242073e-05 2.873189e-05 1.4224421e-05 3.911697e-05 3.3601533e-05
8.974536e-06 1.0186604e-05 7.536309e-06 6.3975276e-06 3.034114e-05 2.014731e-05 1.6237405e-05 1.7246275e-05
0.00022064245 0.0002549337 0.000114443064 0.000104526465 0.00041649363 0.00039976122 0.0003063943 0.00022925565
8.903424e-05 6.301021e-05 2.7433502e-05 2.6750444e-05 3.9275936e-05 2.7849655e-05 3.2092605e-05 2.3410359e-05
0.0001079375 7.377732e-05 2.9976209e-05 2.1413334e-05 0.00012380499 9.958582e-05 8.2794555e-05 6.265374e-05
0.000389173 0.00025026305 0.0003892523 0.00028776587 1.7498098e-05 1.3106882e-05 1.0480764e-05 6.048859e-06
0.000104626895 7.264622e-05 2.5776664e-05 2.3111466e-05 0.00019338353 0.0001589515 0.00012293321 9.6210926e-05

exp_avg f4 [32]
00000000: 18d3 a9ba 53a8 02bb efcd 043a eb0c d1ba
00000010: 392c 82ba cbb7 16b9 99da 8a3a 44e2 9bba
00000020: cf3b 91ba 91b2 41bb 45c5 4ebb 3999 6cbb
00000030: ebd3 db39 07c9 143a f04e 0cba 47c0 ce39
00000040: a81b 97bb 3090 adbb 216e 20bb ff51 13ba
00000050: e345 513a ea7f 3039 22d3 34bb 4903 a1bb
00000060: ef94 0e38 588b 3bba 7730 0bbb e127 21bb
00000070: 9e42 6ebb 9a61 cb39 3527 14bb 44d7 fbba
-0.0012956588 -0.0019936755 0.0005066087 -0.0015949284 -0.0009931392 -0.00014373583 0.0010593712 -0.0011892994
-0.0011080446 -0.0029555897 -0.0031550687 -0.003610207 0.00041928826 0.00056757074 -0.0005352339 0.0003943464
-0.004611451 -0.0052967295 -0.0024479704 -0.00056198234 0.0007983131 0.0001683232 -0.0027591665 -0.0049137217
3.3994143e-05 -0.0007154248 -0.0021238604 -0.002459042 -0.0036355625 0.00038791896 -0.0022606377 -0.0019213934

exp_avg_sq f4 [32]
00000000: b41e fd38 b7c2 083a dc0b 4639 ec1a 9938
00000010: c394 7938 d471 0938 088c 9a39 b846 7a38
00000020: 34c1 8739 b90e 593a f5fb 1c3a 5edf 3d3a
00000030: 213d 1539 ceed 7938 b2f1 4538 4a3e ad38
00000040: 0566 c73a b6f8 8e3a 46ee 253a 74f7 3638
00000050: 8e43 1238 11b7 9e38 bedb 3e3a 2adc 963a
00000060: 121c 7239 d7f4 a438 5d43 a539 37bc 8c39
00000070: fab6 2d3a b26c fe37 ca8a 9b39 a903 dc39
0.00012069699 0.0005217003 0.0001888717 7.300623e-05 5.950477e-05 3.2769356e-05 0.000294775 5.9670507e-05
0.00025893154 0.0008280087 0.0005988472 0.0007243062 0.0001423252 5.95877e-05 4.7193556e-05 8.260885e-05
0.0015212899 0.0010907862 0.0006329756 4.362264e-05 3.4872028e-05 7.568126e-05 0.0007280669 0.0011509706
0.00023089375 7.8657344e-05 0.00031521442 0.00026843112 0.0006626692 3.0329775e-05 0.0002966731 0.00041964397

exp_avg f4 [32, 32]
00000000: 8b8f c638 aa82 093a 34f9 9e39 8033 54b7
00000010: 44c7 b738 b982 b0b9 3a44 3eba 7323 2639
00000020: 6fc1 05b9 ec5f 2f3a 770a e739 da2b 7039
00000030: 8c4f ab39 5416 41b9 2cfb 4839 5593 c8b9
00000040: 3a9f 0f3a f3c3 5a38 4394 e239 9af7 deb9
00000050: f498 8ab8 60fd 29b9 9424 8339 ebb4 5038
00000060: 5af6 66b9 f43c 9fb9 8d66 8ab9 71d9 22b8
00000070: 4019 e938 1494 3eb9 c7f4 e4b9 a44c 153a
00000080: df8a a5b8 ca1d 40ba 7caf 01ba 20be 5339
00000090: a6fc 9ab8 67ed 2c3a 0bfc cc3a a486 15b9
000000a0: 4883 7939 2ab7 99ba 2cfa 3eba c1e2 c9b9
000000b0: 913f 3bba bf32 c439 6005 e7b9 f715 513a
000000c0: c08b 86ba c588 2138 55d7 5bba f270 693a
000000d0: f165 0839 1039 7739 ead9 11ba a8f3 72b8
000000e0: 9882 a139 0ab3 1a3a 46e5 043a ba39 9c38
000000f0: 61a2 92b9 53fa be39 b253 5e3a 03f2 67ba
00000100: c247 09b9 4664 39ba e914 e7b9 9953 a639
00000110: 109d 08b9 ad9b 1e3a 7418 f93a 29e7 89b8
00000120: c424 a739 7a0c 93ba 874b 35ba 45c9 9ab9
00000130: 3b74 2bba 992e 0d3a 0e97 ccb9 f898 823a
00000140: 814d 84ba 17ce 7939 c18a 91ba 3f70 823a
00000150: 6a9a 8339 c579 f838 3b4c 9bb9 e05b 2439
00000160: 7da2 9538 1ac8 0a3a 66cf cb39 df19 f438
00000170: 2441 52b9 3285 cc39 7239 3c3a 0866 48ba
00000180: 82ac 7e36 963a e637 f869 6b37 1ae9 12b7
00000190: cf79 6c36 a2fb 32b8 956b c8b8 2e85 4637
000001a0: f6cc 82b7 8095 5738 73a5 ee37 1445 0738
000001b0: dc87 0138 ed84 eab7 7018 9337 5a0e 5fb8
000001c0: d8ee 0638 1a65 6637 e15b 1538 00f0 72b8
000001d0: 7fff 4ab7 3060 a4b7 737c 0338 4676 5037
000001e0: 25d3 bab7 3e12 bdb7 6522 40b8 5a11 eb36
000001f0: d6c5 ac37 7129 c5b7 fa1c 6ab8 19a7 1638
00000200: 4240 0f37 ac67 9538 9750 4738 e9de 7c37
00000210: feb6 bd36 678c 05b9 f5a0 2ab9 a83a 4538
00000220: 7def cf36 0c03 1f39 8c82 9c38 0e76 0639
00000230: db47 0b39 7c45 93b7 6d44 9438 34c9 acb8
00000240: 2dd7 cb38 b7bc b338 0bee ae37 c567 ffb8
00000250: 9823 cd35 6ffe aab8 4313 4539 fa5c d138
00000260: 377b 01b9 ab81 9ab8 a82c 1fb9 a3a8 0438
00000270: ce91 b238 8bfc 6bb8 76cb 3fb9 cc08 0839
00000280: 4d2d 5637 6424 8738 a667 0f38 5168 9eb7
00000290: 2306 5137 d6c8 a4b8 70c2 4bb9 c0f8 b437
000002a0: ea5f 0cb8 370b e838 8356 8638 c56e 6d38
000002b0: 69ad 8338 4ebd 71b8 a3da 1e38 12e9 e0b8
000002c0: 1b17 aa38 084b 6537 3eb9 b738 2cbd ebb8
000002d0: 5e9e dbb7 96c9 09b8 c661 5a38 b457 4937
000002e0: 0c34 18b8 44e3 45b8 322e 9bb8 42a0 0137
000002f0: 6bec 1638 3089 40b8 fed8 ceb8 2349 a138
00000300: fc76 96b8 2c1c 2aba 8880 e5b9 84a7 4239
00000310: be5b 8fb8 179b 103a 56c3 b13a 4509 efb8
00000320: 4bb7 6239 ef92 85ba bb16 28ba a6e7 9db9
00000330: 3613 1fba 3887 ac39 5ce2 c6b9 9afa 343a
00000340: c619 6eba 9896 9438 83d1 46ba 9965 473a
00000350: 5700 f438 4e94 4139 90a6 e6b9 f6eb 6eb7
00000360: 5d9d 7839 3bca 063a 3e69 d139 ee75 af38
00000370: 6ea7 68b9 d297 a239 afd3 373a f5ea 48ba
00000380: 8e55 02b9 993f 62ba 6f96 14ba 0927 9239
00000390: 78e0 feb8 b36e 3a3a db5f fb3a 57b0 05b9
000003a0: db87 a239 aac7 b0ba 99e2 5dba 7a89 c5b9
000003b0: 0422 50ba f6f2 013a ece3 00ba 6750 813a
000003c0: 3d45 a0ba 3ab9 2e39 8392 91ba e9cd 883a
000003d0: 1683 5139 47b0 5639 3d5a 03ba 6585 7a38
000003e0: a5e0 7639 ef05 2e3a 5ddd f939 4260 0539
000003f0: da40 8bb9 b098 dd39 8f36 663a 0437 81ba
9.468113e-05 0.0005245606 0.0003032178 -1.26481755e-05 8.763236e-05 -0.00033666732 -0.00072580914 0.000158442
-0.00012755928 0.00066900137 0.0004406755 0.0002290452 0.0003267493 -0.00018414232 0.00019167055 -0.00038256744
0.00054787437 5.2157742e-05 0.00043216543 -0.00042527617 -6.6088425e-05 -0.00016211485 0.0002501352 4.9759557e-05
-0.00022026282 -0.00030372257 -0.00026397817 -3.8826318e-05 0.00011115009 -0.00018174975 -0.00043669922 0.0005695319
-7.89368e-05 -0.00073286577 -0.00049471087 0.00020193355 -7.390352e-05 0.0006596655 0.001563908 -0.00014259905
0.00023795397 -0.0011727561 -0.00072852033 -0.00038506652 -0.0007142956 0.00037421842 -0.00044063758 0.00079759903
-0.0010265037 3.8512768e-05 -0.0008386274 0.0008905075 0.00013007947 0.00023577013 -0.0005563783 -5.792422e-05
0.00030805613 0.00059013127 0.0005069565 7.449412e-05 -0.00027968272 0.0003642613 0.00084810995 -0.0008848013
-0.0001309207 -0.0007072132 -0.00044075333 0.00031724272 -0.00013028481 0.0006050419 0.001900448 -6.575726e-05
0.00031880115 -0.0011218928 -0.00069158565 -0.00029523126 -0.0006540452 0.0005385667 -0.00039022457 0.0009963801
-0.0010093899 0.00023823265 -0.0011103974 0.0009951665 0.00025101315 0.00011848243 -0.000296207 0.00015674485
7.1351395e-05 0.00052940997 0.000388737 0.000116396455 -0.00020051427 0.0003900915 0.0007180191 -0.00076445984
3.7949362e-06 2.7445418e-05 1.4031764e-05 -8.756551e-06 3.5237642e-06 -4.267286e-05 -9.556782e-05 1.1832728e-05
-1.559265e-05 5.1399227e-05 2.8448854e-05 3.2250842e-05 3.0882526e-05 -2.7956872e-05 1.7535145e-05 -5.318071e-05
3.217053e-05 1.3732608e-05 3.5609937e-05 -5.7920814e-05 -1.2099626e-05 -1.9595114e-05 3.1348736e-05 1.2425304e-05
-2.227125e-05 -2.253905e-05 -4.58084e-05 7.0055657e-06 2.0596122e-05 -2.3503528e-05 -5.5816934e-05 3.591841e-05
8.538425e-06 7.124184e-05 4.7520352e-05 1.5072271e-05 5.653942e-06 -0.00012736172 -0.00016272425 4.7023088e-05
6.196961e-06 0.00015164557 7.462976e-05 0.00012823215 0.00013282841 -1.7556122e-05 7.069935e-05 -8.239076e-05
9.719874e-05 8.570536e-05 2.0853264e-05 -0.00012178676 1.5284049e-06 -8.153624e-05 0.0001879456 9.983215e-05
-0.000123483 -7.367445e-05 -0.00015180057 3.1628308e-05 8.51486e-05 -5.6263565e-05 -0.00018290975 0.00012973248
1.2765941e-05 6.44408e-05 3.4190387e-05 -1.8883644e-05 1.24588e-05 -7.857538e-05 -0.00019432022 2.1573505e-05
-3.3467928e-05 0.00011064711 6.405732e-05 5.6608365e-05 6.278867e-05 -5.763518e-05 3.7873757e-05 -0.00010724565
8.1105354e-05 1.3666933e-05 8.760624e-05 -0.00011240909 -2.618058e-05 -3.2851087e-05 5.206631e-05 1.2000954e-05
-3.6288096e-05 -4.7180118e-05 -7.3995805e-05 7.726312e-06 3.598297e-05 -4.5904133e-05 -9.8632634e-05 7.690701e-05
-7.17472e-05 -0.0006489183 -0.00043774047 0.00018563686 -6.83586e-05 0.0005516274 0.0013562243 -0.00011398135
0.00021621322 -0.0010190884 -0.00064120785 -0.00030117965 -0.00060682313 0.00032907142 -0.00037934154 0.00069037976
-0.000908282 7.08524e-05 -0.000758432 0.0007606387 0.0001163489 0.00018461162 -0.00043993117 -1.4240844e-05
0.00023709745 0.0005141829 0.00039941998 8.3666164e-05 -0.00022187617 0.00031012163 0.00070124393 -0.0007664406
-0.00012429638 -0.00086306926 -0.00056681683 0.00027876373 -0.000121534744 0.00071118324 0.0019178347 -0.0001274956
0.00031000268 -0.0013487239 -0.00084642466 -0.00037677196 -0.0007939639 0.00049571635 -0.00049167755 0.0009865881
-0.0012227666 0.00016662935 -0.0011106286 0.0010437343 0.00019980627 0.00020474299 -0.00050107 5.9728878e-05
0.00023544075 0.00066384574 0.0004765791 0.00012719727 -0.00026560464 0.00042266166 0.00087819336 -0.0009858315

exp_avg_sq f4 [32, 32]
00000000: a834 4136 6519 0938 7bb4 8337 2566 fe36
00000010: 502f 5f36 efe8 a737 ef6a 9337 bcb5 3a37
00000020: b119 8737 e9c1 0438 58c2 d037 9f7b 6c38
00000030: 9298 8337 5b26 9c36 a11e 2437 c044 e336
00000040: c248 1f38 e60e c438 c483 c337 f18a 4937
00000050: 27ea c736 3569 0937 53a7 2a38 4a1f 8a38
00000060: 6755 8437 969f 2438 45cb 0638 6b61 3238
00000070: b8ce 2638 dc08 6737 88fd f937 04cc 0438
00000080: 8533 ce36 5ac6 8338 c80b b337 88eb 1c37
00000090: 7333 9136 6e37 0538 e3ae ad38 6d3a 3f37
000000a0: e309 5138 7da4 7938 63fb 5838 8bfb 6a38
000000b0: ffa6 0538 eebe 8137 a43a 0d38 1360 0e38
000000c0: 977e 9e38 a7a6 b338 4337 e437 18cf 3038
000000d0: 55c0 2637 8433 7937 8699 4e38 e6e5 8538
000000e0: 5c70 dd37 f426 0d38 18c3 b038 4217 2638
000000f0: 3cb9 5538 cb0b 8837 4e0f 9138 a2ee 6a38
00000100: f2b6 fb36 174d 6838 3770 b837 3ded 3f37
00000110: e356 b536 027a 3938 6ada ea38 9f85 4c37
00000120: 7ca7 5f38 bf14 6738 b3f1 3f38 b8f6 5638
00000130: 74c5 1838 ca8f a737 80ed 2038 d0d3 3938
00000140: a8e5 8b38 910a 9938 c408 f837 c643 6338
00000150: 277f 5637 1c74 ab37 b908 5338 a6f6 7538
00000160: 2305 0938 449d f737 b2fd df38 4c87 0138
00000170: 8c73 3e38 76da 7f37 a95a e038 59c7 6738
00000180: ccec 4d35 4e57 1d37 bf90 a336 a6b4 6536
00000190: e32c a135 30c1 f436 1b56 a136 1861 9636
000001a0: fef7 9336 410a 0c37 5aa2 de36 382c a837
000001b0: 4be6 a436 f21d b935 7b5d 2636 7b82 0336
000001c0: 92b4 1537 598c 0c38 0cb5 e536 5db4 8236
000001d0: 8393 0936 3c98 1d36 faf0 7137 918e c237
000001e0: 6f98 a436 d1fc 7137 e137 0637 2103 8237
000001f0: b127 6c37 73f8 ab36 d169 0137 0a5f 2137
00000200: 0176 a035 4a35 8137 34ae c936 300e 5036
00000210: 2c7d b235 7965 1537 dd9a 5637 9580 9636
00000220: 94a1 3e37 909b 7837 429b 4d37 0ad9 b337
00000230: 63ed 2237 893f 2936 f4d5 dc36 3800 9836
00000240: 6716 ae37 1728 0e38 3859 2937 12b8 0c37
00000250: 1ac7 3236 c9eb 8a36 59cc 9437 7101 d537
00000260: 4dea ee36 71f5 4537 6c5a af37 8c50 7037
00000270: 877e 7137 03b4 8e36 d69d 7537 0678 6b37
00000280: 2656 9835 99fe 9f37 4397 2437 77cc e236
00000290: aebf 2c36 a132 7637 1b0e 0237 b8ae 1d37
000002a0: c939 e136 3cb7 8f37 f28a 4637 7f95 1c38
000002b0: 33e6 2d37 45b7 1236 4780 8f36 d661 4736
000002c0: 1977 9c37 657d 8638 dc57 7637 4f4e f636
000002d0: 81dc 9936 19f8 ad36 2a29 dc37 fdb9 3838
000002e0: 1209 1937 f0ce da37 ff35 9337 2cb1 ee37
000002f0: 89f0 dd37 4360 1c37 ae4e 7637 c38a a937
00000300: 0125 c236 63c0 7938 088a ba37 5748 3637
00000310: baad b536 15be 0338 1a3d 8638 f575 6137
00000320: a81c 2938 2bd4 7838 58e9 3c38 ad0f 9338
00000330: cd96 0838 8a74 5337 9c5c e237 88bd e837
00000340: 1d82 9038 437f e238 bcf2 1338 1cca 1038
00000350: 2864 3137 a4d5 7437 c1e0 7338 ab63 a738
00000360: 0919 ca37 c77f 2c38 a514 9c38 8229 4f38
00000370: 0a05 6e38 f026 9737 fcff 7738 f472 7138
00000380: 1208 0e37 458d a338 6743 ea37 4e88 7c37
00000390: 7444 0937 191c 6938 af3b de38 9142 9137
000003a0: 749d 4b38 ef8b ae38 c777 7138 f579 a938
000003b0: 7fee 3f38 c4e3 a137 8058 2038 daf0 2d38
000003c0: b774 df38 b60d 0239 494d 5d38 e78f 7e38
000003d0: 710f 8037 0298 ba37 8b7f 8338 ceac be38
000003e0: 3e24 0d38 f22a 5a38 7254 0d39 71eb 7538
000003f0: 8950 9738 d690 bf37 d5ed d438 847e 9e38
2.878989e-06 3.2686996e-05 1.570046e-05 7.581681e-06 3.325713e-06 2.001642e-05 1.757356e-05 1.1128777e-05
1.6105218e-05 3.1651845e-05 2.488603e-05 5.6381916e-05 1.5687463e-05 4.6536275e-06 9.782293e-06 6.7731307e-06
3.7976315e-05 9.348783e-05 2.330717e-05 1.2012883e-05 5.957921e-06 8.190332e-06 4.068699e-05 6.586181e-05
1.5775395e-05 3.9249273e-05 3.21374e-05 4.2529235e-05 3.9770006e-05 1.3770736e-05 2.9801173e-05 3.1661257e-05
6.145276e-06 6.2835126e-05 2.1343949e-05 9.3531635e-06 4.327326e-06 3.1761294e-05 8.281858e-05 1.13980905e-05
4.983869e-05 5.9519418e-05 5.1732535e-05 5.6024215e-05 3.18652e-05 1.5466907e-05 3.3671633e-05 3.3944914e-05
7.557606e-05 8.5664265e-05 2.7205451e-05 4.215454e-05 9.939152e-06 1.4853551e-05 4.9257207e-05 6.384756e-05
2.6397574e-05 3.3653298e-05 8.428673e-05 3.9599145e-05 5.095567e-05 1.6217955e-05 6.9169895e-05 5.601219e-05
7.5016806e-06 5.5384906e-05 2.1986763e-05 1.14397235e-05 5.4043353e-06 4.4221066e-05 0.00011198672 1.2190459e-05
5.3323325e-05 5.5094013e-05 4.576305e-05 5.125135e-05 3.6423517e-05 1.9974908e-05 3.836816e-05 4.4304703e-05
6.670813e-05 7.297577e-05 2.9567986e-05 5.4184136e-05 1.2784999e-05 2.0438856e-05 5.0314444e-05 5.864226e-05
3.266813e-05 2.9517927e-05 0.00010680723 3.0882e-05 4.540714e-05 1.5250049e-05 0.00010698039 5.526035e-05
7.6713036e-07 9.378256e-06 4.874629e-06 3.422881e-06 1.2008499e-06 7.2942566e-06 4.808198e-06 4.4816516e-06
4.4098115e-06 8.347038e-06 6.635016e-06 2.0047752e-05 4.9143905e-06 1.3792289e-06 2.479034e-06 1.959647e-06
8.923134e-06 3.350931e-05 6.8458085e-06 3.895299e-06 2.0500454e-06 2.3483435e-06 1.4420826e-05 2.319299e-05
4.9053265e-06 1.4423583e-05 8.000033e-06 1.5498665e-05 1.40759375e-05 5.1251204e-06 7.7136365e-06 9.618476e-06
1.1955273e-06 1.5402813e-05 6.0105467e-06 3.1002673e-06 1.3298463e-06 8.904718e-06 1.2791451e-05 4.4853173e-06
1.1362503e-05 1.4818172e-05 1.2255101e-05 2.143953e-05 9.711223e-06 2.5219945e-06 6.5814183e-06 4.5299785e-06
2.0752848e-05 3.3892775e-05 1.0093958e-05 8.3875075e-06 2.663996e-06 4.1401695e-06 1.7738132e-05 2.539225e-05
7.120229e-06 1.1799261e-05 2.0903732e-05 1.43238685e-05 1.4394179e-05 4.252886e-06 1.4639887e-05 1.4035037e-05
1.1349955e-06 1.9072833e-05 9.81038e-06 6.7591277e-06 2.574157e-06 1.4674531e-05 7.751888e-06 9.398609e-06
6.7122496e-06 1.7132254e-05 1.183407e-05 3.7332527e-05 1.0365201e-05 2.1862372e-06 4.2766655e-06 2.9710259e-06
1.8652108e-05 6.4129745e-05 1.4683199e-05 7.3404876e-06 4.5854254e-06 5.184684e-06 2.6245212e-05 4.4042234e-05
9.1216225e-06 2.6083988e-05 1.754891e-05 2.8454313e-05 2.645726e-05 9.320737e-06 1.4681062e-05 2.0210986e-05
5.7859584e-06 5.95454e-05 2.2237204e-05 1.0864888e-05 5.414445e-06 3.140986e-05 6.400999e-05 1.3438509e-05
4.0319428e-05 5.9325404e-05 4.504001e-05 7.012426e-05 3.256537e-05 1.2603714e-05 2.6984424e-05 2.7744813e-05
6.8906906e-05 0.00010800224 3.5273595e-05 3.4520504e-05 1.0573342e-05 1.4593275e-05 5.8145033e-05 7.981745e-05
2.4091934e-05 4.1126998e-05 7.442505e-05 4.9391303e-05 5.6748315e-05 1.8018734e-05 5.9127793e-05 5.7565936e-05
8.465739e-06 7.798759e-05 2.792636e-05 1.5052106e-05 8.181774e-06 5.5577697e-05 0.00010596902 1.7316344e-05
4.854561e-05 8.323031e-05 5.757043e-05 8.081264e-05 4.5760065e-05 1.9298757e-05 3.8229395e-05 4.1470725e-05
0.000106552085 0.00012402874 5.2762483e-05 6.069234e-05 1.526598e-05 2.2243712e-05 6.2703235e-05 9.0920934e-05
3.3650773e-05 5.2015246e-05 0.00013478266 5.8631824e-05 7.215242e-05 2.2836419e-05 0.000101532474 7.5575925e-05

exp_avg f4 [32]
00000000: 633d afba fb8d 323b a582 2d3b c63a 20b9
00000010: 525d d6b9 3c84 9bb9 0291 183b 2106 483b
00000020: 284e ecba b1e9 2aba 117a 1b3b 9a80 86ba
00000030: 7f5a 983a 4f81 043b 389c 813a f2c7 5db8
00000040: 8b36 fa38 b8ee ef38 7e62 d0ba 79ce 8039
00000050: 38ee 0bba fce4 1eb9 d47a 84ba 064e 153a
00000060: a7a8 ec3a 1a8f 10ba 861a baba 7fb5 40ba
00000070: fab6 01ba 684a 543a 3c59 07b8 63cd 5aba
-0.0013369735 0.0027245271 0.0026475575 -0.00015280684 -0.0004088679 -0.00029662426 0.002327979 0.0030521231
-0.0018028663 -0.0006519808 0.002372388 -0.0010261715 0.001162365 0.0020218675 0.0009888476 -5.287672e-05
0.000119310884 0.00011440873 -0.0015898494 0.00024567897 -0.00053379266 -0.00015153358 -0.0010107406 0.00056955253
0.0018055633 -0.0005514488 -0.0014198578 -0.0007351264 -0.0004948225 0.00080982456 -3.2269614e-05 -0.0008346645

exp_avg_sq f4 [32]
00000000: e356 5939 c541 c239 3933 fe39 ba69 a238
00000010: bfbd cc38 c024 2139 38e8 c239 7369 0f3a
00000020: 3d5a 3d39 e407 9638 1a31 cd39 ae5d 5a38
00000030: e27a ae39 c479 df39 8d10 8639 a681 1638
00000040: e6ca 2d37 93a9 6238 286d b538 d853 c638
00000050: 50fa b938 a0db 1237 fdf3 8838 5dcc 4937
00000060: 9d2f fe39 71f8 9a37 db13 8439 e91c d838
00000070: 8d50 7438 6ab3 af38 313e 5939 8502 3b39
0.000207271 0.00037051566 0.0004848482 7.744455e-05 9.762821e-05 0.00015367847 0.0003717558 0.000547073
0.00018058061 7.154027e-05 0.0003913723 5.2062496e-05 0.0003327942 0.00042624597 0.00025570803 3.588353e-05
1.03588445e-05 5.4040527e-05 8.6510845e-05 9.456993e-05 8.868112e-05 8.753414e-06 6.530432e-05 1.2028116e-05
0.0004848213 1.847392e-05 0.00025191795 0.000103050676 5.8249152e-05 8.378069e-05 0.00020717901 0.00017834648

exp_avg f4 [1, 32]
00000000: 6744 5bbb f957 0a3c 66c3 6c3c 70d2 2dbb
00000010: 8ab2 cc3b b624 17bb 4230 cf3b 7358 153c
00000020: ac61 d43b d8c6 9bbb 06ce f33b 0a02 a83b
00000030: e675 0f3c 7a5c df3b 143f d83b bc48 e1ba
00000040: 3b5d 33ba f117 c53b bbc1 183c 2bad 643b
00000050: 971a d3bb bddf 80bb 819d aa3b 6eac 0fbb
00000060: 4fb2 1f3c b5d1 a13b e418 ffb9 6353 32bb
00000070: d85d cfbb 068d e0bb 374c 82bb 00c0 43bb
-0.003345752 0.008443826 0.0144508835 -0.0026523136 0.0062468695 -0.0023062653 0.0063228915 0.009115326
0.00648137 -0.0047539286 0.0074403314 0.005127196 0.0087561365 0.006816444 0.0065993164 -0.0017187814
-0.00068422005 0.006014817 0.009323533 0.0034893255 -0.0064423787 -0.0039329217 0.005206764 -0.0021922844
0.009747102 0.004938329 -0.00048655935 -0.0027210347 -0.0063283257 -0.006852749 -0.0039763707 -0.002986908

exp_avg_sq f4 [1, 32]
00000000: 6a59 083b 1ac5 033b aeaa 9d3b 2e69 033b
00000010: 284d 973a db3c 913a 82ad a53a e8d2 233b
00000020: 8367 693a 0c9d fb3a d55b 043b dc7f 983a
00000030: 8c80 e63a 23ae 103b 97ef 7a3a 54f9 e53a
00000040: d23b 9039 5f7f 933a d8dc 013b 7ecc 423a
00000050: 39a8 c63a b434 3a3a 7795 c73a 1e02 bc39
00000060: f897 d23a ec51 b03a 3b28 053b 37ba 003a
00000070: 7153 193b 7b1b 5d3a 9bc8 cb39 73b8 083a
0.0020805248 0.0020106495 0.0048116064 0.0020051706 0.001154338 0.0011080758 0.001264021 0.0024997536
0.0008903669 0.0019196584 0.0020196338 0.0011634785 0.0017585917 0.002207645 0.0009572445 0.0017545619
0.0002751039 0.001125317 0.001981547 0.00074309844 0.0015156335 0.00071031903 0.0015227039 0.00035859732
0.0016067019 0.0013452149 0.0020318169 0.00049105607 0.0023395682 0.0008434576 0.0003886864 0.00052154734

exp_avg f4 [1, 32]
00000000: f692 01ba b11f bdba 3d31 6eba 73ed b4b8
00000010: 9f3e 2eb9 33f2 1638 17d5 90ba 3833 b2ba
00000020: 415f 743a b3fd 393a 1145 cdba 9d1a ca39
00000030: 4873 24b9 2fbc fbba f817 efb9 a4a3 363a
00000040: f274 15b9 3b82 c039 57ff 0c3a c293 cf39
00000050: e643 723a b8c4 8b3a a094 8c38 9144 8539
00000060: 13e5 29ba 309a bdb8 a3b9 2435 584f 04bb
00000070: d150 263a 0044 d33a d1d8 fbba 5b02 b439
-0.00049428584 -0.0014429 -0.00090863166 -8.627297e-05 -0.00016617261 3.5988352e-05 -0.0011049834 -0.0013595587
0.0009322055 0.0007094994 -0.0015660842 0.0003854827 -0.00015683204 -0.0019205863 -0.0004560349 0.00069671334
-0.00014253313 0.00036718123 0.0005378625 0.00039592205 0.0009241685 0.0010663485 6.703404e-05 0.00025418823
-0.0006480973 -9.040942e-05 6.13649e-07 -0.0020188894 0.000634444 0.0016118288 -0.0019214397 0.0003433403

exp_avg_sq f4 [1, 32]
00000000: 84d8 a139 2045 643a 06bb 1d3b 025c af39
00000010: 5c5c 483a acae 8039 8033 023a 5e12 8a3a
00000020: 037a 3a3a d673 423a 40a7 483a 3f40 273a
00000030: ba34 5b3a 3b82 483a 9a32 c739 c484 d839
00000040: 16a0 7d39 f21b 0a3a f8d3 923a 8afd 8139
00000050: c10e 3e3a f345 b639 6592 8e3a 78b7 fa38
00000060: 0928 5a3a 98d6 e139 8ade 9739 16de 8539
00000070: cade 973a b1d5 ac3a cd5d d339 99dc bc39
0.0003086963 0.000870781 0.0024067773 0.00033447152 0.0007643157 0.00024544203 0.00049667805 0.0010534038
0.0007113518 0.00074177736 0.0007654317 0.0006380118 0.0008362044 0.00076488004 0.0003799394 0.0004129765
0.00024187597 0.00052684464 0.0011202088 0.000247937 0.00072501233 0.0003476586 0.0010877369 0.00011955103
0.0008322006 0.0004307523 0.0002896677 0.00025533204 0.0011586782 0.0013186244 0.00040314943 0.00036022512
