omniisaacgymenvs/runs/Cartpole/nn/last_Cartpole_ep_25_rew_154.00226.pth (torch, 29535 bytes, 24 tensors)

value_mean_std.running_mean f8 [1]
00000000: 0ebc a468 92c3 0840
3.0954940963051802

value_mean_std.running_var f8 [1]
00000000: 23ad 3e8d 47a5 1640
5.661405760717829

value_mean_std.count f8 []
00000000: 0000 0000 0400 1941
409601.0

running_mean_std.running_mean f8 [4]
00000000: 883d a2ff 244d 723f 519c 83b7 042f b8bf
00000010: fb75 4faf e76a 923f 2259 7c69 5b38 a43f
0.004468102002774706 -0.09446744423222354 0.017985935282799997 0.039492470385243075

running_mean_std.running_var f8 [4]
00000000: de47 29b3 8f47 f83f 824e 9f42 5ac2 0d40
00000010: 3989 d4c2 de08 ce3f 83cc bbb5 5bc1 0840
1.5174710272299232 3.719898720251707 0.2346456958121708 3.0944132039963406

running_mean_std.count f8 []
00000000: 0000 0000 0800 0941
204801.0

a2c_network.actor_mlp.0.weight f4 [32, 4]
00000000: 19a1 c93c 8f14 3cbd 9465 04be fa96 ca3e
00000010: 7731 9f3e cded 4dbe ac7a 463f f562 0f3f
00000020: dbe4 073e 9ca9 50bd 3598 283f 236c 573e
00000030: 6cb4 5a3e 3af7 41be 44a0 05be f190 553e
00000040: 186b 693d e695 f6bd 2788 13be 15fc c93e
00000050: 4a89 48be 2160 81be 7e99 123e 6caf a8bd
00000060: 3c97 893e 29fc e8be 8f29 d23e d69e e5be
00000070: 4505 373e fc18 9fbe bf32 a3bd b6da 573e
00000080: c72c 473e 5af3 de3e 2d11 9fbc 88e2 c6bd
00000090: cb2d 9b3d 3012 eabd 08fd 003f 179f 403f
000000a0: d7c3 54bd 2b12 a3be c155 173f 20c2 b03e
000000b0: c056 a93e 9d8f 5c3e bf19 48bf 4a9a 97be
000000c0: cbee 88bd 880b 063f 4767 983c 4033 213e
000000d0: 5c86 203e f5e1 65bd ba05 9f3e 6ba6 e7be
000000e0: df1f a9be 7a78 a9be d2d7 013d 1c42 33be
000000f0: 149f 443e 688e 1abe b199 c03e 57a2 b0be
00000100: fd0d c8be 59b6 d0be a399 4c3f 46f6 093f
00000110: 2ef9 d73e 1d97 8c3d 487b 44bf ae08 12bf
00000120: 8afb bdbe f22f 85bd 192d c33e aed5 e13e
00000130: 4f88 14bd 46f4 98be a3f4 913e 032b 3ebe
00000140: 73b1 2f3e c69f 22bd 07de 993e 88fb 87be
00000150: 5e0c 6bbe 5349 d93d 5c83 2c3e 2ac4 96bd
00000160: 5c11 9a3e c48f 053f bcef d5be 03a8 bdbe
00000170: 3df7 e03e 2069 8f3e dd2f f4be 24a7 2bbf
00000180: 1acc 8fbe 772b 603e 5557 2e3e b797 0cbe
00000190: 78d5 bbbd c8b3 1abe 6c88 f5be 6072 b4be
000001a0: 57a5 05bf 4b64 fdbe 0cca 0d3f 2d57 723d
000001b0: 5887 b3bc a7c6 d7bd 2027 21bf eb2d c4be
000001c0: 0a2b 0dbe bfda 12be 3f29 eabe c3f3 e3be
000001d0: 71a9 273d ec36 a63b 54fb ca3d c105 eabd
000001e0: 1955 01bf 1150 f7be 24f0 213e c592 b9bd
000001f0: d49a c63e de4b f53a fdd4 333f 5d2b 033f
0.02461295 -0.045918044 -0.12929374 0.3956831 0.31092426 -0.20110245 0.7753093 0.5601037
0.13270895 -0.050943002 0.6585725 0.21037345 0.21357888 -0.18941966 -0.13049418 0.20856072
0.0569869 -0.120403096 -0.14407407 0.39450136 -0.19583622 -0.25268653 0.14316365 -0.08236584
0.26873195 -0.45504883 0.41047332 -0.44847745 0.17873104 -0.3107375 -0.079686634 0.21079525
0.19450675 0.43545038 -0.01941737 -0.09711176 0.07577094 -0.1142925 0.50386095 0.7524275
-0.05194458 -0.318498 0.59115225 0.34523106 0.33073997 0.21539159 -0.78164285 -0.296099
-0.06686171 0.52361345 0.018603934 0.15742207 0.15676254 -0.056123693 0.31059057 -0.45244154
-0.33032128 -0.3309973 0.031699963 -0.17505687 0.19201308 -0.15093386 0.37617257 -0.34498855
-0.39073172 -0.4076412 0.7992193 0.5389141 0.42182297 0.0686476 -0.7675061 -0.57044494
-0.37105972 -0.065032855 0.38120344 0.44108337 -0.036262807 -0.29873866 0.28506956 -0.18571095
0.17157535 -0.039703153 0.30052206 -0.2655909 -0.22953936 0.106096886 0.16846985 -0.07361634
0.3009137 0.52172494 -0.41784465 -0.37042245 0.43938628 0.28009892 -0.47692767 -0.6705191
-0.28085405 0.2189158 0.17025502 -0.1372975 -0.09171575 -0.15107644 -0.47955644 -0.3524351
-0.52205414 -0.4949058 0.55386424 0.05916517 -0.021915123 -0.10535937 -0.62950325 -0.38316283
-0.1378595 -0.14341258 -0.45734593 -0.44521913 0.040933076 0.005072465 0.09911218 -0.11426879
-0.50520474 -0.48303273 0.15814263 -0.09061197 0.3879 0.0018714627 0.7024687 0.5123804

a2c_network.actor_mlp.0.bias f4 [32]
00000000: 02ea c83d 2d26 95be 7719 30be af2f dc3d
00000010: aaff a73d 269c 483e 1451 9e3e 0f5c 03be
00000020: 4c00 453e e5c0 a8be 9911 a7be d542 6fbe
00000030: a4a2 ad3a cd3f 823d f58a 81be 6e7d 503e
00000040: eeef 84be 9ca5 99be ca75 13be 1571 703e
00000050: 2f83 52bd b5a8 1a3e d6e6 46be 2e3b 7abe
00000060: 19b4 443e 3284 ba3d 5191 123e 63e1 13be
00000070: b112 8ebe 47cf 293e 9e07 643e 90a2 99be
0.098102584 -0.29130688 -0.17197214 0.107512824 0.08203061 0.19590816 0.30921233 -0.12828086
0.19238394 -0.32959667 -0.32630613 -0.23365338 0.0013247323 0.06359825 -0.25301328 0.20360348
-0.25964302 -0.30009162 -0.14400402 0.23480637 -0.051394638 0.15103419 -0.19423994 -0.24436638
0.19209327 0.091072455 0.14313246 -0.14441447 -0.27748635 0.16582976 0.2226853 -0.30006838

a2c_network.actor_mlp.2.weight f4 [32, 32]
00000000: 723e 7c3e edb2 fbbd 6345 21be b23c 003e
00000010: 9518 313e d4d4 813d 868c 5abe f29a c2bd
00000020: 7f9d 123d fe4f 60bc c16a 2ebe db2c 10bd
00000030: be9e 87bd 5a28 96bd 2fbc 0b3e 72d5 bebe
00000040: 18cb 0b3e fb5d b73d 7293 993d c88c a5bc
00000050: f9ba 923d b74e 3d3e 98e9 433d 411f 5ebd
00000060: c7cd b23d 2d62 5c3c 58d7 3d3d 583a 99bd
00000070: d1a4 173e a768 2d3e 29be 343e a690 b9bd
00000080: 8d41 ee3d da54 37be 66c1 6d3c ef4a 0fbc
00000090: 4609 a1bd a7b8 31be 4198 133e 79f9 2e3d
000000a0: 3395 efbd ffba a9be 3294 88be 8eda ddbe
000000b0: 6877 e4bb 8d73 19bd cd07 2f3d f65b 9f3d
000000c0: 9000 c4be c34a b7be 77e6 d2bd 2f8a f93d
000000d0: 5493 f4bc 6ec7 f4bd e878 6cbe a3aa a0be
000000e0: 83fb 45be cec1 063c 52cb 77be 2fe6 4dbe
000000f0: 9896 cbbe 5dd2 933d ef32 11bc 71c0 07be
00000100: 4ae2 07be 633b fdbe 57bf 4fbe 0652 643e
00000110: d824 803d d5a3 183d 5e1a 863e c918 c23d
00000120: ae54 babd 513b fdbe 4696 f1be f496 d7be
00000130: 2d26 07bd 90fe 84bd f686 08be 0a19 55bd
00000140: a399 e3be 6eef c1be eb6e abbe 6a63 983d
00000150: 8fab 003d dc55 96bd 89fa 95be 95c3 b9be
00000160: bfd2 2fbe b4f5 12be 9f69 9ebe 5c51 a1be
00000170: 5c70 0dbe 2ff6 e6bd 0092 1fbd 659c 75be
00000180: 7858 563e 515c 6cbe 727c 883d c4da 87bd
00000190: 7c03 d53d ba92 723e f3cc 22be a38c 65bd
000001a0: a8fd 51bd e02c 24be 857e cabb 785f c9bd
000001b0: 3e79 153e cad2 b33c 0250 ea3d 89de 59be
000001c0: e5fa 38be 9008 a43d 4dd5 353d 39c9 67be
000001d0: 600d 16bc 3d83 e1bd 8d34 813c e35e 84bd
000001e0: 670d d0ba 5ef5 51bd adb1 7fbe ceab 243e
000001f0: 3624 593e 0d0f 74bc 0a17 463d 922a e4bd
00000200: bbb7 30be 18b9 afbe 01bc 1a3c 7dc2 febd
00000210: 3833 10be 9693 adbd 0d33 d5bc 75d2 0abd
00000220: 003c 60bd 98d7 95be cbe4 51be 625a 39be
00000230: f4ca 44be 748b 1e3e f58e 023d e4c0 8a3d
00000240: 4dc5 98be 4a18 79bd 7771 5d3d d2c0 2a3d
00000250: fdcb 1bbe 03aa bc3c 32bb bc3d fe70 7a3b
00000260: 39d8 423d 9aa9 2a3e 9cc4 1cbe 60d3 cf3c
00000270: 324d 26be 3b61 80bb aacd 4e3d 207b c8bd
00000280: b9c4 59bc ec20 47be e952 39be 9aed 45be
00000290: a920 9cbd f20e 073d 7c05 7ebc 5c19 abbc
000002a0: 65f3 40be 1d7a a1bd 0e70 2b3d c63c b1bd
000002b0: 657d 7e3c 7819 e1bc 0f3f 0ebe d76b 41be
000002c0: 4e35 2a3d 8eef bebc 711b 8bbd 1c93 31be
000002d0: 0b00 28be 7930 90bd 4688 403e f41a c2bd
000002e0: b821 55bd 6795 4d3d 278e 653d 2c63 b13d
000002f0: 707d 333e a864 9a3d e3f9 b8bd f0b5 c23b
00000300: d3a1 7b3d d855 08be 9ab0 9fbd d118 e03d
00000310: c423 40bd 0de3 11be 7df1 95bb ba09 9b3c
00000320: ca2d 97bd 1a20 1dbe 2663 8dbd 5197 c1be
00000330: 9cf0 5dbe 32e4 a13c 07fb cc3d 40ce 213e
00000340: f5cf a6be 8b23 77be ab22 45be 5a5c 2cbb
00000350: cb75 773d 8b3a d43c d657 52bd 78e9 bbbe
00000360: 08f8 173d 889e 76be 7a6b 9fbc 08c3 dbbc
00000370: e197 70be 2fef e93d 00c4 6cbe 0638 54be
00000380: c482 e23d 7e04 6cbe d066 08bd 3ceb ca3c
00000390: 5998 873d fd51 e1bc a606 103e facc 31bd
000003a0: 6bf6 16be 87a2 80be c1a7 1bbe b53d a4be
000003b0: b9b5 7abd 033c e93d b912 36bd 2b3a ad3d
000003c0: d3a8 a2be ff66 c5be 0b9e 9abe e560 04be
000003d0: 65fd 243a 3b53 a7bd a8e6 94be 984c 88be
000003e0: 28cf 7b3d 8526 97bc ca4f b7bd 4fea 5ebe
000003f0: ff02 8ebe aa2c ae3d 73a5 87be 1674 9ebe
0.24633196 -0.12289987 -0.15749125 0.12523153 0.17294534 0.06339422 -0.21342668 -0.0950221
0.03579473 -0.013690947 -0.17032911 -0.035199028 -0.066220745 -0.07331915 0.13646005 -0.3727222
0.13651693 0.08953472 0.07498826 -0.020208731 0.071645685 0.18487059 0.047830194 -0.054229025
0.08730655 0.013451141 0.046347946 -0.07481831 0.14808966 0.16934453 0.17650665 -0.090607926
0.116335966 -0.17903462 0.014511442 -0.008745893 -0.07863097 -0.17355596 0.14413549 0.042718384
-0.11698379 -0.3315048 -0.26675564 -0.43330806 -0.006972242 -0.037463713 0.04273205 0.07781212
-0.3828168 -0.35799226 -0.10297864 0.121845596 -0.029855408 -0.11952101 -0.23092997 -0.31380185
-0.19334225 0.008224918 -0.24198654 -0.2010734 -0.3976333 0.07217858 -0.008862241 -0.13257004
-0.13269916 -0.4945937 -0.20287834 0.22296914 0.062570274 0.037265617 0.26191992 0.09477384
-0.090981826 -0.49459317 -0.47184962 -0.42107356 -0.03299539 -0.064938664 -0.13332734 -0.052025832
-0.44453153 -0.37877983 -0.3348306 0.07440837 0.03141361 -0.07340595 -0.29292706 -0.3628203
-0.17170237 -0.14351541 -0.30939957 -0.31507385 -0.13812393 -0.112774245 -0.038957596 -0.23985441
0.20932186 -0.23082091 0.06664361 -0.06633523 0.10401055 0.23688784 -0.15898494 -0.056042325
-0.051267296 -0.16032743 -0.006179633 -0.09832662 0.14597031 0.021951098 0.114410415 -0.21276297
-0.18064459 0.08009446 0.044392873 -0.22635354 -0.009158462 -0.1101136 0.015772128 -0.06463411
-0.0015873135 -0.05125939 -0.24970122 0.16081163 0.2120522 -0.0148961665 0.048361816 -0.11140932
-0.17257588 -0.34320903 0.009444238 -0.124394394 -0.14082038 -0.084754154 -0.02602532 -0.033892114
-0.05474472 -0.29266047 -0.20497434 -0.18100885 -0.19218045 0.15482885 0.031874616 0.06775072
-0.2983803 -0.06081418 0.054063287 0.041687794 -0.15214534 0.023030287 0.09215392 0.0038214321
0.047569487 0.1666626 -0.15309376 0.025369346 -0.16240385 -0.003917841 0.050489105 -0.09789109
-0.013291531 -0.19446152 -0.18098034 -0.19328919 -0.07623417 0.032973237 -0.015504237 -0.020886116
-0.18842848 -0.078846194 0.04185491 -0.0865417 0.015532826 -0.027477965 -0.13891242 -0.18888794
0.04155474 -0.023307588 -0.067923434 -0.17341274 -0.16406266 -0.070404954 0.18801984 -0.09477797
-0.05203411 0.05019131 0.05604377 0.08661494 0.1752832 0.0753873 -0.09032037 0.005942099
0.061433624 -0.13313997 -0.07797356 0.10942233 -0.04690911 -0.14246769 -0.004575907 0.018925536
-0.073817804 -0.15344277 -0.06903677 -0.37810758 -0.21673816 0.019762132 0.10008817 0.15801334
-0.32580534 -0.24134652 -0.19251506 -0.0026300163 0.06041507 0.025906822 -0.051353298 -0.3670156
0.037101775 -0.24083912 -0.019460429 -0.026826397 -0.23495437 0.11422574 -0.23121643 -0.20724496
0.11060098 -0.23048589 -0.033301175 0.024770372 0.06620855 -0.027504915 0.14065036 -0.04340837
-0.14742438 -0.25124 -0.15200712 -0.3207833 -0.06120846 0.113883995 -0.04445145 0.0845836
-0.31769428 -0.38555142 -0.30198702 -0.12927587 0.0006293862 -0.08170172 -0.29082227 -0.26620936
0.061476856 -0.018450985 -0.089507654 -0.21769069 -0.2773666 0.08504613 -0.26493415 -0.30947942

a2c_network.actor_mlp.2.bias f4 [32]
00000000: 39d2 4abe 5cad 0a3e 9d43 643e 2511 54be
00000010: 204d 163e 64f3 50be 853a 203e 290e 1e3e
00000020: a268 eb3d 2edc 4ebe 1315 263e 6f81 343e
00000030: 2de8 0e3e d829 3d3e 2683 243e 8ac4 58be
00000040: 2a33 18be 452d f73d 024b d63d 3de0 353e
00000050: 1f73 6ebe c927 0abe c33d 333e 9a24 11be
00000060: c99a 153e 46ba 573e aa43 4bbe d1a4 2bbe
00000070: cdbb 83be fa0e a53d 9513 e4bd f4a1 3ebe
-0.19806756 0.13542694 0.22291417 -0.20709665 0.14677858 -0.20405346 0.15647323 0.15435089
0.114945665 -0.2020118 0.16218977 0.176275 0.13955756 0.18472993 0.16065654 -0.21168724
-0.14863268 0.12069181 0.10463525 0.17761321 -0.23286103 -0.1349174 0.17504029 -0.14174119
0.14609827 0.21067151 -0.1985003 -0.16762091 -0.25729218 0.08059497 -0.111365475 -0.18616468

a2c_network.value.weight f4 [1, 32]
00000000: 3ef5 0dbe 09a3 913e 2e3a 963e c38d 1fbd
00000010: 45c6 61bc a882 27bd 01d3 7f3e 4a0e a13e
00000020: ce95 9dbd 1da1 a4bd 5bec 733e 53e2 afbd
00000030: 4f54 323e 4043 5e3e ee4a 2a3e e537 efbc
00000040: dafc 6c3c 2d58 903d 00ae 04be 5c22 913d
00000050: c890 8fbd 54d5 29bd c384 d0bd 9777 7dbc
00000060: e62f 7b3e e3bd 29bd 26f7 07be d103 bbbc
00000070: ba90 64bd 8a1e 5a3e f312 513d e4cf 60bd
-0.13863084 0.28444698 0.29341263 -0.038953554 -0.013780181 -0.040896088 0.24982835 0.31456214
-0.076945886 -0.080385424 0.23820631 -0.0858809 0.17414974 0.21705341 0.16630146 -0.029201457
0.014464581 0.07048068 -0.12957 0.07086632 -0.07010037 -0.04146321 -0.10181572 -0.015470407
0.2452999 -0.041440856 -0.13277873 -0.022828968 -0.055802085 0.21300712 0.051043462 -0.05488576

a2c_network.mu.weight f4 [1, 32]
00000000: 4071 aa3d c779 eabd 3901 5c3e b81f 2d3d
00000010: 6d8e 0d3e ee29 443d bca4 a1bd 5394 083c
00000020: 0f8c 2e3e 8281 423d 8f16 5dbe 9d3a 863d
00000030: ad24 8a3e 568a 8fbe 73a1 2d3e a732 bbbc
00000040: a2d6 473d 070d f33d 64fc 893d d2b7 e43a
00000050: 8ab0 0a3e 407f 6f3c 940b 793d 2da9 cc3d
00000060: 54e9 863e 8f2d e13c beaf 093e f2b6 2ebe
00000070: 2d35 b73d 2c83 afbd b205 9cbe 2c3f b83d
0.08322382 -0.114490084 0.21484841 0.042266577 0.13823862 0.04789155 -0.07892749 0.0083361445
0.17045616 0.04748679 -0.21590637 0.06554148 0.26981106 -0.2803523 0.16956119 -0.022851301
0.048788674 0.11867719 0.06737593 0.0017449802 0.13543907 0.014617741 0.060802057 0.09993205
0.2634989 0.027487544 0.13445947 -0.17061976 0.08945689 -0.08569941 -0.30473095 0.08996424

exp_avg f4 [32, 4]
00000000: 1aec feb9 44c5 9d38 cc96 e9b7 240f 06b9
00000010: dbef 8d3a bc48 e5b8 b84e 09ba bf86 86ba
00000020: 2c27 51bb eadd 06ba 874b 04ba 5b96 f739
00000030: 24d5 1cba d39e d3b8 42a8 b539 b414 a639
00000040: 1a06 dc39 c56a 2438 c68a b237 560a 9cb9
00000050: 014c 6eb8 f81a 0db9 3942 13b9 632f a3b9
00000060: 9937 fa37 9569 03ba e7f0 2c39 00fb 203a
00000070: d585 42ba 394d 84b9 8600 3b37 45ad 3cb8
00000080: 06f5 9bba c186 0dba caae 2839 72ee 87b9
00000090: 01a5 e13a 70f0 173a 81b7 dfb9 7dd5 a4ba
000000a0: 8004 4a3a 5194 053b 6690 fcb9 503d f0b9
000000b0: 3e91 4b3a 7ca0 d637 e246 2eb9 7370 5538
000000c0: f9cd 23b9 3f32 f9b8 2873 9eb8 549d 84b9
000000d0: 750d 1839 a942 1f39 13e7 55b9 0281 7239
000000e0: 475f 993a 61ad abb9 d6de efb9 5fae dcba
000000f0: cef4 643a 2540 5b39 2cb9 cdb9 5ffa a5b9
00000100: 5804 05bb b5d1 ec3a 20cd b9ba f196 29bb
00000110: 92b5 8e3a 623b 373a 91b3 42ba 0a29 2d3a
00000120: 33a6 10bb 9c11 573a 4d0a 6fba 628a 89ba
00000130: 3a14 42ba 9d72 42b8 77cc 173a ad53 a039
00000140: 6306 9eb9 2ca3 0239 73d8 ba3a 506b 6a3a
00000150: 2657 1cba 42d4 dab8 5500 e9b9 2e1e fab9
00000160: 4702 af3a 96c9 113a 34a9 2cba 7385 203a
00000170: 398f 1c3a 06b1 7339 5845 dcb9 87cc 4a3a
00000180: af69 50ba a754 1839 ba17 00ba 8495 4aba
00000190: a631 413a c459 a7b8 b1b0 23ba 2551 71ba
000001a0: 668d 93b9 4e7c aa39 fb44 44ba 572c c8ba
000001b0: 7395 d339 81c2 b139 b99a 7bba 98aa 96ba
000001c0: e115 f6ba 3a63 5039 c3a0 42ba d3de 84ba
000001d0: d59b a2ba 3cf8 80b8 d63d 7d39 de53 8839
000001e0: 297d 8839 a9b5 58b9 6e35 43ba f496 efba
000001f0: c7c9 da3a 5915 76b9 a65c d2b9 611c 5aba
-0.00048622565 7.523087e-05 -2.7845985e-05 -0.00012784876 0.0010828929 -0.00010933119 -0.0005237865 -0.0010263546
-0.0031914217 -0.0005144762 -0.0005046655 0.00047223535 -0.0005982688 -0.00010090847 0.00034648372 0.00031677412
0.00041966216 3.9200084e-05 2.1283875e-05 -0.0002976234 -5.6814406e-05 -0.00013456855 -0.00014043682 -0.0003112509
2.9828212e-05 -0.00050129864 0.00016492941 0.00061409175 -0.0007420455 -0.00025234537 1.114619e-05 -4.4984063e-05
-0.0011898584 -0.0005398803 0.00016086843 -0.00025926862 0.0017215313 0.0005796021 -0.00042670596 -0.0012575831
0.0007706359 0.0020382593 -0.0004817277 -0.0004582205 0.0007765478 2.558552e-05 -0.00016620339 5.0887884e-05
-0.00015621622 -0.00011882604 -7.5554766e-05 -0.0002529422 0.00014500863 0.00015188254 -0.00020399345 0.00023126978
0.0011701368 -0.0003274484 -0.00045751658 -0.0016836635 0.00087339885 0.00020909363 -0.0003923861 -0.00031657793
-0.0020296779 0.0018067869 -0.0014175512 -0.0025877322 0.0010887852 0.0006989745 -0.000742727 0.00066055416
-0.0022071719 0.0008204223 -0.00091186614 -0.0010493512 -0.00074035267 -4.6359946e-05 0.00057906605 0.0003057992
-0.00030140867 0.00012458552 0.0014255181 0.00089423824 -0.0005963914 -0.00010434586 -0.0004444147 -0.000477062
0.0013352119 0.00055613497 -0.00065864925 0.0006123401 0.00059722696 0.00023240232 -0.00042013335 0.00077361654
-0.00079503184 0.00014527385 -0.0004886348 -0.0007727968 0.0007369764 -7.979901e-05 -0.00062442856 -0.0009205512
-0.00028143375 0.0003251754 -0.00074870855 -0.0015272003 0.00040356404 0.00033904988 -0.00095979456 -0.0011494933
-0.0018774831 0.0001987339 -0.0007424468 -0.0010137208 -0.0012406061 -6.149753e-05 0.00024150996 0.00026002427
0.00026033193 -0.00020667039 -0.00074466213 -0.001827924 0.0016692214 -0.00023468341 -0.0004012335 -0.0008320269

exp_avg_sq f4 [32, 4]
00000000: 5217 4338 171c 0238 bab6 9338 0a29 6538
00000010: b9f7 9239 b832 7239 1150 5d39 d327 2c39
00000020: 2165 e337 f586 0d37 d34d 1137 1690 0537
00000030: b1d6 4138 9156 1438 5bfb d938 cda8 a438
00000040: b08e aa37 d209 4137 da64 d137 ff86 a637
00000050: 4076 8737 691d fc36 d1dc 4737 eb5e 3637
00000060: 4b46 9639 e77c 3039 db75 c539 0bb9 9d39
00000070: d859 f337 5201 8237 286b 8037 39ba 7e37
00000080: 10ec d338 e4d8 8438 5be1 e238 73d7 e338
00000090: f3a4 db39 5b62 d739 35b9 dd39 f1a3 9a39
000000a0: 14ee 9a39 4ae2 6039 7fad 2439 9a29 fc38
000000b0: 27bc c139 a836 9c39 2a6b b239 2e1d 9839
000000c0: 1a41 3738 90ee 0f38 23d6 d937 bc0b d337
000000d0: af49 3b38 1073 f237 1d1e de38 e527 a638
000000e0: f87e 0538 46d7 ce37 524e 8937 b768 5837
000000f0: 4b64 fc38 cf74 7238 eabf 5b39 a0a3 3839
00000100: a9ec 343a adf9 103a 613d af39 f9e2 8839
00000110: 36f6 dc39 c394 b339 27bc ef39 8b81 ae39
00000120: df32 5539 3144 2639 10ae b838 1aa4 9838
00000130: e405 1038 2fde 8237 2229 6f38 af56 4f38
00000140: 19d5 1037 6f83 6b36 df54 1b37 3ac8 0e37
00000150: 4678 0438 63c4 a537 a167 b737 5541 ce37
00000160: c72e 5239 99f8 3e39 7a44 1d39 a7af 1e39
00000170: c1ec ee39 4550 bb39 f02a e339 9ded ae39
00000180: 55db b538 61e4 6b38 545b 1238 afcd 1f38
00000190: c7b0 4c38 9515 0c38 2eb4 4238 c720 1038
000001a0: 1b81 bf38 efc4 9238 c25c 0d38 15b9 ef37
000001b0: 42a9 1f39 afa9 ff38 a280 f838 6bf8 c038
000001c0: 384c 043a e0c4 aa39 1149 153a a66e df39
000001d0: 1309 7c37 91f6 1a37 7a4c 6337 d3d2 0437
000001e0: 3079 a438 fe69 6a38 665e a737 d1c5 c637
000001f0: 6e14 7b39 d260 5639 02a6 3b39 eb9e 1439
4.651334e-05 3.1020576e-05 7.043542e-05 5.4636075e-05 0.00028031858 0.00023097813 0.0002110603 0.00016418034
2.71076e-05 8.435677e-06 8.660793e-06 7.960965e-06 4.6214733e-05 3.536657e-05 0.00010394185 7.851571e-05
2.0332023e-05 1.1505983e-05 2.4961704e-05 1.9851605e-05 1.6148319e-05 7.513609e-06 1.1912737e-05 1.0870145e-05
0.00028662602 0.00016831198 0.00037662577 0.0003008324 2.9009694e-05 1.5497822e-05 1.5308688e-05 1.5182938e-05
0.00010105234 6.3346495e-05 0.000108184955 0.00010864334 0.00041893832 0.00041081276 0.00042290395 0.00029495315
0.0002955055 0.00021446604 0.00015704891 0.00012024045 0.00036952013 0.0002979536 0.0003403065 0.0002901344
4.369123e-05 3.4316035e-05 2.5968131e-05 2.5158624e-05 4.4652897e-05 2.8902228e-05 0.00010591394 7.922928e-05
3.182792e-05 2.4657358e-05 1.6368143e-05 1.2898984e-05 0.000120349774 5.7806083e-05 0.00020956961 0.00017608562
0.000690172 0.00055303687 0.00033424332 0.0002610905 0.0004214511 0.00034252377 0.00045725817 0.00033284383
0.00020332214 0.00015856397 8.8062254e-05 7.278491e-05 3.433776e-05 1.560067e-05 5.702035e-05 4.9433376e-05
8.6326845e-06 3.5094233e-06 9.2584805e-06 8.510478e-06 3.1583266e-05 1.9760982e-05 2.1863556e-05 2.4587536e-05
0.00020044587 0.00018212422 0.00014998196 0.0001513349 0.00045571293 0.00035727225 0.00043328805 0.00033364902
8.671606e-05 5.624106e-05 3.489417e-05 3.8100112e-05 4.8802027e-05 3.33987e-05 4.642101e-05 3.43628e-05
9.1316375e-05 6.998504e-05 3.3703407e-05 2.8577206e-05 0.00015226475 0.000121909536 0.00011849521 9.201545e-05
0.0005046758 0.0003257161 0.00056947867 0.00042616314 1.5022483e-05 9.2365235e-06 1.354806e-05 7.916899e-06
7.842702e-05 5.588866e-05 1.9951909e-05 2.3695555e-05 0.00023944836 0.00020444699 0.00017895552 0.00014173581

exp_avg f4 [32]
00000000: 43c0 3fba 1811 5bbb 86cb 8cb9 82b8 2439
00000010: 4657 94b9 08de c5b9 36b9 bf3a 66db d839
00000020: 11a2 f0ba 681a 5dbb 350c 1bbb 62eb b7ba
00000030: 4eda 89ba 0aa0 6339 cc8c 35ba 25a2 9d38
00000040: 2b72 97bb 67e9 baba 191f 32bb ceee c2b9
00000050: a4e3 edb8 3ac2 03ba 4acb c9ba 60c2 2ebb
00000060: 828c a4ba c442 6eb8 15fb 15bb bf13 8db9
00000070: 3895 3dba 67bd 79b9 4b1f 05bb 611e 52bb
-0.0007314721 -0.0033426937 -0.00026854518 0.00015708993 -0.00028293784 -0.00037740194 0.0014627341 0.00041362195
-0.0018358846 -0.0033737663 -0.00236584 -0.0014031942 -0.001051733 0.00021708026 -0.00069255824 7.516545e-05
-0.004621764 -0.0014260233 -0.002717918 -0.00037180487 -0.00011343442 -0.00050261954 -0.0015395668 -0.002666615
-0.0012554082 -5.6805802e-05 -0.0022885252 -0.00026908328 -0.0007232013 -0.00023817048 -0.0020312842 -0.0032061564

exp_avg_sq f4 [32]
00000000: f373 3138 629e 1c3a 7a9d c337 cc6f 7738
00000010: 3db2 af37 9797 c537 40d0 a139 94b9 5538
00000020: bcdd 2439 f5b4 623a a4c8 013a 0782 1b3a
00000030: 7ab8 b438 99a4 ea37 8b02 4238 8ba9 f138
00000040: 380c a33a 19d7 353a 57c1 b739 aa7c f737
00000050: e2aa 2337 6b7a 7738 5dc1 d639 8e20 473a
00000060: 93f9 1e39 3761 b138 bdf5 4339 9b3b 8939
00000070: f643 353a 7d05 8a37 a748 0e39 0f53 fd39
4.2308075e-05 0.00059745286 2.3319142e-05 5.8993508e-05 2.0944624e-05 2.355482e-05 0.0003086347 5.095599e-05
0.00015722861 0.00086481805 0.0004950857 0.00059321563 8.61743e-05 2.797162e-05 4.6255573e-05 0.00011523355
0.0012439555 0.0006936654 0.0003504853 2.9502746e-05 9.755344e-06 5.90034e-05 0.00040961328 0.00075960986
0.00015161028 8.4581254e-05 0.00018688194 0.00026175086 0.0006914729 1.6453438e-05 0.0001356924 0.00048317804

exp_avg f4 [32, 32]
00000000: 3e9c d5b9 c219 6039 5eb6 2439 735e d3b8
00000010: f7eb c2b9 c997 e1b8 838a ba37 91b0 4cb7
00000020: ef59 8bb7 fca5 98b9 3025 0ab8 cd41 1d3a
00000030: 0768 5ab9 abb7 9638 5fc1 7c39 9dc3 eb38
00000040: b5a0 d1b9 8105 063a 43ca fbb9 45ec 0c38
00000050: 19ee 0639 e737 05b9 a9d5 cd39 8a41 9d39
00000060: 9d4f 00b9 63ee 103a ecd3 77b9 15a2 3c3a
00000070: 48c0 3a3a 5cdf e437 aa2b 44b9 ecc0 9e39
00000080: 4f12 6339 cac0 dcb9 570e 10b8 ad46 03b9
00000090: a587 3839 97eb 203a 25a4 9e39 912c 3eb9
000000a0: b149 87b9 9c45 5b39 4dda e739 456d 54ba
000000b0: 1968 3937 b16c 20b7 068e 57b8 0030 de38
000000c0: 964a 963a 40d6 3fba 7dd7 5a3a 28a0 e539
000000d0: 0fad 09b9 ca83 003a 1c51 47ba da9c 2cba
000000e0: 9772 043a 5e1b 2eb9 3109 9f3a fa5e ffb9
000000f0: 96e2 0aba 3f59 6338 c959 6a3a 4455 46ba
00000100: a083 d339 44a5 2639 711b 1a39 c312 113a
00000110: 24e1 f239 9022 4839 31de 4d3a 0cbf 4339
00000120: 075c 323a 9386 dc38 9a0b 0139 c7db 14ba
00000130: a363 9738 9ffd 46b8 c6ce 3eba c1fe d139
00000140: 906e a538 82c1 80ba 5e68 81b9 609a e539
00000150: 3ca0 92b8 1910 9eb8 8050 37b9 2ca7 47ba
00000160: 9253 4db9 2945 d5b9 26d9 0039 1639 48ba
00000170: 6e3c 77ba f6a3 6339 d29f c6b8 eaf9 2a39
00000180: 5649 e3b7 8414 f635 c6d8 0eb8 ab65 0238
00000190: 1d73 82b7 ed43 acb8 086a eeb8 62b6 f437
000001a0: 5bc9 0138 4a8c abb8 ff13 b5b8 9ec2 4b39
000001b0: 349e 85b7 c583 97b8 efa2 1137 62ea c1b8
000001c0: c63f 6db9 61be 1439 05b9 36b9 6ec2 acb8
000001d0: ee54 83b8 6099 abb8 1c07 0c39 612d 9538
000001e0: ecd3 b6b8 898f 0d39 c176 45b9 8dc7 4439
000001f0: 142f 3639 00d2 c6b7 5650 01b9 f27d 3238
00000200: 3d1d 7738 fdaa 2eb8 c5c1 4db9 da43 b639
00000210: ef1f d338 5834 24b9 de4d 4639 eab2 a938
00000220: 73e6 0b3a af98 45b9 0508 a0b9 547c 9a3a
00000230: 6862 52b8 61e3 8bb7 c856 87b9 6f0c c737
00000240: 6a89 bdb9 1561 9c3a 9a73 ceb9 403f acb8
00000250: 06e9 1bb9 ed97 7db9 0aac 7b3a 3439 853a
00000260: d2a3 8bb9 f414 373a 7505 afb9 e4f4 513a
00000270: 4ca4 0b3a f6c8 bb38 8b35 8ab9 5bb2 6638
00000280: c15e a0b8 60ef 37b8 2540 8db8 2d7f 2338
00000290: 1c6a 68b8 132f ccb8 366c 6eb8 3f02 2a38
000002a0: 13a6 3838 c54f 35b9 7683 0db9 1185 8d39
000002b0: 44f5 88b8 19b6 12b8 e0e6 b337 7fb4 69b8
000002c0: 6f1a b2b9 60b9 6b39 7069 93b9 c7b4 99b8
000002d0: 5310 1bb8 c712 f7b8 5c0c 4939 92a5 1339
000002e0: 97ec 04b9 b663 5739 1cf4 86b9 4b86 8c39
000002f0: 61cd 8139 5494 82b7 d5e2 27b9 4157 1b37
00000300: 6227 5e39 2a45 86b9 a925 0c38 5f70 80b8
00000310: a17f 3c39 b859 093a c76d a639 91c4 12b9
00000320: fcc2 1eb9 006a 8539 867a df39 b4ab 27ba
00000330: 90d6 b737 fabd 2b36 640b ddb8 65e0 0339
00000340: 2cf8 893a aebc 16ba 10c0 3f3a 6b9b d339
00000350: 4ab2 e3b8 1892 d639 6dac 1aba 5e16 05ba
00000360: 252a d939 adeb 1ab9 56ed 8a3a ea38 dcb9
00000370: cf14 feb9 3747 9238 21dd 413a 1278 0eba
00000380: 2a74 8b39 d860 88b9 8c0c 8c37 cc54 0e39
00000390: eedd 8b39 55f6 f539 9dcd 123a ed2a 45b8
000003a0: 1c5c fd38 7f6b f738 26da a339 4f88 3bba
000003b0: 46be 3037 bace 6137 c516 b2b9 7f31 8b39
000003c0: 3e23 3b3a 0916 56ba 4021 c939 6883 f739
000003d0: 8094 b6b8 e1ca 9039 3173 0bba 3b93 32ba
000003e0: eb93 7a39 a281 79b9 ab1d 503a 0b1b 1aba
000003f0: 3110 37ba 97e2 0a39 29fa 043a ed20 f9b9
-0.00040742935 0.000213719 0.00015708196 -0.000100788566 -0.0003717837 -0.00010757108 2.2237427e-05 -1.2200458e-05
-1.661197e-05 -0.00029115367 -3.2936397e-05 0.000599888 -0.00020828853 7.186768e-05 0.00024104629 0.00011242109
-0.00039983322 0.00051125145 -0.00048025147 3.3598644e-05 0.00012867934 -0.00012704694 0.00039259836 0.00029994204
-0.0001223669 0.00055286865 -0.00023634703 0.0007195783 0.0007123989 2.7283728e-05 -0.00018708283 0.00030279846
0.00021655227 -0.0004210531 -3.434563e-05 -0.00012519462 0.00017598139 0.0006138621 0.00030258406 -0.00018136414
-0.0002580411 0.00020911399 0.000442224 -0.00081034406 1.1051096e-05 -9.56205e-06 -5.1392264e-05 0.000105947256
0.001146632 -0.00073179975 0.00083481503 0.0004379761 -0.00013129807 0.00049024506 -0.0007603334 -0.0006584652
0.00050524756 -0.00016604128 0.0012133477 -0.00048708153 -0.0005298046 5.4204134e-05 0.00089397706 -0.0007565806
0.00040343124 0.0001589256 0.00014696807 0.0005534107 0.0004632558 0.00019086362 0.00078532385 0.0001866782
0.0006803874 0.00010515484 0.0001230672 -0.00056785013 7.2188e-05 -4.744308e-05 -0.00072787364 0.00040053393
7.888407e-05 -0.0009823295 -0.00024682557 0.00043793302 -6.9916685e-05 -7.5370255e-05 -0.00017482229 -0.0007616158
-0.00019581456 -0.00040678054 0.00012287925 -0.0007637901 -0.0009431307 0.00021709487 -9.4711446e-05 0.00016305564
-2.7094658e-05 1.8334399e-06 -3.4057324e-05 3.10891e-05 -1.5550811e-05 -8.214251e-05 -0.00011368474 2.9171995e-05
3.0943524e-05 -8.180046e-05 -8.634477e-05 0.00019432089 -1.5928505e-05 -7.224785e-05 8.680609e-06 -9.246614e-05
-0.00022625839 0.00014185302 -0.00017425798 -8.2378145e-05 -6.262386e-05 -8.182484e-05 0.00013354089 7.113326e-05
-8.71791e-05 0.00013500279 -0.00018831623 0.00018766355 0.0001737441 -2.3701228e-05 -0.00012332326 4.2555803e-05
5.891662e-05 -4.1644078e-05 -0.00019622508 0.00034764298 0.00010067212 -0.00015659758 0.00018911759 8.091873e-05
0.0005336769 -0.00018844263 -0.00030523553 0.001178632 -5.015955e-05 -1.6675973e-05 -0.00025813864 2.3728438e-05
-0.0003615127 0.0011930788 -0.00039377512 -8.21338e-05 -0.0001486876 -0.00024184557 0.0009600526 0.0010164143
-0.00026634202 0.0006984018 -0.00033382667 0.0008009209 0.00053269113 8.954287e-05 -0.00026361304 5.500238e-05
-7.647044e-05 -4.3853535e-05 -6.735352e-05 3.898067e-05 -5.5411932e-05 -9.736246e-05 -5.68444e-05 4.053325e-05
4.4023687e-05 -0.00017291222 -0.00013495781 0.00026992758 -6.5306696e-05 -3.4978704e-05 2.1445972e-05 -5.571963e-05
-0.000339705 0.00022480404 -0.00028116582 -7.329281e-05 -3.6970083e-05 -0.00011781375 0.00019173458 0.00014080692
-0.00012676638 0.00020541143 -0.00025740347 0.00026802937 0.00024757817 -1.5566278e-05 -0.00016010863 9.259035e-06
0.00021186241 -0.00025610003 3.3413675e-05 -6.1244464e-05 0.00017976623 0.00052395044 0.00031743778 -0.00013996872
-0.00015140692 0.00025446713 0.00042625162 -0.000639613 2.1915213e-05 2.5591567e-06 -0.00010540223 0.00012576727
0.0010526231 -0.00057501614 0.00073146913 0.00040360852 -0.000108574124 0.0004092611 -0.0005900327 -0.00050768803
0.00041420865 -0.0001477438 0.0010599296 -0.00042004074 -0.0004846216 6.975087e-05 0.00073953165 -0.0005434762
0.00026598695 -0.00026012096 1.6695143e-05 0.00013573765 0.00026677496 0.00046913573 0.0005600097 -4.7008438e-05
0.00012081137 0.000117979005 0.00031252316 -0.00071537954 1.0534719e-05 1.3459177e-05 -0.0003396777 0.00026549023
0.00071387354 -0.00081667356 0.0003836248 0.00047209417 -8.7060966e-05 0.00027616977 -0.0005319594 -0.00068121
0.00023896962 -0.00023794782 0.0007938991 -0.00058786635 -0.00069833087 0.00013245117 0.0005072677 -0.00047517513

exp_avg_sq f4 [32, 32]
00000000: d0e7 5936 71ef 1938 8d9f 9737 1b01 3437
00000010: 880c 9236 1a46 e437 e500 ad37 89b6 6f37
00000020: 5ff1 7837 c2db 1338 0d7f d237 e9f9 ac38
00000030: 4bad 9537 a685 c836 c1b1 2537 d693 0b37
00000040: e394 2138 4d53 0f39 9202 ef37 af35 8037
00000050: 49c5 0237 b04c 1737 8c86 6f38 c939 c938
00000060: 1ce8 8e37 b48b 6c38 ed09 1f38 800d 8338
00000070: f497 6c38 1350 a437 30fa 1838 a7a3 1e38
00000080: 4f72 c336 0a1b 7b38 5bf2 9737 7647 2b37
00000090: 31d0 a136 485e 1b38 8573 b438 904b f436
000000a0: 18a2 f237 ef55 6938 4bb8 1738 23ed a538
000000b0: 290c c937 478b 9737 ad7d d337 7c32 1d38
000000c0: 09c2 9838 2021 fa38 818c 0438 d230 4d38
000000d0: 7d83 3137 a60f 3537 99ae 7938 1519 b938
000000e0: 23e6 7637 589f 3338 4174 dc38 337a 6a38
000000f0: 9ad3 8038 3ffb 9b37 7df4 9f38 6520 6b38
00000100: 66cd ee36 04a8 1e38 22d2 6637 4068 3337
00000110: ce9d c736 3824 4a38 26da c238 4b4f ea36
00000120: e17e 0338 7b81 2a38 1c34 bb37 b8b6 8f38
00000130: 5977 f037 6074 a537 e028 f037 f110 2938
00000140: 7284 6c38 b75a ca38 af71 0338 6181 6238
00000150: 2277 4e37 789d 8937 9656 7038 38c1 a038
00000160: a9ef a237 78d0 0838 d567 0639 fc2c 2e38
00000170: e5d6 4e38 3951 6b37 e4e6 f138 ebcd 3638
00000180: 569a 9335 3561 6237 4a6c ed36 64a0 aa36
00000190: a43e ee35 6468 3537 1a15 ec36 1322 db36
000001a0: 4670 c636 be6f 4a37 fb98 1c37 dd36 fa37
000001b0: b6aa e836 c1e7 0636 4b2c 6236 ee83 4036
000001c0: 7534 5637 4ded 5038 9300 2a37 a442 c136
000001d0: 9beb 4836 785b 5f36 90b8 b237 cf96 1038
000001e0: 3864 e836 33c2 b337 8a38 4437 f977 c137
000001f0: 72ac ae37 da0a ff36 2980 3c37 e686 6a37
00000200: dca7 8135 122b 8037 a657 c636 03b5 7636
00000210: e03c d335 b651 3637 0ce5 1c37 9a68 9536
00000220: 5d7c b536 d95d 8337 1f30 1e37 aed8 fe37
00000230: 370a f736 6757 1736 6a7a 8036 716a 6936
00000240: 08e8 bb37 bda2 4738 556e 5d37 e8ac 1437
00000250: e99c 4136 6b12 6d36 2bf7 b737 ecb4 1438
00000260: ca7b a336 f5d7 8337 53ae d337 9df9 a737
00000270: 3f1e 9437 0fee ad36 e1c3 7437 8aed 7937
00000280: 3265 dd35 a364 ea37 ddf5 7137 76b8 2837
00000290: 6a3d 8036 a9cb b637 9d50 3e37 61cf 6837
000002a0: f06d 1e37 52d4 d237 f886 8f37 1c28 6938
000002b0: 54a4 7d37 2e18 5736 6954 cc36 aa08 9236
000002c0: 2881 e437 d136 c838 b5a0 b637 e847 3637
000002d0: 763e e336 32a6 fd36 055d 2338 1e77 8938
000002e0: ede7 5d37 3cc2 2238 00dd d837 dfca 3138
000002f0: f5df 2438 ba86 6837 a3b6 b437 1a91 f937
00000300: 900c d636 136d 8938 2850 c637 1ff4 6437
00000310: 9424 ea36 e92a 2638 7ff5 9138 9cff 6137
00000320: fa85 fd37 3fd6 8838 a557 2438 90d1 d438
00000330: ec08 0d38 d241 8137 9300 c537 de32 0738
00000340: d84a 9e38 e0d3 2239 63f7 4138 d5af 2f38
00000350: 1fcb 5737 3c49 6b37 3b1b a338 31a6 ef38
00000360: b640 a137 5c90 6b38 71d3 cb38 5e42 9638
00000370: a51b 9d38 3962 c037 005e 9238 9fed 8b38
00000380: 865a 2437 5dc0 b338 c8fe ef37 4372 9b37
00000390: 7c0b 3437 ee28 9538 b45a ef38 150b 9637
000003a0: f847 2338 28dc c038 2298 5538 9060 f238
000003b0: 1020 5e38 0984 c537 f5a4 1a38 fd05 4338
000003c0: 53be 0339 61d0 3939 f1e8 9138 35b8 9b38
000003d0: fc9e 9d37 e503 c437 a449 ae38 bd2f 0739
000003e0: 2443 f837 3545 9238 d019 3f39 196c b238
000003f0: 79eb c738 3cd9 eb37 fe26 0239 be77 b438
3.2470452e-06 3.670104e-05 1.80749e-05 1.0729093e-05 4.352598e-06 2.7212362e-05 2.0623624e-05 1.428801e-05
1.48381505e-05 3.5252197e-05 2.5093113e-05 8.2481485e-05 1.784288e-05 5.976023e-06 9.876153e-06 8.319466e-06
3.8524053e-05 0.00013668575 2.8492217e-05 1.5283787e-05 7.794538e-06 9.018157e-06 5.7107347e-05 9.59519e-05
1.7035803e-05 5.6396893e-05 3.79178e-05 6.249081e-05 5.6408302e-05 1.9587611e-05 3.647263e-05 3.782255e-05
5.82476e-06 5.9868245e-05 1.8113458e-05 1.0209033e-05 4.8224106e-06 3.7042686e-05 8.604586e-05 7.2805633e-06
2.8924129e-05 5.563156e-05 3.617284e-05 7.911983e-05 2.396673e-05 1.8065459e-05 2.5211682e-05 3.7478734e-05
7.284067e-05 0.00011927099 3.1602107e-05 4.8921276e-05 1.0580637e-05 1.0792084e-05 5.9528833e-05 8.826159e-05
1.47163255e-05 4.2825326e-05 0.000105120715 5.5903754e-05 6.1429295e-05 1.8594435e-05 7.62725e-05 5.6058536e-05
7.1168643e-06 3.7826612e-05 1.3757994e-05 1.0693504e-05 5.949033e-06 4.8194284e-05 9.291274e-05 6.9829744e-06
3.1351e-05 4.0651747e-05 2.2316402e-05 6.8528054e-05 2.8665805e-05 1.9723724e-05 2.8629263e-05 4.0308518e-05
5.6390134e-05 9.6490076e-05 3.133871e-05 5.4003092e-05 1.2306295e-05 1.6405e-05 5.73011e-05 7.665384e-05
1.9423505e-05 3.261908e-05 0.00012817916 4.1526728e-05 4.9314363e-05 1.4026003e-05 0.00011534782 4.3583957e-05
1.0997271e-06 1.34932825e-05 7.075757e-06 5.0850667e-06 1.7750613e-06 1.0812746e-05 7.0358046e-06 6.5306754e-06
5.91393e-06 1.2066155e-05 9.333943e-06 2.982787e-05 6.934012e-06 2.0102455e-06 3.3702406e-06 2.8687023e-06
1.2767608e-05 4.9812068e-05 1.0132923e-05 5.759606e-06 2.9939463e-06 3.3282831e-06 2.1305197e-05 3.4472727e-05
6.925806e-06 2.1428894e-05 1.1695674e-05 2.306326e-05 2.0822717e-05 7.6008555e-06 1.1235513e-05 1.3978895e-05
9.660102e-07 1.5278845e-05 5.9110635e-06 3.676222e-06 1.5738442e-06 1.086707e-05 9.351654e-06 4.4527233e-06
5.408698e-06 1.5660118e-05 9.428738e-06 3.0380059e-05 7.362363e-06 2.2551628e-06 3.828948e-06 3.4781663e-06
2.2400185e-05 4.759686e-05 1.3198315e-05 8.861745e-06 2.8850575e-06 3.5326473e-06 2.1930397e-05 3.5454446e-05
4.8721895e-06 1.571698e-05 2.5234336e-05 2.0024187e-05 1.765706e-05 5.1835154e-06 1.458914e-05 1.4896863e-05
1.6495235e-06 2.7941836e-05 1.4421964e-05 1.00565285e-05 3.821847e-06 2.1790927e-05 1.1343652e-05 1.3876562e-05
9.443131e-06 2.513282e-05 1.7109778e-05 5.5588884e-05 1.5118236e-05 3.205157e-06 6.0895004e-06 4.3521477e-06
2.7239861e-05 9.5469535e-05 2.1770926e-05 1.0864787e-05 6.7723986e-06 7.5593352e-06 3.894886e-05 6.5548564e-05
1.3226626e-05 3.8804705e-05 2.5852118e-05 4.2389027e-05 3.9309223e-05 1.3859646e-05 2.1542719e-05 2.9750681e-05
6.3791595e-06 6.552986e-05 2.3640765e-05 1.3646698e-05 6.9780017e-06 3.9617447e-05 6.959866e-05 1.3470559e-05
3.0222338e-05 6.524892e-05 3.9182272e-05 0.00010147982 3.362533e-05 1.5408648e-05 2.3484497e-05 3.2233882e-05
7.547968e-05 0.00015528454 4.6245183e-05 4.1887008e-05 1.2862291e-05 1.4024143e-05 7.777518e-05 0.00011427364
1.9222829e-05 5.616281e-05 9.719178e-05 7.164919e-05 7.4914926e-05 2.2933922e-05 6.9793314e-05 6.672297e-05
9.796238e-06 8.5712156e-05 2.8609662e-05 1.8530647e-05 1.073151e-05 7.1124974e-05 0.00011413303 1.7886554e-05
3.8929255e-05 9.196281e-05 5.0924842e-05 0.000115574454 5.2958785e-05 2.3545714e-05 3.687009e-05 4.64972e-05
0.00012564035 0.00017720602 6.9575275e-05 7.425287e-05 1.8789891e-05 2.3366834e-05 8.310683e-05 0.00012892387
2.9595169e-05 6.974713e-05 0.00018224795 8.507836e-05 9.53292e-05 2.811534e-05 0.00012412292 8.6053726e-05

exp_avg f4 [32]
00000000: f3ec 0eba 19f1 673a 6045 cd3a 208c e0b8
00000010: 36a7 303a fbc8 14b9 6075 643a 2372 9c3a
00000020: a656 163a 3e1c a6b9 4bb2 313a 77f4 73b9
00000030: e7dc b43a 1cfb 1a3a d269 833a c995 86b9
00000040: d985 d038 a6e0 9c3a a103 d0b9 7420 143a
00000050: 3fa3 5fb9 95bc 96b9 3195 f2b9 1598 c838
00000060: 9f0b bf3a c9bd afb8 c0c8 e0b9 2890 a3b9
00000070: feca 26b9 54d5 8b3a c726 46b8 bc09 31b9
-0.00054521783 0.0008847877 0.0015660934 -0.00010707253 0.00067387836 -0.00014189251 0.0008715 0.0011935871
0.00057349575 -0.0003168303 0.0006778582 -0.00023265356 0.0013798744 0.0005912052 0.0010026044 -0.0002567007
9.943144e-05 0.0011968806 -0.00039675555 0.0005650588 -0.00021327751 -0.00028750734 -0.00046268993 9.565071e-05
0.0014575607 -8.3800005e-05 -0.0004287418 -0.00031197187 -0.00015906614 0.0010668435 -4.7242993e-05 -0.00016883662

exp_avg_sq f4 [32]
00000000: 4d09 7e39 1be3 6d39 6593 9939 10a5 eb38
00000010: 5d80 a338 eb00 6d39 f35d ac39 53e9 013a
00000020: 0660 f337 5878 bf38 7fe4 5e39 19d0 d537
00000030: c127 0d39 2cfb 2139 ca85 5239 d228 4a38
00000040: 94ec 1d37 aa66 4838 015b dc37 aa99 0a39
00000050: 8ea4 af38 d6a7 0037 95f0 e337 329a 4437
00000060: 0e53 9439 02fc 7337 19b6 9339 9e14 6337
00000070: ed19 8f38 1f15 2238 0d51 0138 c2b7 7539
0.00024226792 0.00022686685 0.00029292252 0.000112364185 7.796355e-05 0.00022602423 0.00032876394 0.00049557275
2.9012572e-05 9.1300055e-05 0.00021256691 2.5488482e-05 0.00013461617 0.00015447725 0.00020077001 4.819857e-05
9.413012e-06 4.777933e-05 2.626842e-05 0.0001321795 8.375301e-05 7.668472e-06 2.7172538e-05 1.1718412e-05
0.0002829064 1.4542604e-05 0.00028173698 1.3535055e-05 6.8236004e-05 3.864348e-05 3.083148e-05 0.00023433476

exp_avg f4 [1, 32]
00000000: 564a 80ba d31b ff39 a46a a33a 3631 4dbb
00000010: eb55 393b c3cc 0fbb 36da c7b7 ab41 3d3a
00000020: d7ee 303b 437e 6fbb 633a b03a ae2b 0a3b
00000030: bc50 9837 5c49 e33a 418c c0ba 8503 d239
00000040: 651a a8ba 6d91 c63b a49f 573b df38 903b
00000050: f44d 46bb 5a8a 82bb 5fa7 613b 5aa9 acba
00000060: f7b0 2639 4f63 113b 171c 17bb 4c38 443b
00000070: 862f 55bb ba9e 7db9 15a5 1f3b ee3f 9cba
-0.0009787779 0.0004865812 0.0012467694 -0.003130985 0.002827997 -0.0021942116 -2.3824261e-05 0.0007219563
0.0026997828 -0.0036543764 0.0013445135 0.0021083164 1.8157407e-05 0.0017340588 -0.0014690236 0.00040056944
-0.0012825249 0.0060598166 0.003290155 0.004401311 -0.0030258866 -0.003983778 0.0034432036 -0.0013173029
0.00015896918 0.0022184437 -0.0023057514 0.0029940782 -0.0032529547 -0.0002418709 0.0024359871 -0.0011920908

exp_avg_sq f4 [1, 32]
00000000: 3532 433b a246 ee3a d680 773b 13a4 383b
00000010: c194 663a 8e05 bf3a f884 a53a 7bd5 173b
00000020: e19b 143a b917 0b3b ec5d 033b 1e95 7f3a
00000030: 3c4d c03a 4178 153b 4fcc 703a 7b59 213b
00000040: ee84 4539 99b1 ae3a d712 bb3a a492 883a
00000050: a080 cd3a f328 583a 4b8e 863a 68e1 d439
00000060: 8966 a03a 448c c53a 7ea1 423b dca9 2e3a
00000070: 22eb 293b 7dfa 253a 2e62 e939 a938 053a
0.0029784564 0.0018179009 0.0037766001 0.0028173968 0.000879597 0.0014573799 0.0012628129 0.0023168016
0.000566898 0.0021223857 0.0020044995 0.0009749698 0.0014671455 0.0022807273 0.0009185718 0.0024619985
0.00018836904 0.0013328075 0.0014272582 0.0010419679 0.0015678592 0.0008245848 0.0010265795 0.00040603732
0.0012237589 0.001507171 0.0029698308 0.0006662884 0.0025927504 0.0006331576 0.00044514373 0.00050819904

exp_avg f4 [1, 32]
00000000: a98e 92bb 1e19 e13a 42ef 143b 4b5d a53a
00000010: 2b29 123b 6e0d 363a e0e6 383a 4f0e 743a
00000020: faf2 813a 67b6 d7b9 3811 8f3a cb6c 933a
00000030: 4292 773a 8196 ae3a 6416 313a 2375 aa3b
00000040: 1994 edba 376e e93b 25a9 433a 4a19 aa3b
00000050: d019 a9ba 2f39 213b 63d9 4bba 1d47 60bb
00000060: 4d66 8439 d7b0 213a 4c7f a23a 30b2 59bb
00000070: 6ccf fdba a60c e13b b80b 4abb b190 13bb
-0.004472573 0.0017173623 0.0022725617 0.0012616304 0.002230237 0.000694475 0.0007053446 0.00093099935
0.0009914332 -0.00041143896 0.0010915166 0.0011247633 0.00094440964 0.001332 0.00067553506 0.005201952
-0.0018125802 0.0071237343 0.0007463864 0.005191003 -0.001290137 0.0024600734 -0.00077762286 -0.0034222074
0.00025253222 0.0006168014 0.0012397557 -0.003321778 -0.0019364185 0.006867963 -0.0030829739 -0.0022516663

exp_avg_sq f4 [1, 32]
00000000: d79b 8b39 6933 2e39 2998 8a39 c03b 9039
00000010: e9d6 2339 481f 1339 b396 0439 e5af 2d39
00000020: 3f42 a538 7b31 6039 b9a8 1639 7ef4 8238
00000030: 93a9 fb38 f8eb 2e39 6421 9e38 12f7 9e39
00000040: 2a5b 1038 31c1 e039 2530 0b39 3a1b 8339
00000050: ca32 3339 54ee 1139 ed3d d538 f843 b437
00000060: dddc ec38 25d8 ce38 371a 9c39 7a37 2539
00000070: ce41 a439 4f62 d539 9157 3639 1777 de38
0.00026628256 0.00016613085 0.0002643478 0.00027510338 0.00015624952 0.00014030666 0.00012644641 0.00016564091
7.8801524e-05 0.00021380738 0.00014367969 6.244423e-05 0.00012000198 0.00016681838 7.5402466e-05 0.0003032019
3.441718e-05 0.00042868548 0.00013274008 0.00025006552 0.0001708969 0.00013917062 0.00010168166 2.1489323e-05
0.00011294496 9.8631055e-05 0.0002977417 0.00015756293 0.00031329546 0.00040699771 0.00017389494 0.00010607967
